results/agent_Youtube-Sampled.pth (torch, 118643 bytes, 200 tensors)

0.conv1.lin_l.weight f4 [16, 4]
0.08753184 0.020915022 0.01723712 0.066606194 0.123858474 0.0051555927 0.044403005 0.050740197
0.104577266 0.03432817 0.07280526 0.09066316 0.07078192 0.04470938 0.03518138 0.07237992
0.1229693 0.028485723 0.04021372 0.07367055 0.11386598 0.044206362 0.064115055 0.085251704
0.08632755 0.020733928 0.03972633 0.07625618 0.09406243 0.008984934 0.086472824 0.08168649
0.12330508 0.04984995 0.014392364 0.092942774 0.09563489 0.00981553 0.015463139 0.08118017
0.13258225 0.01906723 0.06301919 0.08742104 0.11381653 0.048864182 0.05041042 0.06544528
0.103000425 0.034261484 0.04336822 0.055566054 0.101275876 0.010985787 0.024711337 0.07402283
0.08264344 0.03860811 0.031180894 0.06645359 0.07758071 0.017012928 0.02431131 0.081839524
00000000: e543 b33d fb55 ab3c dc34 8d3c d468 883d
00000010: 83a9 fd3d 3ff0 a83b eddf 353d f4d4 4f3d
00000020: 9b2c d63d b29b 0c3d ed1a 953d 9bad b93d
00000030: 1cf6 903d 2f21 373d 5a1a 103d ec3b 943d
00000040: 54d7 fb3d e45a e93c 24b7 243d 96e0 963d
00000050: 9132 e93d bb11 353d c14e 833d 7298 ae3d
00000060: 80cc b03d 33da a93c 14b8 223d 332c 9c3d
00000070: cea3 c03d 8b35 133c aa18 b13d 3f4b a73d
00000080: 6087 fc3d 762f 4c3d f3cd 6b3c c858 be3d
00000090: 3adc c33d 51d1 203c 1b59 7d3c ca41 a63d
000000a0: a4c3 073e e132 9c3c 3510 813d cd09 b33d
000000b0: a418 e93d cf25 483d 287b 4e3d 2d08 863d
000000c0: e3f1 d23d c555 0c3d e0a2 313d 3b99 633d
000000d0: ba69 cf3d bbfd 333c 6e6f ca3c 4899 973d
000000e0: f740 a93d 8a23 1e3d 136f ff3c d218 883d
000000f0: a3e2 9e3d b25e 8b3c 8328 c73c 7b9b a73d

0.conv1.lin_l.bias f4 [16]
0.06845069 0.06545661 0.03670436 0.027834382 0.07961532 0.057426807 0.05588214 0.051902954
0.051103994 0.052171502 0.03802136 0.06604561 0.038308505 0.09485447 0.024489582 0.09548125
00000000: e02f 8c3d 1d0e 863d 5057 163d ee04 e43c
00000010: 5b0d a33d 5f38 6b3d ace4 643d 3198 543d
00000020: 6c52 513d c9b1 553d 49bc 1b3d ec42 873d
00000030: 61e9 1c3d 0f43 c23d 609e c83c ac8b c33d

0.conv1.lin_r.weight f4 [16, 4]
0.1334449 0.04911876 0.056153804 0.045434695 0.12927777 0.032732368 0.04828309 0.14373542
0.108435765 0.043650303 0.049751237 0.0995094 0.15349367 0.06515578 0.036179915 0.05986787
0.14953989 0.020979488 0.08544268 0.06512685 0.1203542 0.03593653 0.05782121 0.11483604
0.12900057 0.0217355 0.07367709 0.080239445 0.13767914 0.045250896 0.06882824 0.11362562
0.12995973 0.05843792 0.06313113 0.100470975 0.1357498 0.062165767 0.07319548 0.09355417
0.11995922 0.015679495 0.052742198 0.0745663 0.112797335 0.029384665 0.050661754 0.062480375
0.13830076 0.07749602 0.061306268 0.07047111 0.1187252 0.036576822 0.07683857 0.06934211
0.13934842 -0.015857171 0.014367718 0.0685576 0.13331227 0.0255816 0.090454146 0.059686605
00000000: c8a5 083e c130 493d 8801 663d bb19 3a3d
00000010: 6461 043e 6012 063d 7dc4 453d 612f 133e
00000020: 9213 de3d a9ca 323d f4c7 4b3d 96cb cb3d
00000030: 722d 1d3e 6570 853d 6431 143d 0338 753d
00000040: fc20 193e 2ddd ab3c 92fc ae3d 3a61 853d
00000050: 437c f63d 2f32 133d efd5 6c3d 282f eb3d
00000060: ba18 043e a60e b23c 04e4 963d 9454 a43d
00000070: c3fb 0c3e 0159 393d d2f5 8c3d 8db4 e83d
00000080: 2a14 053e 9a5c 6f3d e54a 813d bac3 cd3d
00000090: ff01 0b3e 88a1 7e3d 83e7 953d 5499 bf3d
000000a0: 2ead f53d 4972 803c 3408 583d 37b6 983d
000000b0: 4a02 e73d 1cb8 f03c b382 4f3d 6ceb 7f3d
000000c0: b79e 0d3e 3cb6 9e3d 481c 7b3d 2853 903d
000000d0: 3326 f33d 94d1 153d 8a5d 9d3d 3c03 8e3d
000000e0: 5ab1 0e3e e6e6 81bc 9466 6b3c ed67 8c3d
000000f0: 0383 083e 8190 d13c 0640 b93d f179 743d

0.conv2.lin_l.weight f4 [8, 16]
-0.01190576 0.004966697 -0.037438318 -0.016878178 -0.015497023 -0.0017636965 0.006306535 0.010204342
0.0010616878 0.0007252458 -0.015721811 0.000107065884 -0.0061600213 -0.0007154405 -0.008970491 -0.023426764
0.022441702 -0.007076725 -0.010429666 -0.00300129 0.021053981 -0.0072795893 -0.015445955 0.005165634
0.015990403 0.028052531 0.004083945 0.006886592 -0.01401091 0.008856767 0.02169995 -0.009650622
0.0076642935 -0.006884801 0.0011343629 0.025102904 0.0114091 0.01880532 0.021485612 -0.0076716356
-0.0009263289 0.017024778 0.011002612 0.00044013784 -0.0030158567 -0.002962679 0.010772865 0.0017342216
-0.002994649 0.0064536487 0.0067806975 -0.012732655 -0.027084213 -0.002909493 -0.0036084927 -0.01354765
0.0064349715 -0.0029300454 0.007205172 0.0059982925 0.011615229 0.019599123 0.0017092451 0.011277202
0.028030364 0.009354246 0.014775094 0.03046695 -0.0035377964 -0.0032623482 0.013418811 -0.008265118
-0.0002268818 0.031756 0.018096643 0.028830122 0.029641666 0.007939801 0.0031784563 0.0169226
-0.017069474 -0.012873552 -0.029576957 -0.006805659 -0.024746094 -0.013726138 -0.017234273 -0.038447056
-0.027236786 -0.025685526 0.008116804 -0.023084896 -0.021921216 -0.018502332 -0.0255902 -0.013273581
-0.0010374933 0.01997321 0.007318575 0.014685994 0.014491698 0.026362762 0.012389792 0.017218094
0.013097804 0.020960175 0.033541646 0.025939474 0.00860675 0.020315409 0.01313685 0.038826384
0.0041179312 0.0012562041 0.010312854 0.0042265425 0.012111347 -0.009662906 0.009397333 0.01722933
0.0027147864 0.008114356 -0.00080079905 0.007289467 0.023933118 0.003026263 0.006419243 0.0228819
00000000: 6010 43bc adbf a23b ec58 19bd 1b44 8abc
00000010: 3ae7 7dbc d62b e7ba 0da7 ce3b 1d30 273c
00000020: 5528 8b3a 6c1e 3e3a 07cb 80bc 8f88 e038
00000030: 01da c9bb 668c 3bba f7f8 12bc 7ce9 bfbc
00000040: a9d7 b73c dfe3 e7bb 31e1 2abc 4ab1 44bb
00000050: 6679 ac3c 9f89 eebb 0811 7dbc 7b44 a93b
00000060: 4efe 823c 6cce e53c 9dd2 853b eca8 e13b
00000070: 048e 65bc f91b 113c 18c4 b13c a41d 1ebc
00000080: c124 fb3b e699 e1bb e7ae 943a 9ba4 cd3c
00000090: 3ced 3a3c 9d0d 9a3c 9802 b03c 5862 fbbb
000000a0: e1d4 72ba 8c77 8b3c 4d44 343c 4dc2 e639
000000b0: aea5 45bb 8129 42bb ac80 303c d24e e33a
000000c0: e041 44bb 2179 d33b 9d30 de3b a09c 50bc
000000d0: b6df ddbc 31ad 3ebb 767c 6cbb f6f6 5dbc
000000e0: 74dc d23b 0106 40bb 5d19 ec3b 538d c43b
000000f0: cd4d 3e3c 578e a03c c008 e03a 03c4 383c
00000100: ef9f e53c 8d42 193c 3c13 723c d395 f93c
00000110: 60da 67bb 1fcd 55bb 93da 5b3c 6b6a 07bc
00000120: 1fe7 6db9 9412 023d 693f 943c 262d ec3c
00000130: 14d3 f23c f015 023c a64d 503b 44a1 8a3c
00000140: 48d5 8bbc 97eb 52bc 604b f2bc 0102 dfbb
00000150: 52b8 cabc 98e3 60bc e42e 8dbc a97a 1dbd
00000160: ae1f dfbc 746a d2bc 58fc 043c 891c bdbc
00000170: 1f94 b3bc 3492 97bc 8aa2 d1bc 6f79 59bc
00000180: 80fc 87ba db9e a33c a8d0 ef3b 869d 703c
00000190: 966e 6d3c b8f6 d73c 8efe 4a3c f60c 8d3c
000001a0: 2c98 563c acb4 ab3c f762 093d 057f d43c
000001b0: 5303 0d3c 806c a63c f13b 573c 6a08 1f3d
000001c0: b6ef 863b 37a7 a43a 3ff7 283c cf7e 8a3b
000001d0: ac6e 463c 2a51 1ebc 45f7 193c 8624 8d3c
000001e0: 8fea 313b 13f2 043c b7ec 51ba 7bdc ee3b
000001f0: 630f c43c 4554 463b 8358 d23b d372 bb3c

0.conv2.lin_l.bias f4 [8]
-0.0082148295 0.0009772027 0.012753831 -0.0107794115 0.019311318 -0.022015385 0.016496912 0.0036631292
00000000: 7e97 06bc 7b15 803a 72f5 503c 219c 30bc
00000010: c532 9e3c 9c59 b4bc 8824 873c 1c11 703b

0.conv2.lin_r.weight f4 [8, 16]
0.003807537 0.009956693 -0.02706957 -0.0051797335 -0.012163896 -0.005000438 -0.01740874 -0.02359351
0.0019161355 -0.0055528204 -0.021061001 -0.006894705 -0.005400057 -0.0032340907 0.0047129346 -0.0050393837
0.0058995606 0.004582086 0.011585412 0.010860822 0.0027700823 0.0040081143 -0.012948709 0.004382889
-0.00025389134 0.035280574 0.010114349 0.017642476 -0.0088621555 -0.0061480794 0.0015638192 0.009665323
0.0041641626 0.02114324 -0.00027217448 0.009905317 0.011621091 0.010469759 0.0065076314 -0.007997679
0.0022118478 0.027722262 0.024711572 0.0017287991 -0.005950895 -0.0025213272 0.019868014 -0.019129
-0.009931295 0.010953772 0.0087767895 -0.008553847 0.0026531953 0.0027479671 0.004136603 -0.009899372
-0.006565782 -0.01735496 -0.014207382 0.01648575 -0.018459437 0.0005481559 -0.004343056 -0.027421545
0.0064608776 0.01839412 0.017889824 0.037106518 0.022434207 0.0025029534 0.011422817 0.01690754
0.005803679 0.006430047 0.02698881 0.03647832 0.006490611 0.019622441 0.007426536 0.024783252
-0.02566851 -0.018075602 -0.024260605 -0.0039226436 -0.01320592 -0.025657747 -0.020219358 -0.028998008
-0.010758034 -0.033465873 0.0077923713 -0.02283041 0.0005776675 -0.043770887 -0.02341223 -0.0047365543
0.022414282 0.0049317614 -0.010810519 0.016328162 0.017025255 0.02144397 0.023006178 -0.0043488657
0.0038117531 0.012420219 0.01093876 0.015328115 0.018259779 0.03217675 0.020999694 0.021107374
0.016127657 0.0093795005 0.0024595386 0.0066015394 0.0006121799 -0.01130876 0.0033123516 0.0056602145
-0.009157993 -0.007776798 0.0040977504 0.000105558705 0.0019242805 0.016460182 0.010267702 0.005000094
00000000: df87 793b 6621 233c 01c1 ddbc c1ba a9bb
00000010: 144b 47bc b7da a3bb c69c 8ebc 2d47 c1bc
00000020: d726 fb3a 6ff4 b5bb 1f88 acbc faec e1bb
00000030: f6f2 b0bb 0af3 53bb f66e 9a3b 6a21 a5bb
00000040: 1a51 c13b 5325 963b bdd0 3d3c 97f1 313c
00000050: 458a 353b 8056 833b d226 54bc 569e 8f3b
00000060: b81c 85b9 5d82 103d a8b6 253c f486 903c
00000070: 9332 11bc d475 c9bb 11f9 cc3a 4e5b 1e3c
00000080: 8773 883b 9734 ad3c a4b2 8eb9 e949 223c
00000090: 6366 3e3c 5a89 2b3c f83d d53b b208 03bc
000000a0: a6f4 103b cc19 e33c ec6f ca3c df98 e23a
000000b0: baff c2bb da3c 25bb 3fc2 a23c 6cb4 9cbc
000000c0: dfb6 22bc 7377 333c 86cc 0f3c 6f25 0cbc
000000d0: 3be1 2d3b 3d17 343b 578c 873b fa30 22bc
000000e0: c525 d7bb fd2b 8ebc 14c6 68bc 200d 873c
000000f0: 3f38 97bc 1fb2 0f3a 3250 8ebb 26a3 e0bc
00000100: c5b5 d33b 44af 963c ae8d 923c 01fd 173d
00000110: f1c7 b73c 9708 243b c426 3b3c ae81 8a3c
00000120: ca2c be3b 25b3 d23b a317 dd3c 4a6a 153d
00000130: 31af d43b 3ebf a03c 4d5a f33b 3f06 cb3c
00000140: c446 d2bc 4913 94bc 2dbe c6bc 8589 80bb
00000150: a55d 58bc 3230 d2bc 11a3 a5bc 3b8d edbc
00000160: 7742 30bc 8313 09bd 2657 ff3b d706 bbbc
00000170: 9c6e 173a 1a49 33bd 01cb bfbc 1935 9bbb
00000180: 289e b73c 9d9a a13b 9a1e 31bc a3c2 853c
00000190: 8c78 8b3c 44ab af3c 7477 bc3c ee80 8ebb
000001a0: 9bce 793b 2d7e 4b3c 7c38 333c c622 7b3c
000001b0: 8895 953c c5cb 033d 8d07 ac3c 5fe9 ac3c
000001c0: 261e 843c 7aac 193c 3630 213b ba51 d83b
000001d0: b37a 203a 6148 39bc 0a14 593b 5279 b93b
000001e0: 680b 16bc 83d4 febb 6c46 863b 665f dd38
000001f0: 2438 fc3a 81d7 863c dd39 283c d4d7 a33b

1.conv1.lin_l.weight f4 [16, 4]
0.0943282 0.0064578997 0.066172674 0.05308938 0.10328568 0.01912289 0.054486416 0.09694205
0.12708701 0.017288156 0.037997976 0.0760282 0.096163295 0.049040247 0.02463717 0.098988034
0.09218654 -0.002367593 0.032393854 0.048936747 0.10377877 0.06055905 0.05330781 0.07245886
0.101565555 0.041569877 0.028561737 0.0897861 0.12035891 0.0038014925 0.0246265 0.057091072
0.117180586 0.013672581 0.04565845 0.042119794 0.087171696 0.03162359 0.06208993 0.090697154
0.11884332 0.019183498 0.05774599 0.058536258 0.0849565 0.032689985 0.06059763 0.10255356
0.115628846 0.04601536 0.082060166 0.11101252 0.10849122 0.015662886 0.03283052 0.06954441
0.08581157 -0.0003251302 0.052342396 0.09490222 0.076701745 0.03245352 0.017377725 0.10989924
00000000: 252f c13d ca9c d33b 8a85 873d 4074 593d
00000010: 7187 d33d 9ba7 9c3c 262d 5f3d 8e89 c63d
00000020: 1923 023e e49f 8d3c c4a3 1b3d acb4 9b3d
00000030: 43f1 c43d 6dde 483d e4d3 c93c 3dba ca3d
00000040: 4ccc bc3d 9f29 1bbb 6baf 043d e671 483d
00000050: f789 d43d c40c 783d 4a59 5a3d 5065 943d
00000060: 9a01 d03d 2d45 2a3d 4efa e93c c6e1 b73d
00000070: bb7e f63d 7622 793b 84bd c93c 54d8 693d
00000080: 60fc ef3d f602 603c 5b04 3b3d ce85 2c3d
00000090: 1387 b23d bd87 013d 0352 7e3d 6ebf b93d
000000a0: 2064 f33d b626 9d3c 0f87 6c3d b7c3 6f3d
000000b0: acfd ad3d efe5 053d 3835 783d 9a07 d23d
000000c0: d1ce ec3d 9a7a 3c3d 290f a83d 885a e33d
000000d0: a530 de3d 744f 803c 4c79 063d 4d6d 8e3d
000000e0: fabd af3d 3d76 aab9 fb64 563d 185c c23d
000000f0: ce15 9d3d fbed 043d bb5b 8e3c da12 e13d

1.conv1.lin_l.bias f4 [16]
0.055910677 0.039274726 0.044093776 0.04664995 0.046857677 0.06489342 0.043996707 0.07250283
0.034115065 0.047113303 0.06944773 0.05940317 0.065028325 0.06998856 0.0675891 0.062079374
00000000: 9802 653d 89de 203d ad9b 343d 0514 3f3d
00000010: d6ed 3f3d d7e6 843d e435 343d 5d7c 943d
00000020: 3dbc 0b3d e1f9 403d 9d3a 8e3d bd50 733d
00000030: 922d 853d 2a56 8f3d 276c 8a3d f146 7e3d

1.conv1.lin_r.weight f4 [16, 4]
0.16077098 0.05043883 0.0825543 0.111027785 0.12986577 0.038080975 0.053838503 0.0469749
0.15225028 0.025572982 0.027441772 0.102443434 0.1344354 0.021970129 0.07491353 0.07465752
0.115509026 0.054375153 0.08807859 0.09221043 0.11025229 0.007675097 0.071136914 0.06468436
0.098237745 0.04723285 0.09606071 0.08239499 0.11442228 0.028960984 0.031969123 0.10213977
0.1345706 0.06868275 0.052608777 0.07130789 0.14164284 0.04572012 0.07695624 0.08787796
0.1267812 0.053672142 0.05478401 0.085042216 0.12147586 0.043868706 0.08031566 0.05505829
0.15562306 0.042572327 0.085741244 0.10023525 0.1318914 0.063830264 0.054488204 0.10475902
0.12263748 0.03052318 0.06477071 0.072456196 0.12456636 0.027423296 0.0660119 0.08785281
00000000: 26a1 243e f298 4e3d 3b12 a93d 8962 e33d
00000010: 88fb 043e ccfa 1b3d c385 5c3d c168 403d
00000020: 7fe7 1b3e 6e7e d13c 91cd e03c ddcd d13d
00000030: 6fa9 093e b3fa b33c 446c 993d 0be6 983d
00000040: ff8f ec3d 7bb8 5e3d 8c62 b43d d2d8 bc3d
00000050: f4cb e13d 617f fb3b 3bb0 913d 3c79 843d
00000060: df30 c93d 3c77 413d 7abb c43d b4be a83d
00000070: 3a56 ea3d 963f ed3c 0ef2 023d a82e d13d
00000080: e0cc 093e 8ba9 8c3d 4d7c 573d df09 923d
00000090: d20a 113e 0545 3b3d 3c9b 9d3d 5cf9 b33d
000000a0: eed2 013e 52d7 5b3d 3365 603d 9d2a ae3d
000000b0: 56c8 f83d acaf 333d 897c a43d cd84 613d
000000c0: a75b 1f3e 5260 2e3d 1b99 af3d 2448 cd3d
000000d0: 8a0e 073e 71b9 823d 062f 5f3d e68b d63d
000000e0: 5c29 fb3d bf0b fa3c 82a6 843d ea63 943d
000000f0: a61c ff3d d2a6 e03c 3f31 873d 2dec b33d

1.conv2.lin_l.weight f4 [8, 16]
-0.007182104 0.0059473235 0.011704501 -0.028375816 -0.0042389575 -0.0031992772 0.010897795 0.013174317
-0.00016617954 -0.010873421 0.011208022 -0.0028991166 -0.014563373 -0.0057280594 0.0077208234 0.018135782
0.016635247 -0.0013447333 0.0050403876 -0.018719751 0.00944448 -0.007167014 0.008389555 -0.0050389934
-0.00425464 0.0053973617 -0.015418823 -0.013944965 0.0032348204 0.013621427 -0.017323548 -0.0026188758
0.014543976 -0.017874986 0.01896469 0.0028359185 -0.00082927005 0.011820292 0.0020713601 -0.0073236614
0.013446237 0.0091999695 0.008119488 -0.00272273 0.0158284 0.0012594756 0.00019317419 0.0041456786
0.017347485 0.013993716 0.010956038 -0.0032601813 -0.0019410461 -0.023733014 0.015645226 0.008613167
-0.0072721858 -0.0011602793 -0.011067275 0.007276752 0.0031298562 0.019219609 -0.009836811 0.027209038
0.015339233 0.028361164 0.001988887 0.010765903 0.0031131094 -0.0111481985 -0.01204048 -0.001901602
0.006781825 0.004765655 -0.026754584 0.009208519 -0.014854968 0.0022452911 -0.011592177 -0.0011897726
0.008547052 0.003392569 0.011630397 -0.008024179 0.018483786 0.016144203 0.009582231 0.0105291605
0.012125719 0.017315833 0.0001391501 0.025626803 -0.0056708073 0.019242497 0.0076937824 -0.0010785046
-0.0027297246 -0.004578539 0.000792315 0.0054049515 -0.0054756124 0.00038004428 -0.014448728 -0.0023097575
0.0053100036 0.0021881713 0.0068370914 0.0023585067 -0.02685585 -0.008836209 0.0006217706 -0.017981004
0.017816499 0.0019721459 0.023443561 -0.0036727793 -0.015967658 -0.0019498095 0.016904281 0.007837432
0.0064453185 -0.010685547 0.0057005193 0.020432636 -0.0019046149 0.0025996119 0.017833043 0.0153668495
00000000: db57 ebbb c4e1 c23b 3cc4 3f3c 6674 e8bc
00000010: f4e6 8abb f7aa 51bb aa8c 323c 17d9 573c
00000020: 7b40 2eb9 6f26 32bc daa1 373c 1bff 3dbb
00000030: 379b 6ebc 72b2 bbbb f6fe fc3b 7e91 943c
00000040: a446 883c c341 b0ba d629 a53b 2a5a 99bc
00000050: 05bd 1a3c 45d9 eabb 5874 093c 241e a5bb
00000060: 826a 8bbb 5adc b03b 3b9f 7cbc 6c79 64bc
00000070: 48ff 533b 682c 5f3c 1dea 8dbc 72a1 2bbb
00000080: db49 6e3c 906e 92bc d65b 9b3c d1da 393b
00000090: 5f63 59ba e6a9 413c a8bf 073b 53fb efbb
000000a0: 9b4d 5c3c 78bb 163c 9a07 053c d46f 32bb
000000b0: 90aa 813c fd14 a53a cd8e 4a39 79d8 873b
000000c0: 501c 8e3c e645 653c f480 333c c4a8 55bb
000000d0: b36a feba bd6b c2bc 6b2a 803c 3e1e 0d3c
000000e0: 844b eebb 8314 98ba 8453 35bc d271 ee3b
000000f0: 461e 4d3b 7172 9d3c 932a 21bc 7de5 de3c
00000100: 6851 7b3c ac55 e83c fd57 023b 7863 303c
00000110: 4f05 4c3b efa6 36bc 6f45 45bc 2d3f f9ba
00000120: 123a de3b 3629 9c3b 6e2c dbbc 54df 163c
00000130: 4062 73bc bc25 133b 1ded 3dbc 25f2 9bba
00000140: ef08 0c3c dd55 5e3b 6c8d 3e3c d977 03bc
00000150: 4f6b 973c d940 843c cafe 1c3c 8082 2c3c
00000160: f4aa 463c efd9 8d3c d2e8 1139 4def d13c
00000170: 2ed2 b9bb 71a2 9d3c 201c fc3b 9c5c 8dba
00000180: 2ee5 32bb 9207 96bb 5cb3 4f3a 051c b13b
00000190: c46c b3bb ae40 c739 5cba 6cbc 4d5f 17bb
000001a0: 8aff ad3b 6c67 0f3b ae09 e03b 2d91 1a3b
000001b0: cd00 dcbc bfc5 10bc 52fe 223a e64c 93bc
000001c0: e8f3 913c 1e3f 013b b60c c03c 03b3 70bb
000001d0: 9bce 82bc c090 ffba d97a 8a3c 9368 003c
000001e0: 4033 d33b 6f12 2fbc 6ccb ba3b 5862 a73c
000001f0: 45a4 f9ba 405e 2a3b 9a16 923c 3dc5 7b3c

1.conv2.lin_l.bias f4 [8]
0.032720692 0.015098917 0.013117565 -0.0045808638 -0.008083611 -0.0027454055 -0.0049336217 0.0019216782
00000000: 2206 063d 7361 773c 0eeb 563c 121b 96bb
00000010: 1f71 04bc 43ec 33bb 38aa a1bb d2e0 fb3a

1.conv2.lin_r.weight f4 [8, 16]
0.009024129 0.021456832 -0.008391731 -0.006532954 0.014797347 -0.01547163 -0.0045275893 0.0007927814
0.012101323 0.006608056 0.005793917 -0.009220558 0.013823174 -0.0034176079 -0.017882217 0.016834848
0.004316018 -0.018982047 0.00033306898 -0.0062710475 0.0061713876 0.0064096507 0.007399651 -0.0011345586
-0.0029478937 -0.0031004983 -0.0011079648 -0.0053111785 0.011762049 0.011517856 -0.014050546 -0.0064019724
0.037306007 0.000114528535 0.007754235 -0.0013937859 0.0036605191 0.03395389 0.0077094794 0.010714507
0.0039221128 0.004989117 0.012730505 0.007341491 0.011242942 -0.002922123 0.015481527 -0.0026358454
0.013153927 0.010885216 0.002819457 0.0006529209 -0.0035324853 0.00096915 0.0045892936 -0.0015410179
0.00498773 -0.00012290865 -0.0052251876 -0.021141374 -0.02120243 0.009402238 0.015282383 0.009265584
-0.0030499431 -0.0057529123 0.016515698 -0.008277198 -0.004045886 -0.016340012 0.0049089305 -0.008946994
0.0045673763 -0.017882328 -0.006814197 0.010898025 -0.020275854 0.0057493346 0.0075411093 0.0017970785
0.0083207255 0.027570492 0.010690634 0.005926411 0.013322833 0.00529069 0.009741084 0.0036448569
0.012105346 0.012205925 0.018316057 -0.00849154 0.0025113104 0.0042967875 -0.01763122 -0.009388361
0.003174838 0.0061020874 -0.0030205864 -0.0038040143 0.0047497246 -0.0023352983 -0.013991727 -0.008388864
-0.021229573 -0.0073012696 0.0018988597 0.007624103 -0.0060366984 -0.008688754 -0.004770301 -0.035435665
-0.011084061 0.009128239 0.019520491 0.0007070452 0.015492627 0.00534838 0.0077617727 0.022463966
-0.006755882 0.0062445905 -0.00332041 -0.014652062 0.018847672 -0.0043779747 0.009390766 0.010227794
00000000: f1d9 133c 3dc6 af3c 797d 09bc 6412 d6bb
00000010: 9270 723c b87c 7dbc 2c5c 94bb a9d2 4f3a
00000020: a144 463c 6488 d83b e6da bd3b d311 17bc
00000030: 987a 623c f2f9 5fbb ba7d 92bc 3ce9 893c
00000040: 626d 8d3b 3d80 9bbc c39f ae39 5c7d cdbb
00000050: 5a39 ca3b 0c08 d23b c678 f23b 78b5 94ba
00000060: 7331 41bb bb31 4bbb 2139 91ba 6509 aebb
00000070: 9cb5 403c 64b5 3c3c 4334 66bc a3c7 d1bb
00000080: 2fce 183d 0a2f f038 3d17 fe3b b2af b6ba
00000090: 52e5 6f3b 3c13 0b3d cd9f fc3b e68b 2f3c
000000a0: 1185 803b bf7b a33b 9c93 503c e490 f03b
000000b0: 5134 383c 1781 3fbb 3ba6 7d3c 26be 2cbb
000000c0: 9283 573c e857 323c a4c6 383b c828 2b3a
000000d0: 4581 67bb 8e0e 7e3a c961 963b fbfb c9ba
000000e0: 1d70 a33b 0ae1 00b9 0d38 abbb ad30 adbc
000000f0: b8b0 adbc d80b 1a3c f662 7a3c adce 173c
00000100: 8ee1 47bb ed82 bcbb ee4b 873c 169d 07bc
00000110: 5a93 84bb 7ddb 85bc 18db a03b 6a96 12bc
00000120: eea9 953b f67d 92bc a149 dfbb a18d 323c
00000130: 8c19 a6bc ea64 bc3b 691b f73b f38b eb3a
00000140: a753 083c 83db e13c c527 2f3c 5732 c23b
00000150: 0348 5a3c 865d ad3b 1199 1f3c 8dde 6e3b
00000160: 8055 463c 5cfb 473c 8e0b 963c 1a20 0bbc
00000170: cc94 243b 11cc 8c3b 596f 90bc a4d1 19bc
00000180: f110 503b 05f4 c73b 08f5 45bb c54c 79bb
00000190: 94a3 9b3b ce0b 19bb 8e3d 65bc 7271 09bc
000001a0: a4e9 adbc 7d3f efbb 29e3 f83a 9dd3 f93b
000001b0: 7fcf c5bb 475b 0ebc 2f50 9cbb fd24 11bd
000001c0: ec99 35bc 9c8e 153c 70e9 9f3c 0059 393a
000001d0: cad4 7d3c 7741 af3b 7856 fe3b 5a06 b83c
000001e0: 7260 ddbb 6c9f cc3b 3c9b 59bb 340f 70bc
000001f0: 6f66 9a3c 1d75 8fbb badb 193c 7a92 273c

2.conv1.lin_l.weight f4 [16, 4]
0.07057822 0.01361992 0.13144757 0.11419571 0.09255936 -0.0018834607 0.03307715 0.10620846
0.05148466 0.03192671 0.10849016 0.13309805 0.07534005 0.010726116 0.07944896 0.107863694
0.095322095 0.017759653 0.057967983 0.09010737 0.096485 0.017724289 0.10998842 0.1064808
0.078255154 0.018492151 0.123546794 0.11480414 0.06077633 0.03861496 0.071052365 0.11654466
0.07372433 0.04985547 0.100032456 0.1176549 0.08069069 0.018290145 0.050042883 0.1220437
0.067789696 0.018043652 0.04574438 0.09591113 0.052813202 0.024476137 0.06621766 0.102828845
0.09188045 0.009534103 0.050374147 0.08734341 0.0739365 0.005940071 0.044309296 0.10414361
0.07865292 0.035105128 0.09870212 0.11012606 0.06789074 0.033061136 0.09156245 0.13795675
00000000: 508b 903d 1626 5f3c 319a 063e 71df e93d
00000010: c38f bd3d 74de f6ba e87b 073d d283 d93d
00000020: 94e1 523d 95c5 023d 1730 de3d db4a 083e
00000030: e24b 9a3d 97bc 2f3c 23b6 a23d a4e7 dc3d
00000040: 3b38 c33d b17c 913c d66f 6d3d 368a b83d
00000050: ed99 c53d 8732 913c 9c41 e13d 9b12 da3d
00000060: 3d44 a03d da7c 973c 1a06 fd3d 6f1e eb3d
00000070: 9af0 783d b82a 1e3d e783 913d f7ae ee3d
00000080: c8fc 963d 4035 4c3d d1dd cc3d 0df5 f03d
00000090: 2941 a53d 37d5 953c c4f9 4c3d 0cf2 f93d
000000a0: 53d5 8a3d 48d0 933c 765e 3b3d 0e6d c43d
000000b0: a852 583d 2e82 c83c 209d 873d ee97 d23d
000000c0: d12b bc3d ed34 1c3c 1f55 4e3d 1ae1 b23d
000000d0: 056c 973d eda4 c23b aa7d 353d 3f49 d53d
000000e0: c814 a13d 65ca 0f3d 5624 ca3d c689 e13d
000000f0: 4d0a 8b3d 1d6b 073d 1885 bb3d 8944 0d3e

2.conv1.lin_l.bias f4 [16]
0.12354333 0.096002854 0.07658473 0.07683265 0.10924356 0.0733663 0.08944674 0.107152976
0.121536255 0.0809609 0.06872745 0.05810114 0.06925313 0.0944348 0.08446268 0.06009469
00000000: 4904 fd3d 259d c43d 74d8 9c3d 705a 9d3d
00000010: 16bb df3d 1241 963d da2f b73d 0573 db3d
00000020: 00e8 f83d d4ce a53d fac0 8c3d 76fb 6d3d
00000030: 96d4 8d3d 0867 c13d c5fa ac3d da25 763d

2.conv1.lin_r.weight f4 [16, 4]
0.088698894 0.06555364 0.11263826 0.113498785 0.102834255 0.04408677 0.09635009 0.10165671
0.08747813 0.07623161 0.10352513 0.121798135 0.107654445 0.071000926 0.102180995 0.098379955
0.09962419 0.055103835 0.072738595 0.11231072 0.08907131 0.062923506 0.104787305 0.108542174
0.13371037 0.06782999 0.122266844 0.13682623 0.0896487 0.055873502 0.10629474 0.11552944
0.10467409 0.04201499 0.13574146 0.14658052 0.095892064 0.046555385 0.0535654 0.1103303
0.10680053 0.05654256 0.10217579 0.100672886 0.068212725 0.046566483 0.063050084 0.13566366
0.08720348 0.06367874 0.06925066 0.11347142 0.11881883 0.050340842 0.07636274 0.13133451
0.117790535 0.031240737 0.09637261 0.08511153 0.11196434 0.06497791 0.0889386 0.09651702
00000000: c4a7 b53d fd40 863d e3ae e63d 0d72 e83d
00000010: c49a d23d 5494 343d 3253 c53d 6531 d03d
00000020: bc27 b33d 511f 9c3d fc04 d43d 4d71 f93d
00000030: ef79 dc3d ef68 913d 4544 d13d 6e7b c93d
00000040: c407 cc3d 8fb4 613d f9f7 943d 2a03 e63d
00000050: 056b b63d 0ade 803d ba9a d63d 5c4b de3d
00000060: 5feb 083e 73ea 8a3d 0a67 fa3d 2d1c 0c3e
00000070: bd99 b73d 9ddb 643d 0fb1 d93d b39a ec3d
00000080: 5f5f d63d e917 2c3d cfff 0a3e 3419 163e
00000090: 0f63 c43d dcb0 3e3d 6567 5b3d daf4 e13d
000000a0: 3cba da3d 2c99 673d 8a41 d13d 962d ce3d
000000b0: 1db3 8b3d 7fbc 3e3d 6720 813d 6aeb 0a3e
000000c0: bd97 b23d 006a 823d 4ad3 8d3d b463 e83d
000000d0: 4957 f33d 3332 4e3d 1164 9c3d 8e7c 063e
000000e0: 2a3c f13d 93ec ff3c 015f c53d f44e ae3d
000000f0: 8f4d e53d 2313 853d 7125 b63d b7aa c53d

2.conv2.lin_l.weight f4 [8, 16]
-0.03222549 -0.008422112 -0.031242782 -0.025154753 -0.021683615 -0.046422295 -0.025873723 -0.02379666
-0.036365233 -0.01739146 -0.020747289 -0.02642796 -0.021379873 -0.01360061 -0.02136621 -0.024581332
-0.021953832 -0.020023497 -0.010131942 -0.019328699 -0.033555202 -0.028102884 -0.011189049 -0.046361808
-0.010462687 -0.033611372 -0.021443801 -0.034399167 -0.010375103 -0.024956565 -0.038704313 -0.009718444
-0.002748666 0.0030220968 0.021678805 0.01835853 0.013615013 0.02413538 -0.00308772 0.0038637281
-0.00047332406 0.0045869537 0.009184483 -0.012058237 0.013246524 -0.0012491792 -0.014226199 -0.0014261333
-0.006604353 -0.012609515 -0.014523473 -0.018727513 -0.013946827 -0.0051632714 0.005111481 -0.012729927
-0.01937069 0.0015889403 -0.011941663 -0.0017886471 -0.015614314 -0.004940387 -0.008449669 0.014331353
-0.028205194 -0.00552716 -0.022252193 -0.028264001 -0.023144362 -0.02519519 -0.032838363 -0.018020783
-0.02138393 -0.01681586 -0.022040358 -0.043766595 -0.02060225 -0.018714324 -0.0059124385 -0.01882118
0.015542102 0.0055135908 -0.0012020856 -0.011556256 0.012851935 0.006749378 -0.002567517 -0.0011767469
-0.010615846 0.0026521957 -0.012252996 0.0012780506 0.0023734688 0.0037292086 0.013536657 -0.0043725823
-0.010529275 -0.0072682537 0.016404822 -0.016315449 -0.008892376 -0.03185561 0.0027209215 -0.028039066
-0.0019559287 0.00049868005 -0.00952914 0.0020854517 -0.01341567 -0.008495353 -0.015326619 -0.013065841
-0.0037046105 -0.014318106 0.00095424143 -0.0042786994 -0.009536459 -0.016569285 0.0031423136 -0.0061040795
-0.014442371 -0.020377338 -0.0022511154 -0.0013955027 -0.005557425 -5.6910216e-05 -0.009791847 -0.008184238
00000000: e0fe 03bd e6fc 09bc ddf0 ffbc 5711 cebc
00000010: d6a1 b1bc 4e25 3ebd 21f5 d3bc 37f1 c2bc
00000020: b6f3 14bd 8978 8ebc 38f6 a9bc 737f d8bc
00000030: d824 afbc 18d5 5ebc 3108 afbc ca5e c9bc
00000040: 86d8 b3bc 5108 a4bc 7200 26bc 3857 9ebc
00000050: 2e71 09bd 0538 e6bc 4652 37bc e1e5 3dbd
00000060: b16b 2bbc 14ac 09bd e9aa afbc 24e6 0cbd
00000070: 56fc 29bc b671 ccbc 6a88 1ebd 1c3a 1fbc
00000080: f722 34bb 5f0e 463b c097 b13c a164 963c
00000090: 8111 5f3c 8fb7 c53c 585b 4abb 9a36 7d3b
000000a0: 7b28 f8b9 284e 963b 847a 163c e98f 45bc
000000b0: f307 593c 80bb a3ba 0115 69bc 18ed baba
000000c0: 5469 d8bb 2498 4ebc dcf3 6dbc 716a 99bc
000000d0: 3b81 64bc a930 a9bb 367e a73b 2f91 50bc
000000e0: 48af 9ebc fd43 d03a f7a6 43bc 0a71 eaba
000000f0: 2ed3 7fbc f8e2 a1bb 7b70 0abc 0dce 6a3c
00000100: 940e e7bc 2e1d b5bb 3b4a b6bc e889 e7bc
00000110: 3f99 bdbc 2566 cebc 8581 06bd 52a0 93bc
00000120: 5a2d afbc 6ac1 89bc fb8d b4bc 9a44 33bd
00000130: 0dc6 a8bc c84e 99bc 21bd c1bb e02e 9abc
00000140: 4da4 7e3c 5aab b43b 4d8f 9dba 7356 3dbc
00000150: ec90 523c e329 dd3b ca43 28bb 133d 9aba
00000160: 16ee 2dbc 76d0 2d3b cac0 48bc 4384 a73a
00000170: 338c 1b3b bd65 743b dbc8 5d3c e147 8fbb
00000180: fb82 2cbc 882a eebb 6863 863c faa7 85bc
00000190: 54b1 11bc 077b 02bd 7d51 323b 2fb2 e5bc
000001a0: 0a2f 00bb dab9 023a 1c20 1cbc 13ac 083b
000001b0: 66cd 5bbc 1830 0bbc 801c 7bbc 1c12 56bc
000001c0: 0dc9 72bb 7d96 6abc 0f26 7a3a 5534 8cbb
000001d0: cf3e 1cbc 4fbc 87bc 46ef 4d3b bb04 c8bb
000001e0: b29f 6cbc 60ee a6bc 7387 13bb 4de9 b6ba
000001f0: 0f1b b6bb e1b2 6eb8 fc6d 20bc 2f17 06bc

2.conv2.lin_l.bias f4 [8]
-0.034406923 -0.029811125 -0.02383601 -0.0043652225 -0.039655145 0.0006921493 -0.0013623494 0.000403229
00000000: 46ee 0cbd 7636 f4bc bc43 c3bc 240a 8fbb
00000010: 6f6d 22bd 5a71 353a dc90 b2ba 7b68 d339

2.conv2.lin_r.weight f4 [8, 16]
-0.02227465 -0.0011157441 -0.03427758 -0.016636603 -0.012052095 -0.03304224 -0.019177556 -0.022266982
-0.04001439 -0.016441707 4.5413373e-05 -0.03945145 -0.013028634 -0.022674672 -0.008687 -0.013094171
-0.029694563 -0.0061494363 -0.020918924 -0.024839403 -0.032631997 -0.015981592 -0.01985734 -0.048770584
-0.016400034 -0.024821777 -0.028410535 -0.033725508 -0.019480111 -0.023427067 -0.017700778 -0.014164746
0.012922031 0.008255333 -0.0031729585 0.01594694 0.0036387467 0.035482634 0.009160444 0.004455313
-0.0007709722 -0.0012675254 -0.0017072108 0.0090548685 0.011850465 0.012721778 -0.014310565 0.0049457457
-0.014788648 -0.0133323 0.0017913707 -0.032271806 0.0072529707 0.008945864 -0.0096513 -0.020827668
-0.019091805 0.019586062 -0.011324826 -0.00606246 -0.0071860026 -0.007898964 -0.011715468 -0.015786966
-0.04913433 -0.017745154 -0.0016555807 -0.029752266 -0.025456801 -0.036418412 -0.03529124 -0.021909915
-0.02550538 -0.013296857 -0.025676582 -0.017364457 -0.036531266 -0.02128535 -0.012902928 -0.025005758
0.021161692 0.011940441 -0.0076227267 0.0010917867 0.013171643 -0.0021570094 0.0104036555 -0.00043089033
0.009350533 -0.012406335 -2.9192865e-05 -0.012358781 0.020168211 -0.008984199 0.011187834 0.017895557
-0.030572731 -0.0034594098 0.0027746505 -0.018629892 -0.019733023 0.0015469667 -0.003291694 -0.027643198
-0.008035511 -0.013493215 -0.008787408 -0.009486448 -0.0043501537 -0.0023116106 -0.030510811 -0.020569233
0.00505689 -0.018387264 0.0072766226 0.0018451128 0.008398147 0.0075453026 0.027426643 -0.005756421
-0.0021321923 -0.0113886185 -0.0114249885 -0.010374168 0.001401743 -0.004074073 0.022091513 -0.0055269385
00000000: 5479 b6bc 293e 92ba a666 0cbd 7c49 88bc
00000010: 2676 45bc 4d57 07bd 401a 9dbc 3f69 b6bc
00000020: 21e6 23bd c2b0 86bc 3d7a 3e38 d897 21bd
00000030: 0d76 55bc 3cc0 b9bc eb53 0ebc ef88 56bc
00000040: 0342 f3bc 3681 c9bb 2a5e abbc 017c cbbc
00000050: 21a9 05bd d4eb 82bc dcab a2bc aac3 47bd
00000060: 5d59 86bc 0a57 cbbc 36bd e8bc c223 0abd
00000070: c194 9fbc 1fea bfbc 3901 91bc 4013 68bc
00000080: edb6 533c 6041 073c 69f1 4fbb 28a3 823c
00000090: 0a78 6e3b 3d56 113d b015 163c e0fd 913b
000000a0: 121b 4aba 1823 a6ba 7dc4 dfba df5a 143c
000000b0: 7428 423c 016f 503c dc76 6abc ec0f a23b
000000c0: 164c 72bc b86f 5abc 6dcc ea3a 712f 04bd
000000d0: 54aa ed3b ac91 123c 7c20 1ebc c99e aabc
000000e0: 6b66 9cbc f372 a03c c38b 39bc 9aa7 c6bb
000000f0: 8f78 ebbb a86a 01bc 3cf2 3fbc ab53 81bc
00000100: 1441 49bd 495e 91bc 1200 d9ba 06bb f3bc
00000110: c88a d0bc 792b 15bd 8c8d 10bd 6c7c b3bc
00000120: a9f0 d0bc 0fdb 59bc b257 d2bc e83f 8ebc
00000130: cfa1 15bd 9d5e aebc cd66 53bc e0d8 ccbc
00000140: 495b ad3c d7a1 433c 11c8 f9bb 481a 8f3a
00000150: e0cd 573c 9d5c 0dbb 1874 2a3c 1fe9 e1b9
00000160: fa32 193c f143 4bbc 33e3 f4b7 7c7c 4abc
00000170: ce37 a53c 7632 13bc 2d4d 373c b499 923c
00000180: aa73 fabc 44b7 62bb e9d6 353b b79d 98bc
00000190: 26a7 a1bc 97c3 ca3a 76b9 57bb fd73 e2bc
000001a0: 60a7 03bc a512 5dbc 0ff9 0fbc 0c6d 1bbc
000001b0: bc8b 8ebb 647e 17bb cff1 f9bc cf80 a8bc
000001c0: 45b4 a53b e3a0 96bc bc70 ee3b b6d7 f13a
000001d0: 6298 093c 963e f73b d7ad e03c 5ca0 bcbb
000001e0: 40bc 0bbb 5497 3abc e02f 3bbc 6af8 29bc
000001f0: b1ba b73a cd7f 85bb 43f9 b43c 521b b5bb

3.conv1.lin_l.weight f4 [16, 4]
0.06347297 0.044284414 0.049196824 0.15631105 0.07827841 0.03309884 0.111689836 0.14046991
0.07776362 0.031807467 0.06892052 0.13852768 0.059714004 0.017199863 0.07775224 0.124779694
0.10053601 0.0081432685 0.07241981 0.10245463 0.02380023 0.010261394 0.07998764 0.11816058
0.037874818 0.014308 0.04551571 0.11542501 0.07008874 0.005552937 0.048020173 0.10884938
0.04303581 0.017709767 0.09168273 0.16151442 0.0624665 0.023619918 0.110919245 0.11691005
0.036196202 -0.0048859036 0.1306277 0.16131096 0.058049727 0.0014484859 0.08626444 0.12093316
0.06328292 0.03928397 0.10552758 0.13105717 0.034027435 0.026661191 0.0784652 0.14854167
0.07303823 -0.016635567 0.07178405 0.13802233 0.0687131 0.04432486 0.075307466 0.12559378
00000000: 1efe 813d 9363 353d 9c82 493d 0110 203e
00000010: 6e50 a03d a692 073d a4bd e43d 58d7 0f3e
00000020: 8842 9f3d 8c48 023d 3426 8d3d 33da 0d3e
00000030: ac96 743d bae6 8c3c 913c 9f3d 7f8c ff3d
00000040: d3e5 cd3d 586b 053c d650 943d bcd3 d13d
00000050: b3f8 c23c 681f 283c 8fd0 a33d 2dfe f13d
00000060: a022 1b3d 1a6c 6a3c ae6e 3a3d f363 ec3d
00000070: af8a 8f3d 69f5 b53b cdb0 443d 6cec de3d
00000080: 5146 303d 1314 913c 28c4 bb3d 0964 253e
00000090: dfdc 7f3d 8f7e c13c a129 e33d 896e ef3d
000000a0: 7842 143d ee19 a0bb 45c3 053e b32e 253e
000000b0: 8dc5 6d3d 1fdb bd3a 69ab b03d ceab f73d
000000c0: 7a9a 813d 3ae8 203d d81e d83d da33 063e
000000d0: 5a60 0b3d 9268 da3c 5db2 a03d 4f1b 183e
000000e0: 1195 953d 5047 88bc 8403 933d ba55 0d3e
000000f0: 74b9 8c3d fc8d 353d cd3a 9a3d a89b 003e

3.conv1.lin_l.bias f4 [16]
0.08916641 0.089551456 0.095787436 0.10734932 0.09146156 0.09815716 0.104417935 0.076820955
0.09931913 0.08724158 0.06902576 0.061966535 0.069105126 0.106686726 0.106142 0.09340122
00000000: e19c b63d c166 b73d 342c c43d f6d9 db3d
00000010: 3350 bb3d 9f06 c93d 12d9 d53d 4e54 9d3d
00000020: d467 cb3d b7ab b23d 615d 8d3d 9fd0 7d3d
00000030: fd86 8d3d 927e da3d fa60 d93d 2449 bf3d

3.conv1.lin_r.weight f4 [16, 4]
0.08992464 0.057862986 0.09507298 0.1436699 0.08327736 0.038667515 0.10818236 0.12372147
0.077809446 0.05731804 0.12916195 0.13785274 0.11166601 0.06438833 0.07818821 0.107146785
0.11250063 0.036308855 0.11894213 0.11815991 0.11247665 0.055704236 0.106877424 0.119167216
0.08078603 0.04509709 0.09753571 0.12573238 0.07532086 0.03156689 0.10483143 0.120770246
0.12462087 0.046676528 0.11432104 0.13774204 0.0765903 0.025101915 0.07846243 0.1500923
0.109594725 0.043184895 0.1254182 0.14070842 0.10994169 0.06945525 0.099814445 0.10882625
0.11644387 0.061143946 0.1418317 0.1184849 0.10106614 0.032967128 0.09607165 0.14243938
0.10631114 0.02984576 0.073819324 0.1317365 0.08828827 0.0681833 0.1019472 0.14623754
00000000: 692a b83d bd01 6d3d 9fb5 c23d 341e 133e
00000010: 528d aa3d d461 1e3d b78e dd3d af61 fd3d
00000020: 8f5a 9f3d 52c6 6a3d 0843 043e 4529 0d3e
00000030: 26b1 e43d 07de 833d 2421 a03d c66f db3d
00000040: bb66 e63d 98b8 143d ee97 f33d d3fd f13d
00000050: 285a e63d 202a 643d 8de2 da3d f10d f43d
00000060: 2573 a53d bab7 383d cdc0 c73d fdbf 003e
00000070: d341 9a3d 494c 013d dcb1 d63d 6456 f73d
00000080: 3a39 ff3d e32f 3f3d 2621 ea3d 400c 0d3e
00000090: 60db 9c3d 88a2 cd3c e9b0 a03d ccb1 193e
000000a0: 3373 e03d a5e2 303d a16d 003e de15 103e
000000b0: 1c29 e13d 8e3e 8e3d 846b cc3d 4ce0 de3d
000000c0: 207a ee3d 1372 7a3d 543c 113e 36a8 f23d
000000d0: c4fb ce3d 8a08 073d 37c1 c43d a1db 113e
000000e0: a8b9 d93d 187f f43c 962e 973d efe5 063e
000000f0: 7bd0 b43d b0a3 8b3d b2c9 d03d 4bbf 153e

3.conv2.lin_l.weight f4 [8, 16]
-0.00831689 -0.004541695 -0.006825816 -0.0005848932 0.00636038 0.013990567 -0.007839963 -0.018097335
-0.018885393 -0.0050939103 0.013445976 -0.018104795 0.031930104 0.02419274 -0.0052148188 -0.015269104
0.013283529 -0.0014854809 0.0017040914 0.010888043 0.002947935 0.011420015 -0.0018138727 -0.005288814
0.020268273 0.0020964295 -0.012466094 -0.009117888 0.013094438 0.004815552 0.0031642 -0.0064265938
-0.015977398 -0.025916345 -0.0037468902 -0.01689251 -0.013491643 -0.017060738 -0.0029565254 -0.016855914
-0.031961802 -0.029282078 -0.015991796 -0.005419807 -0.0012608231 -0.017814925 -0.026047176 -0.024854992
-0.012231584 -0.007629869 0.011895579 0.0040872567 0.005239619 -0.014916735 0.015413517 0.0044596656
0.0056242817 -0.002807681 -0.0075209048 -0.0028248206 0.005672383 -0.0055823927 0.022696905 -0.017374609
0.014386117 -0.01946434 -0.010754781 0.014632488 -0.011701004 -0.025273561 -0.014378897 -0.0072752805
-0.015506995 -0.0133298375 -0.00028647692 -0.026248705 0.012750795 -0.00013721333 0.013764738 -0.012804365
0.013489885 -0.00487848 0.021762867 0.016106106 0.005506368 -0.017437357 -0.0011291633 0.003593876
0.009228579 0.0041230638 -0.0015078107 -0.018864239 0.023633128 0.03542409 0.019591067 0.00062813354
0.010129018 0.010707722 0.0025384116 0.01433207 -0.0078884605 0.013118539 -0.0020184163 0.0013849766
0.008535583 0.010264698 0.028821705 -0.008528123 -0.0001491338 0.009476317 -0.008487401 0.03269838
-0.008104691 -0.0049592354 0.0054345275 -0.0066414196 -0.0048148837 -0.0016899919 -0.005370399 0.018033508
-0.0092993295 -0.013272058 -0.007478538 -0.0006173779 -0.012695156 -0.005911805 0.003194834 -0.004914218
00000000: 9143 08bc 80d2 94bb 18ab dfbb 8553 19ba
00000010: bc6a d03b b138 653c 3073 00bc dd40 94bc
00000020: 8ab5 9abc d1ea a6bb 834c 5c3c 8250 94bc
00000030: 24c9 023d da2f c63c 12e1 aabb 442b 7abc
00000040: 29a3 593c 78b4 c2ba d25b df3a c363 323c
00000050: 2432 413b 041b 3b3c 78bf edba ca4d adbb
00000060: a609 a63c 4064 093b 973e 4cbc 3263 15bc
00000070: 0e8a 563c c7cb 9d3b 785e 4f3b 2d96 d2bb
00000080: 08e3 82bc 844e d4bc 638e 75bb 2962 8abc
00000090: 0d0c 5dbc f6c2 8bbc 44c2 41bb 6a15 8abc
000000a0: 61ea 02bd f8e0 efbc 3a01 83bc a398 b1bb
000000b0: 3442 a5ba 9bf0 91bc e360 d5bc b29c cbbc
000000c0: fb66 48bc fb03 fabb ade5 423c 65ee 853b
000000d0: 1cb1 ab3b 5265 74bc fa88 7c3c 6322 923b
000000e0: e54b b83b 1201 38bb ec71 f6bb a020 39bb
000000f0: 66df b93b 81ec b6bb dcee b93c 3255 8ebc
00000100: c0b3 6b3c ae73 9fbc d234 30bc 1abd 6f3c
00000110: 91b5 3fbc 800a cfbc 7795 6bbc 7a65 eebb
00000120: 0d11 7ebc 6465 5abc 4832 96b9 8607 d7bc
00000130: b6e8 503c ece0 0fb9 7f85 613c 66c9 51bc
00000140: ae04 5d3c a8db 9fbb 0a48 b23c f4f0 833c
00000150: c36e b43b cad8 8ebc 6f00 94ba 3c87 6b3b
00000160: 7733 173c c41a 873b bba1 c5ba 2d89 9abc
00000170: 439a c13c da18 113d 727d a03c 54a9 243a
00000180: 2ef4 253c 716f 2f3c 7b5b 263b 0fd1 6a3c
00000190: 9a3e 01bc 24ef 563c 6847 04bb 1a88 b53a
000001a0: d4d8 0b3c 442d 283c 7f1b ec3c 8ab9 0bbc
000001b0: cd60 1cb9 8e42 1b3c bd0e 0bbc bdee 053d
000001c0: 8ac9 04bc 1581 a2bb 1f14 b23b 44a0 d9bb
000001d0: 2cc6 9dbb b882 ddba 2cfa afbb 02bb 933c
000001e0: 375c 18bc 0c73 59bc 860e f5bb 88d7 21ba
000001f0: 58ff 4fbc d1b7 c1bb 6c60 513b 7307 a1bb

3.conv2.lin_l.bias f4 [8]
-0.0007284084 0.022058995 -0.027928688 -0.009411152 -0.010933961 -0.0020192629 0.021819806 -0.0071414616
00000000: a9f2 3eba 11b5 b43c b4ca e4bc 3c31 1abc
00000010: 5b24 33bc 9c55 04bb 73bf b23c ec02 eabb

3.conv2.lin_r.weight f4 [8, 16]
0.0032926162 0.00073585747 0.008882807 0.008465336 0.0012317307 0.0077069346 -0.0039199363 -0.02022709
-0.009153869 0.0034941435 0.0019845858 -0.0061685364 0.015519117 -0.0026073754 0.0026300095 0.00042295514
0.007195224 -0.0073532863 -0.016138716 -0.009384539 0.021154702 -0.011636293 0.014558268 0.0034133655
0.01725002 0.0037338894 0.0052745272 -0.007422821 0.00040133894 -0.013852912 -0.0059651663 0.005604255
-0.019699894 -0.043704905 -0.00606201 -0.016812513 -0.026991818 -0.013199215 -0.014381187 -0.021929434
-0.025681939 -0.015921706 -0.022513427 -0.036563255 -0.009122535 -0.03167317 -0.04146551 -0.027503174
-0.001490634 -0.00981346 0.0091530075 0.02161667 0.022461055 -0.0005902426 0.01556033 0.0128135625
-0.020772014 0.022940483 -0.0060793306 0.017546838 -0.0066735637 0.0058286036 0.021689637 -0.0120604765
0.004695986 -0.020632641 0.009457854 0.0030592245 -0.0014498589 -0.03112358 0.0032063692 -0.0031344765
-0.019860225 0.011963005 0.012425559 -0.007375815 0.01386668 -0.0063164406 -0.002816626 -0.008790287
-0.015722856 -0.0021402724 0.016477682 0.003496546 0.013205639 -0.010888781 0.008733671 -0.0076811295
0.016921867 0.02060188 0.004725446 0.007941451 0.02325673 0.009251267 0.021820826 -0.0083212415
0.0034699452 0.0191065 0.020302393 0.009900364 -0.013328523 0.032957647 -0.0029080766 -0.014024007
0.0017781693 0.01450951 0.0026610252 0.0039169746 0.0318993 0.017143887 -0.007738542 0.03668188
-0.010391899 3.529638e-05 0.015693795 0.0029462671 0.0041846097 0.012734818 0.0037862165 0.014448605
-0.014049003 -0.017028028 -0.01568952 0.001076353 -0.017574726 -0.008115648 -0.020393949 -0.003996617
00000000: efc8 573b 8fe6 403a 3189 113c 31b2 0a3c
00000010: 0672 a13a 748a fc3b cf72 80bb 48b3 a5bc
00000020: 1cfa 15bc 00fe 643b d30f 023b 6f21 cabb
00000030: e543 7e3c 80e0 2abb 3d5c 2c3b 14c0 dd39
00000040: eac5 eb3b d6f3 f0bb 5735 84bc 9cc1 19bc
00000050: a04c ad3c 26a6 3ebc cd85 6e3c c5b2 5f3b
00000060: ea4f 8d3c 45b4 743b f1d5 ac3b 233b f3bb
00000070: cd6a d239 53f7 62bc 7177 c3bb e6a3 b73b
00000080: ac61 a1bc ea03 33bd d3a3 c6bb 65ba 89bc
00000090: f21d ddbc 8541 58bc 129f 6bbc 5ba5 b3bc
000000a0: ee62 d2bc 3d6e 82bc 146e b8bc 5ac3 15bd
000000b0: af76 15bc babb 01bd bdd7 29bd 564e e1bc
000000c0: 6161 c3ba a2c8 20bc 7ff6 153c 7115 b13c
000000d0: 3f00 b83c 83ba 1aba c1f0 7e3c faef 513c
000000e0: 122a aabc aeed bb3c 1f35 c7bb 63be 8f3c
000000f0: e9ad dabb dffd be3b 77ae b13c 4e99 45bc
00000100: c9e0 993b c905 a9bc 1df5 1a3c 457d 483b
00000110: 3109 beba e1f6 febc f321 523b ca6b 4dbb
00000120: e9b1 a2bc 7b00 443c 9294 4b3c d2b0 f1bb
00000130: 1231 633c 25fa cebb 2597 38bb 2305 10bc
00000140: 38cd 80bc d043 0cbb 34fc 863c 4f26 653b
00000150: 775c 583c dc66 32bc ac17 0f3c fcb1 fbbb
00000160: ba9f 8a3c 46c5 a83c ead7 9a3b dc1c 023c
00000170: e684 be3c a092 173c 97c1 b23c d155 08bc
00000180: 0568 633b 3c85 9c3c 3451 a63c 2335 223c
00000190: e15f 5abc 99fe 063d 6e95 3ebb f3c4 65bc
000001a0: 7611 e93a 4cb9 6d3c 9864 2e3b f759 803b
000001b0: d7a8 023d 5671 8c3c 9893 fdbb bd3f 163d
000001c0: c942 2abc 330b 1438 4690 803c 2916 413b
000001d0: 0d1f 893b b3a5 503c 2c22 783b d7b9 6c3c
000001e0: ca2d 66bc 5d7e 8bbc 4f87 80bc 6a14 8d3a
000001f0: dff8 8fbc 7ff7 04bc 3611 a7bc 0ef6 82bb

4.conv1.lin_l.weight f4 [16, 4]
0.019795977 0.058610592 0.15557267 0.15079974 0.026616992 0.047553655 0.15188666 0.13547856
0.050191466 0.046196755 0.14790575 0.11960574 0.042248193 0.033960592 0.16819027 0.17256929
0.04172216 0.027678115 0.1640932 0.16080323 0.03785505 0.026355447 0.13292694 0.12639084
0.038627315 0.030224282 0.14439645 0.14315517 0.034767687 0.041441035 0.15218137 0.15152949
0.030055827 0.061477832 0.15372695 0.11175285 0.053305868 0.044738255 0.14589128 0.0954379
0.027223116 0.040617064 0.13563868 0.13360557 0.027663972 0.044776183 0.16424875 0.15119778
0.020316381 0.051721968 0.12306264 0.118618555 0.019786319 0.013974108 0.15568666 0.11545741
0.032114357 0.042725764 0.1736036 0.12343319 0.032137755 0.033140417 0.11975153 0.13920566
00000000: 2c2b a23c a911 703d 714e 1f3e 3f6b 1a3e
00000010: e10b da3c 9fc7 423d 2d88 1b3e e4ba 0a3e
00000020: 9195 4d3d cf38 3d3d 9b74 173e dbf3 f43d
00000030: 710c 2d3d 431a 0b3d 123a 2c3e 01b6 303e
00000040: dbe4 2a3d 37bd e23c 0c08 283e 9aa9 243e
00000050: e60d 1b3d 61e7 d73c 001e 083e 9a6c 013e
00000060: ad37 1e3d ea98 f73c aadc 133e 4597 123e
00000070: 9068 0e3d 13be 293d 6fd5 1b3e 8c2a 1b3e
00000080: a337 f63c 2ed0 7b3d 996a 1d3e aede e43d
00000090: 4157 5a3d 763f 373d 8664 153e f274 c33d
000000a0: 0303 df3c 145e 263d dee4 0a3e e6cf 083e
000000b0: 8e9f e23c 3b67 373d d330 283e 97d3 1a3e
000000c0: 8a6e a63c 6ada 533d 4408 fc3d 49ee f23d
000000d0: eb16 a23c a8f3 643c 536c 1f3e ef74 ec3d
000000e0: 588a 033d 3601 2f3d 24c5 313e 8aca fc3d
000000f0: e1a2 033d 3fbe 073d 4a40 f53d ee8b 0e3e

4.conv1.lin_l.bias f4 [16]
0.13998176 0.13341849 0.14632231 0.18084791 0.15226251 0.123836346 0.17496829 0.14915451
0.17480256 0.12546507 0.17604527 0.12534042 0.14219202 0.16812766 0.1653804 0.14496683
00000000: 6157 0f3e db9e 083e 84d5 153e 3230 393e
00000010: b4ea 1b3e e99d fd3d e32a 333e f6bb 183e
00000020: 71ff 323e ea79 003e 3645 343e 3d59 003e
00000030: c99a 113e a829 2c3e 7b59 293e 2f72 143e

4.conv1.lin_r.weight f4 [16, 4]
0.056062702 0.0574527 0.16142084 0.1274695 0.06885641 0.067367665 0.19672115 0.20025976
0.04445231 0.05666479 0.14527895 0.14722066 0.06591216 0.06795654 0.19559057 0.21246059
0.05115172 0.07792026 0.17161784 0.19590834 0.059072018 0.060560834 0.15838836 0.1538732
0.05368786 0.086999744 0.15609883 0.17429645 0.04653307 0.08092081 0.17098089 0.19133168
0.043831516 0.0795574 0.17607886 0.15090704 0.075121276 0.05635699 0.16729145 0.14184874
0.046129145 0.08266583 0.14379439 0.17378084 0.04622691 0.073557034 0.14220539 0.1662358
0.05768428 0.047857355 0.16307884 0.16319019 0.061392855 0.07889626 0.16899185 0.21605986
0.06169384 0.060865253 0.12950791 0.19692875 0.052061267 0.062346607 0.14583422 0.15374476
00000000: 01a2 653d 8653 6b3d 814b 253e 5d87 023e
00000010: 9704 8d3d 0ff8 893d 4571 493e e510 4d3e
00000020: a013 363d 5719 683d 01c4 143e 03c1 163e
00000030: f4fc 863d cc2c 8b3d e548 483e 458f 593e
00000040: 7784 513d a894 9f3d 96bc 2f3e 329c 483e
00000050: 80f5 713d a30e 783d 8f30 223e f090 1d3e
00000060: cde7 5b3d ec2c b23d 5fd8 1f3e c57a 323e
00000070: 7699 3e3d cfb9 a53d 9d15 2f3e 74ec 433e
00000080: ad88 333d fdee a23d 044e 343e 6087 1a3e
00000090: 2fd9 993d 96d6 663d 734e 2b3e cc40 113e
000000a0: eaf1 3c3d b44c a93d d63e 133e 9bf3 313e
000000b0: 6e58 3d3d 12a5 963d 4a9e 113e b839 2a3e
000000c0: 5a46 6c3d 1306 443d 24fe 263e 541b 273e
000000d0: 1377 7b3d 5d94 a13d 330c 2d3e cc3e 5d3e
000000e0: aeb2 7c3d d84d 793d b99d 043e b1a7 493e
000000f0: 323e 553d 285f 7f3d 9155 153e 446f 1d3e

4.conv2.lin_l.weight f4 [8, 16]
-0.03065025 -0.015303028 -0.011007151 -0.014419929 -0.010666904 -0.0010884559 -0.004941793 -0.0008658189
-0.0031063575 -0.009108574 0.005528024 -0.0061313524 0.00086527586 -0.01756305 -0.013539109 -0.009061763
0.0058696996 0.012646386 0.00943559 0.009656572 0.0056718932 -0.009546748 -0.004282561 0.007431745
-0.010769661 0.0012235439 -0.002334761 0.01682834 0.031579413 0.015304093 0.012371174 0.013012932
-0.014007878 -0.019744974 0.009520926 -0.04160016 -0.0042534657 -0.012096869 -0.012820845 -0.0065934975
-0.0034485916 -0.007507315 -0.006036957 -0.009447589 -0.003169578 -0.0116203865 0.00095354184 -0.015774257
0.0077408864 -0.0056774113 0.006053243 0.009515085 -0.021222984 -0.007893883 -0.025983283 0.016655298
0.0027548652 0.01357808 0.010012414 -0.007130489 0.019397099 0.01128475 -0.00731792 0.013088993
0.0002694589 -0.010560386 0.0012226935 -0.019280525 -0.007914411 -0.027315624 -0.020213265 -0.010029464
0.0039336006 -0.012825692 -0.014675911 -0.023215389 -0.00831768 -0.00025868864 -0.0115588615 0.0037334275
-0.02100258 -0.011736126 -0.036477264 -0.0042999624 -0.005854924 -0.0008991882 -0.012215921 -0.021020202
-0.01634141 0.03240251 -0.0020272473 -0.023355238 0.006281166 -0.018971153 0.008024812 -0.004300518
-0.004032897 -0.02976444 -0.008611585 -0.0003480831 -0.008700908 -0.0041559255 -0.002125425 0.01164484
-0.018264959 -0.017609324 0.010643837 0.009984753 0.007936901 0.008064373 0.0024752007 0.00939588
-0.032010872 -0.004942963 -0.017960126 -0.020055356 -0.025898658 0.019258799 -0.00534488 -0.009588694
-0.03276181 -0.014465916 3.20673e-07 -0.016104955 -0.0044933264 -0.011151555 0.002976244 -0.008993409
00000000: 3c16 fbbc 8db9 7abc 5657 34bc 9141 6cbc
00000010: 3dc4 2ebc 85aa 8eba c4ee a1bb 1ff8 62ba
00000020: 0894 4bbb 213c 15bc 6d24 b53b 83e9 c8bb
00000030: aed3 623a 63e0 8fbc 24d3 5dbc ca77 14bc
00000040: 9c56 c03b ca32 4f3c bc97 1a3c 9936 1e3c
00000050: 4adb b93b f769 1cbc ba54 8cbb ff85 f33b
00000060: 3b73 30bc 525f a03a ca02 19bb 96db 893c
00000070: 6a59 013d 05be 7a3c 77b0 4a3c 3134 553c
00000080: 4c81 65bc 36c0 a1bc a8fd 1b3c ee64 2abd
00000090: a860 8bbb f231 46bc 850e 52bc 440e d8bb
000000a0: c401 62bb ecff f5bb aad1 c5bb 0fca 1abc
000000b0: b2b8 4fbb 6f63 3ebc 1cf7 793a 0439 81bc
000000c0: 43a7 fd3b 9409 babb 485a c63b 29e5 1b3c
000000d0: d3db adbc 5855 01bc e5da d4bc b170 883c
000000e0: f88a 343b 9876 5e3c 1c0b 243c e1a6 e9bb
000000f0: aae6 9e3c ace3 383c 2acb efbb 3773 563c
00000100: 2946 8d39 7805 2dbc c942 a03a 31f2 9dbc
00000110: 72ab 01bc 04c5 dfbc 4a96 a5bc 9f52 24bc
00000120: 6fe5 803b da22 52bc 3b73 70bc 332e bebc
00000130: e146 08bc 9aa0 87b9 6161 3dbc 85ac 743b
00000140: 9a0d acbc e148 40bc 2f69 15bd b3e6 8cbb
00000150: aada bfbb 80b7 6bba 4925 48bc 8f32 acbc
00000160: 6cde 85bc 7fb8 043d 91db 04bb 7c53 bfbc
00000170: 3dd2 cd3b 6469 9bbc 807a 033c 5ceb 8cbb
00000180: 6426 84bb 8ed4 f3bc 9b17 0dbc ec7e b6b9
00000190: 418e 0ebc 6e2e 88bb b74a 0bbb 00ca 3e3c
000001a0: 65a0 95bc 6e41 90bc 7d63 2e3c 1797 233c
000001b0: c709 023c 6f20 043c fa36 223b 2df1 193c
000001c0: d51d 03bd 94f8 a1bb 1d21 93bc 214b a4bc
000001d0: 6c29 d4bc a1c4 9d3c 1a24 afbb e619 1dbc
000001e0: 3f31 06bd 7302 6dbc f628 ac34 8aee 83bc
000001f0: c13c 93bb 03b5 36bc 170d 433b 1759 13bc

4.conv2.lin_l.bias f4 [8]
-0.011782918 0.0074600573 -0.023944167 0.008903407 0.013439333 -0.009420299 0.015428606 -0.03440184
00000000: 240d 41bc 7f73 f43b 8f26 c4bc 98df 113c
00000010: a630 5c3c 9957 1abc 44c8 7c3c f2e8 0cbd
