results/agent_Pyramidal_4k.pth (torch, 47525 bytes, 80 tensors)

0.conv1.lin_l.weight f4 [16, 4]
0.10217012 0.021036593 0.01083905 0.119309634 0.12263749 0.012322039 0.018934818 0.10876239
0.11034173 0.026995717 0.018149728 0.09323513 0.11115618 0.020206826 0.041194037 0.0826022
0.108601496 0.060347576 0.020442255 0.071671456 0.09635006 0.0059802737 0.02547308 0.113788135
0.06873741 0.042567775 0.042299863 0.1406496 0.09989952 0.022302652 0.058286663 0.11409476
0.07641166 0.04258648 0.038877092 0.097780265 0.08052534 -0.0016130583 0.029647205 0.109722964
0.1116105 0.038895175 0.084168844 0.1279403 0.11196327 -0.0122140935 0.03455807 0.11005368
0.11651614 0.046576835 0.059609435 0.12076371 0.07816626 -0.004256961 0.06573645 0.07163884
0.07166252 0.012386843 0.053173684 0.1032549 0.09655803 0.01270607 0.08683903 0.10524333
00000000: 913e d13d ef54 ac3c 4596 313c 9c58 f43d
00000010: 5d29 fb3d 61e2 493c 311d 9b3c d1be de3d
00000020: d8fa e13d 1f26 dd3c bdae 943c 0ff2 be3d
00000030: daa5 e33d c988 a53c 14bb 283d 582b a93d
00000040: 766a de3d 052f 773d 8476 a73c 7cc8 923d
00000050: 2e53 c53d 2cf6 c33b ecac d03c c109 e93d
00000060: 33c6 8c3d 8c5b 2e3d 9f42 2d3d 7306 103e
00000070: 1f98 cc3d 0db4 b63c ffbd 6e3d 83aa e93d
00000080: b77d 9c3d 296f 2e3d 963d 1f3d 0541 c83d
00000090: 78ea a43d 416d d3ba b2de f23c 6fb6 e03d
000000a0: 0c94 e43d 8c50 1f3d b760 ac3d c802 033e
000000b0: 004d e53d 9f1d 48bc c38c 0d3d d363 e13d
000000c0: 04a0 ee3d 5ac7 3e3d 0629 743d f752 f73d
000000d0: a215 a03d fa7d 8bbb d5a0 863d 62b7 923d
000000e0: cdc3 923d 2ff2 4a3c a6cc 593d 4e77 d33d
000000f0: 37c0 c53d 1f2d 503c a9d8 b13d d189 d73d

0.conv1.lin_l.bias f4 [16]
0.07057816 0.048099495 -0.002359323 0.04904192 0.044556588 0.07842679 0.049326945 0.052807756
0.042585503 0.061530244 0.02744059 0.04325289 0.020577822 0.032038156 0.019008167 0.018116519
00000000: 488b 903d fa03 453d df9e 1abb 2ee0 483d
00000010: f880 363d 3a9e a03d 0d0b 4a3d f24c 583d
00000020: 236e 2e3d 2307 7c3d 17cb e03c f129 313d
00000030: d292 a83c 713a 033d 04b7 9b3c 1869 943c

0.conv1.lin_r.weight f4 [16, 4]
0.12590684 0.04307221 0.066570595 0.11418826 0.12531765 0.015296072 0.0605721 0.10506934
0.13952354 0.02285459 0.05878975 0.14538965 0.105343245 0.01909127 0.056745566 0.14283256
0.11614796 0.035689984 0.06185659 0.1082392 0.13077503 0.0116430195 0.09065554 0.11617474
0.09375733 0.016538016 0.054537773 0.14257966 0.12858327 0.05493851 0.060419273 0.13578591
0.10537881 0.014770746 0.09031783 0.12604713 0.11266202 0.06029395 0.0713363 0.123050004
0.11108534 0.060571622 0.056946553 0.11404153 0.12370012 0.020696266 0.07439113 0.12454577
0.12776497 0.04300623 0.048451066 0.123095125 0.13168357 0.02529696 0.07330307 0.12645622
0.110983275 0.0328022 0.073907316 0.09224215 0.13265887 0.05742846 0.06768312 0.11655335
00000000: b9ed 003e 7c6c 303d 2a56 883d 89db e93d
00000010: 4553 003e 609c 7a3c 731a 783d 982e d73d
00000020: 42df 0e3e 8d39 bb3c 85cd 703d 06e1 143e
00000030: 33be d73d 4c65 9c3c 0a6e 683d b342 123e
00000040: fbde ed3d a92f 123d 565d 7d3d 84ac dd3d
00000050: e4e9 053e 5dc2 3e3c 9da9 b93d 06ed ed3d
00000060: d803 c03d bc7a 873c 0063 5f3d 6700 123e
00000070: 55ab 033e 3407 613d 337a 773d 760b 0b3e
00000080: d8d0 d73d 0001 723c 8ef8 b83d 8012 013e
00000090: 58bb e63d caf6 763d c418 923d a401 fc3d
000000a0: b680 e33d f319 783d ca40 693d 9b8e e93d
000000b0: 7d56 fd3d 378b a93c 605a 983d da11 ff3d
000000c0: d2d4 023e 4d27 303d a074 463d 4c19 fc3d
000000d0: 0fd8 063e 923b cf3c ec1f 963d bd7d 013e
000000e0: 334b e33d 9a5b 063d b85c 973d 74e9 bc3d
000000f0: bad7 073e 1b3a 6b3d 739d 8a3d 86b3 ee3d

0.conv2.lin_l.weight f4 [8, 16]
0.000339005 0.0032515465 0.014878585 0.015944386 -0.0024034 -0.007403631 -0.005014566 0.0016516051
-0.014879162 -0.006786455 -0.001028327 0.005750708 0.0060400134 0.0042847204 0.009274813 -0.020521147
0.022628544 -0.0029198837 -0.016785748 0.019441625 0.021448432 -0.010811112 0.01705424 -0.010236334
0.017937744 0.0014699459 0.008080188 0.015298862 0.018758804 0.012339487 0.011972275 0.018962339
0.01274806 0.004000517 0.00012383223 -0.0066710655 -0.0073470296 -0.00079266535 -0.023193087 -0.0018976553
-0.01011351 -0.00813949 0.0027582394 0.006619882 0.010684092 0.0106314 -0.005823402 5.3266212e-05
-0.004680819 0.0085438285 -0.012362492 -0.012318945 -0.0032962547 -0.020575903 -0.0017888787 -0.0041137906
-0.007836291 -0.013120069 -0.03191744 -0.009882947 0.0029167966 -0.01514448 -0.0102597 -0.010167323
0.015799597 -0.0141504565 -0.018908238 -0.007676635 -0.020151554 -0.007457574 -0.011448412 -0.017806077
-0.009442135 -0.0026097381 -0.025188614 -0.007455728 0.003122735 -0.01742434 -0.0006680015 -0.0046816766
-0.013223921 0.0077950303 0.009851539 0.011532796 0.0052739847 -0.0034749398 -0.017102767 -0.0023830757
-0.0017578512 0.005985179 -0.014557782 -0.008979188 -0.019984713 0.0028515374 0.031908628 -0.021581588
0.01668179 0.007908224 0.0123606585 -0.0145743005 0.023451976 0.019366402 0.018970279 0.024526076
0.018715043 0.016240086 0.016823273 0.009314722 0.017582258 -0.0013606752 0.014563885 0.013471636
-0.015107865 -0.012082826 -0.031008007 -0.011487329 0.007865258 -0.0014522304 -0.013380533 -0.024070373
-0.0037622524 -0.01335158 0.010255097 -0.014305948 -0.017413992 -0.01682644 -0.012445224 -0.017581308
00000000: 7bbc b139 e617 553b 4fc5 733c cd9d 823c
00000010: 5c82 1dbb 299a f2bb 3a51 a4bb ac7a d83a
00000020: bbc7 73bc e960 debb eec8 86ba 6f70 bc3b
00000030: 4eeb c53b d766 8c3b 63f5 173c f71b a8bc
00000040: 7f5f b93c 855b 3fbb 4482 89bc 0b44 9f3c
00000050: 9fb4 af3c 1721 31bc 55b5 8b3c 4cb6 27bc
00000060: 2df2 923c 33ab c03a c462 043c 14a8 7a3c
00000070: 10ac 993c 8f2b 4a3c 5c27 443c e856 9b3c
00000080: 3ddd 503c c516 833b f6d8 0139 f498 dabb
00000090: 5abf f0bb dfca 4fba 6eff bdbc bfba f8ba
000000a0: 23b3 25bc 7f5b 05bc 94c3 343b 98eb d83b
000000b0: 540c 2f3c 532f 2e3c 3dd2 bebb 296a 5f38
000000c0: 8e61 99bb 6afb 0b3c 0d8c 4abc 66d5 49bc
000000d0: fa05 58bb cc8e a8bc cf78 eaba facc 86bb
000000e0: c963 00bc 8ff5 56bc ddbb 02bd 16ec 21bc
000000f0: ba27 3f3b 8e20 78bc 4d18 28bc d894 26bc
00000100: 286e 813c 51d7 67bc 73e5 9abc 488c fbbb
00000110: df14 a5bc aa5e f4bb 1f92 3bbc 0dde 91bc
00000120: 2fb3 1abc 2408 2bbb 5a58 cebc 2e4f f4bb
00000130: cda6 4c3b 7dbd 8ebc d21c 2fba c068 99bb
00000140: 25a9 58bc 746d ff3b 5968 213c 0df4 3c3c
00000150: 64d1 ac3b d1bb 63bb 1a1b 8cbc 602d 1cbb
00000160: b367 e6ba 521f c43b c383 6ebc 721d 13bc
00000170: fbb6 a3bc dce0 3a3b 9fb2 023d dfcb b0bc
00000180: 40a8 883c 7f91 013c 5c84 4a3c 0cc9 6ebc
00000190: 5c1e c03c 4aa6 9e3c 8f67 9b3c e9ea c83c
000001a0: 4a50 993c ee09 853c f6d0 893c c79c 183c
000001b0: ab08 903c af58 b2ba 5c9d 6e3c 23b8 5c3c
000001c0: fb86 77bc 0cf7 45bc 8104 febc 5a35 3cbc
000001d0: 48dd 003c c458 beba 063a 5bbc 3b2f c5bc
000001e0: 1f90 76bb 96c0 5abc ff04 283c 7f63 6abc
000001f0: caa7 8ebc 9ad7 89bc 0ee7 4bbc ad06 90bc

0.conv2.lin_l.bias f4 [8]
-0.010271734 0.020543747 -0.0005995506 0.0047453707 -0.019982135 -0.0030087114 0.0077291606 -0.010784501
00000000: c64a 28bc 5c4b a83c 292b 1dba 0e7f 9b3b
00000010: 93b1 a3bc cd2d 45bb e644 fd3b 7ab1 30bc

0.conv2.lin_r.weight f4 [8, 16]
0.0017667987 -0.01398307 0.019136079 0.025469454 -0.0009903332 -0.004113393 -0.0043731485 0.018923597
-0.014312939 -0.0058098924 -0.011506817 0.011290162 0.009965551 -0.010423787 0.012730942 0.0018409916
0.0037183291 0.016672617 0.005777948 0.006577072 0.000654355 0.0077945055 0.012035356 -0.02433978
0.010139096 0.02288063 0.011267673 -0.0027855984 0.014381876 -0.02484398 0.003770125 -0.011747015
0.0033176155 -0.007955935 0.0040929494 -0.0066602067 -0.012300526 -0.008919674 -0.0022381237 0.0023701282
-0.0075210948 -0.0017423317 -0.00449604 0.008460297 0.007833224 0.00245578 0.002657073 0.02017729
0.004636745 -0.006597283 0.0014214757 0.003850554 0.00624238 -0.006280522 -0.0150117995 0.0048097856
-0.007994772 -0.02220611 -0.02597136 0.0009578378 -0.0036237477 -0.008214641 -0.010507302 0.010821548
0.017292915 0.021659655 -0.014962052 -0.0077420427 -0.014852346 -0.016626373 0.00017537148 -0.0064628976
-0.0065398132 -0.002155557 -0.0017087623 -0.0064741485 0.000653483 -0.005511929 -0.007503803 -0.019370075
-0.011679061 0.018425763 0.0064045843 -0.007845609 0.01133729 0.008932636 -0.019591266 -0.029011095
0.0042263973 -0.0035049021 -0.012925354 0.009541183 0.011197049 0.011226994 -0.008409248 0.007719567
0.017376106 0.0056451894 0.020318268 -0.002893814 0.00018593449 0.022741275 0.027208569 0.02272583
0.006868838 0.0039833407 0.0125167295 0.005399499 0.0113907205 0.009811894 0.015040484 -0.006161486
-0.009789532 -0.0012347769 -0.017077276 -0.017934762 -0.00041128398 -0.010495074 -0.0060685184 -0.0053204894
-0.010695361 -0.0106659485 0.001007903 -0.00677099 -0.016845161 -0.03148787 -0.007720357 -0.033917498
00000000: ed93 e73a 3f19 65bc 44c3 9c3c 51a5 d03c
00000010: 11ce 81ba a4c9 86bb a14c 8fbb a905 9b3c
00000020: d180 6abc e960 bebb 1787 3cbc 5ffa 383c
00000030: 8d46 233c 88c8 2abc 7195 503c 6d4d f13a
00000040: 36af 733b 0395 883c f154 bd3b 7b84 d73b
00000050: 0589 2b3a 0d69 ff3b f12f 453c 3864 c7bc
00000060: 731e 263c 2970 bb3c 0c9c 383c 968e 36bb
00000070: f6a1 6b3c 9a85 cbbc 3414 773b 8d76 40bc
00000080: 5a6c 593b 9c59 02bc 261e 863b dd3d dabb
00000090: 2588 49bc d323 12bc 7cad 12bb 2754 1b3b
000000a0: 8473 f6bb f35e e4ba 8453 93bb 0f9d 0a3c
000000b0: ec56 003c 27f1 203b 4a22 2e3b d84a a53c
000000c0: d6ef 973b 052e d8bb cf50 ba3a 9459 7c3b
000000d0: e18c cc3b d6cc cdbb 0df4 75bc 689b 9d3b
000000e0: 81fc 02bc 97e9 b5bc e4c1 d4bc 6817 7b3a
000000f0: 667c 6dbb b496 06bc d226 2cbc dd4c 313c
00000100: dfa9 8d3c 976f b13c 6523 75bc f6b0 fdbb
00000110: 4157 73bc 0834 88bc ece3 3739 b7c6 d3bb
00000120: ee4b d6bb 3f44 0dbb 8cf8 dfba 1825 d4bb
00000130: 804e 2b3a 699d b4bb 76e2 f5bb fead 9ebc
00000140: 8859 3fbc a0f1 963c 8cdd d13b df8a 00bc
00000150: 0ac0 393c 315a 123c dd7d a0bc ada8 edbc
00000160: 977d 8a3b 80b2 65bb ddc4 53bc 9f52 1c3c
00000170: d473 373c 6df1 373c f1c6 09bc 6cf4 fc3b
00000180: 5658 8e3c 48fb b83b 7f72 a63c 24a6 3dbb
00000190: 69f7 4239 e94b ba3c 81e4 de3c 852b ba3c
000001a0: fd13 e13b af86 823b f812 4d3c 48ee b03b
000001b0: 25a0 3a3c 11c2 203c 5d6c 763c 4ae6 c9bb
000001c0: 4664 20bc 3dd8 a1ba a5e5 8bbc eceb 92bc
000001d0: 9aa1 d7b9 88f3 2bbc 6cda c6bb 8057 aebb
000001e0: 983b 2fbc 3bc0 2ebc 9d1b 843a 2edf ddbb
000001f0: ddfe 89bc 6df9 00bd 0cfb fcbb 13ed 0abd

1.conv1.lin_l.weight f4 [16, 4]
0.09421195 0.05977505 0.096503325 0.13924022 0.10525638 -0.0024671487 0.08185961 0.11089483
0.103613235 0.019643927 0.0564419 0.14048672 0.08490505 0.023078253 0.045678105 0.13890517
0.0927917 0.030051837 0.03606325 0.10566569 0.10282963 0.05019128 0.028702214 0.11648881
0.104487374 0.0462146 0.06409311 0.15696377 0.09866955 -0.004126046 0.08071373 0.13975711
0.053211845 0.019543648 0.043446817 0.13561615 0.111889 0.0066177156 0.050354075 0.17287736
0.11183082 0.016521554 0.041719932 0.11051648 0.0446763 0.028391426 0.015723405 0.09338424
0.062280297 0.00067972834 0.0345399 0.13644753 0.088264845 0.02815202 0.08477694 0.115125485
0.07813943 0.032019738 0.0605373 0.14766029 0.05598138 0.008461863 0.033142284 0.12516002
00000000: 32f2 c03d afd6 743d 89a3 c53d fd94 0e3e
00000010: a890 d73d e3af 21bb 03a6 a73d d41c e33d
00000020: 2d33 d43d 4dec a03c 9f2f 673d c0db 0f3e
00000030: b3e2 ad3d 9b0e bd3c f718 3b3d 283d 0e3e
00000040: 9309 be3d 452f f63c 0fb7 133d 4167 d83d
00000050: 5798 d23d 5f95 4d3d e820 eb3c af91 ee3d
00000060: 7afd d53d 854b 3d3d 4043 833d 1cbb 203e
00000070: 4313 ca3d c833 87bb 3d4d a53d 7d1c 0f3e
00000080: aaf4 593d 001a a03c 4af5 313d f6de 0a3e
00000090: 0f26 e53d 6cd9 d83b 1340 4e3d c306 313e
000000a0: 8f07 e53d 3658 873c 85e2 2a3d 7756 e23d
000000b0: 7ffe 363d 2395 e83c 5fce 803c 3d40 bf3d
000000c0: a019 7f3d cc2f 323a b679 0d3d e7b8 0b3e
000000d0: 33c4 b43d 119f e63c 889f ad3d e9c6 eb3d
000000e0: 9107 a03d 2127 033d f6f5 773d 4234 173e
000000f0: bb4c 653d a0a3 0a3c 34c0 073d f329 003e

1.conv1.lin_l.bias f4 [16]
0.049322013 0.075729854 0.08821368 0.059677344 0.080721796 0.044126615 0.043178007 0.09072389
0.043925315 0.03040966 0.04803419 0.03616763 0.06928063 0.075083956 0.046972457 0.05336836
00000000: e105 4a3d 4118 9b3d 60a9 b43d 3b70 743d
00000010: 7851 a53d 1cbe 343d 6cdb 303d 72cd b93d
00000020: 08eb 333d ae1d f93c 80bf 443d 8224 143d
00000030: 01e3 8d3d 9ec5 993d 3166 403d c898 5a3d

1.conv1.lin_r.weight f4 [16, 4]
0.11886032 0.033689797 0.08826995 0.17287621 0.107666194 0.0643702 0.0774964 0.17314881
0.12615739 0.04983708 0.07172915 0.15005198 0.09654797 0.043922335 0.07962246 0.18363026
0.119293496 0.04202112 0.06671015 0.15300651 0.13206078 0.031422816 0.06889402 0.14070842
0.13750565 0.04192618 0.07844363 0.11784651 0.107798226 0.04107501 0.07168271 0.18811329
0.11042982 0.033413403 0.06392625 0.1434591 0.115203284 0.05574805 0.0472603 0.15792222
0.06923249 0.045437198 0.05050492 0.14214796 0.1095735 0.035150442 0.059240494 0.11931664
0.14243819 0.06441684 0.062851846 0.1868024 0.10116774 0.0037903907 0.05271632 0.12662153
0.1144914 0.025366204 0.07220405 0.18748774 0.13392399 0.028740857 0.055155396 0.16140094
00000000: 0a6d f33d 50fe 093d e0c6 b43d 7606 313e
00000010: 1880 dc3d 86d4 833d 6fb6 9e3d ec4d 313e
00000020: 672f 013e f721 4c3d bce6 923d 3aa7 193e
00000030: f1ba c53d e8e7 333d 1a11 a33d 9209 3c3e
00000040: 2650 f43d 571e 2c3d 559f 883d bdad 1c3e
00000050: f13a 073e 36b5 003d 4f18 8d3d de15 103e
00000060: 48ce 0c3e c9ba 2b3d 0ea7 a03d 8359 f13d
00000070: 51c5 dc3d 453e 283d 62ce 923d c5a0 403e
00000080: 0829 e23d 7edc 083d c4eb 823d f1e6 123e
00000090: b3ef eb3d 1158 643d 0494 413d 5db6 213e
000000a0: c4c9 8d3d 5b1c 3a3d 3fde 4e3d 3c8f 113e
000000b0: 1268 e03d e9f9 0f3d 29a6 723d 485c f43d
000000c0: 51db 113e faec 833d 78b8 803d 2149 3f3e
000000d0: 0831 cf3d 3468 783b 11ed 573d 13a9 013e
000000e0: 787a ea3d c9cc cf3c b8df 933d c9fc 3f3e
000000f0: 5f23 093e f271 eb3c a0ea 613d 4a46 253e

1.conv2.lin_l.weight f4 [8, 16]
0.019371655 -0.009631328 -0.0028810175 0.010551437 -0.004379651 -0.012239251 -0.0037890219 -0.003394582
0.0018204894 0.0089474805 -0.0059355777 -0.0025999248 0.008715029 0.008361832 0.017397381 0.008274197
-0.0056207012 -0.021794245 0.0075442176 0.0006303467 0.0005379285 -0.0065718032 -0.011080644 -0.010048378
-0.0024407397 0.01076622 -0.012604037 -0.02068856 -0.0018405723 0.0073984526 -0.018905297 -0.0091124
0.032108176 -0.015107175 0.024043867 0.017739452 0.004784063 0.0056385007 0.03255496 -0.005092928
0.033860084 0.022559874 0.028615745 0.02831945 0.011467356 0.010006523 0.015277552 0.016666776
-0.048311844 -0.0066315476 -0.01035564 -0.024456495 -0.019776989 -0.030497944 -0.0096293 -0.027940957
-0.005227332 -0.0027012762 -0.023767298 -0.013472914 -0.011896528 -0.027683044 -0.031294838 -0.031230092
-0.021108313 -0.011972835 -0.023583103 -0.013154719 -0.009483061 -0.006394844 0.0026254451 0.0014626902
-0.01893085 -0.010643206 -1.752466e-05 -0.0025577503 -0.017930774 -0.0057612415 -0.020554494 -0.021890575
0.013407354 0.013384283 -0.012859919 -0.01960888 -0.004543635 0.013596014 -0.009112972 -0.013431358
-0.010843296 -0.00814996 -0.00058838306 -0.018635087 -0.011512433 -0.005862391 -0.031504083 -0.004462082
-0.010164644 -0.0055782045 -0.0082170665 -0.002008332 0.0075742174 -0.020283923 -0.022179265 -0.0020115932
0.0021479204 -0.032724384 -0.00454353 -0.012153792 0.0007965387 -0.007963088 0.001071652 -0.002805277
0.0044514183 0.017003713 0.015843399 0.0025512385 -0.007885808 0.017298471 0.009207305 -0.007853679
-0.020475382 0.017919531 0.010351224 0.008063317 0.0065630795 0.014734342 0.01532709 0.0060829967
00000000: 4eb1 9e3c b8cc 1dbc 74cf 3cbb efdf 2c3c
00000010: 2d83 8fbb 2487 48bc 3d51 78bb a377 5ebb
00000020: 7d9d ee3a 7498 123c 3c7f c2bb 8063 2abb
00000030: 7bc9 0e3c 1100 093c f484 8e3c 7f90 073c
00000040: dc2d b8bb d889 b2bc 7c35 f73b da3d 253a
00000050: c503 0d3a 4858 d7bb 978b 35bc f4a1 24bc
00000060: d1f4 1fbb cd64 303c 2a81 4ebc 0e7b a9bc
00000070: 5c3f f1ba b86e f23b 48df 9abc 2d4c 15bc
00000080: dd83 033d 1684 77bc a5f7 c43c 5452 913c
00000090: a1c3 9c3b 2cc3 b83b 5a58 053d 94e2 a6bb
000000a0: dfb0 0a3d 7ccf b83c 916b ea3c 31fe e73c
000000b0: 94e1 3b3c 66f2 233c b34e 7a3c c388 883c
000000c0: a4e2 45bd 744d d9bb b4aa 29bc fd58 c8bc
000000d0: 5a03 a2bc d3d6 f9bc 36c4 1dbc 6fe4 e4bc
000000e0: 0a4a abbb e507 31bb a3b3 c2bc 7fbd 5cbc
000000f0: a8e9 42bc 8dc7 e2bc 042f 00bd 40d6 ffbc
00000100: 57eb acbc b629 44bc 5a31 c1bc e486 57bc
00000110: d75e 1bbc d78b d1bb a90f 2c3b bdb7 bf3a
00000120: df14 9bbc d760 2ebc ec01 93b7 ee9f 27bb
00000130: 8fe3 92bc ccc8 bcbb e661 a8bc dd53 b3bc
00000140: 85aa 5b3c c049 5b3c 69b2 52bc cda2 a0bc
00000150: c6e2 94bb d1c1 5e3c 934e 15bc 330f 5cbc
00000160: 14a8 31bc 6987 05bc b83d 1aba 9ca8 98bc
00000170: a59e 3cbc 4d19 c0bb 6d0a 01bd a836 92bb
00000180: 9b89 26bc 5fc9 b6bb e0a0 06bc 389e 03bb
00000190: 2431 f83b 782a a6bc 4ab1 b5bc efd4 03bb
000001a0: 20c4 0c3b 010a 06bd e4e1 94bb b320 47bc
000001b0: cfce 503a 9d77 02bc ad76 8c3a bdd8 37bb
000001c0: 34dd 913b 5f4b 8b3c 04ca 813c ae32 273b
000001d0: 7a33 01bc 86b5 8d3c 3cda 163c b8ac 00bc
000001e0: fdbb a7bc fbcb 923c 2e98 293c 011c 043c
000001f0: 1a0f d73b 4f68 713c 7a1e 7b3c e053 c73b

1.conv2.lin_l.bias f4 [8]
0.012027345 -0.02130561 0.036589157 -0.017640823 -0.022735922 -0.0002648306 0.0021974735 0.021284234
00000000: 570e 453c 1a89 aebc 83de 153d 7d83 90bc
00000010: af40 babc f6d8 8ab9 7d03 103b 465c ae3c

1.conv2.lin_r.weight f4 [8, 16]
-0.009892557 -0.010798147 -0.0056765056 -0.003353666 0.0058920626 0.026854232 0.007233897 0.017332036
0.011761392 -0.0038223076 0.018400714 0.013170731 0.0009756012 0.0075990534 0.020479647 0.0010000556
-0.004144645 -0.014951496 -0.023239873 0.009834326 0.0076954677 0.004041644 -0.00746324 -0.017811792
-0.0028203623 -9.96095e-05 -0.014140196 -0.01137139 0.010228608 -0.023838785 -0.036151774 0.007975377
0.001373524 0.023185195 -0.0059942114 -0.00338984 0.013864026 0.01988346 0.017277401 0.021731453
0.014634406 -0.0036355418 0.030666098 0.0153849 0.010255389 0.022739436 0.013493559 0.027245684
-0.017264836 -0.008609405 -0.022935508 -0.020656412 -0.013338285 -0.015588292 -0.0035766147 -0.018801484
0.006033086 -0.033455953 0.00030148536 -0.010403839 -0.010966632 -0.010621326 -0.02820405 -0.024531184
-0.027639857 -0.033803023 -0.02252605 -0.013430812 -0.008755863 -0.016875442 -0.008929986 -0.002269577
-0.010210782 -0.016930541 -0.003720662 -0.0012254809 0.0025626281 -0.014027169 -0.017654527 -0.017396731
0.011463485 -0.009184497 -0.015024448 -0.024065502 -0.004018672 0.012036657 0.0040895133 -0.018292911
-0.008317576 -0.0139689315 0.009907317 -0.014184534 -0.00808649 -0.012340181 -0.0065248352 0.018460698
0.0050125043 -0.006703626 0.0012416907 -0.013592546 -0.011757591 -0.00044993134 -0.0058579636 -0.015555935
-0.002248981 -0.032440607 -0.003319782 0.0020951114 -0.00770486 0.0090548135 -0.00783965 -0.018986782
-0.0142531805 0.0133473985 0.02433028 0.003339855 0.010818655 0.00520638 0.01736544 0.0022984212
-0.0005576184 0.02019521 0.028287334 0.0042864974 0.013961341 0.008792619 -0.0006130993 -0.00715958
00000000: 6414 22bc b6ea 30bc fb01 babb 2ec9 5bbb
00000010: 3412 c13b 68fd db3c 540a ed3b eafb 8d3c
00000020: dab2 403c ae7f 7abb 18bd 963c 0dca 573c
00000030: 7dbf 7f3a 7b01 f93b efc4 a73c 4c14 833a
00000040: cdcf 87bb 1ff7 74bc 8c61 bebc 2720 213c
00000050: 432a fc3b c46f 843b 328e f4bb 09ea 91bc
00000060: d4d5 38bb 71e5 d0b8 48ac 67bc 114f 3abc
00000070: e495 273c 8e49 c3bc e213 14bd 28ab 023c
00000080: d107 b43a e1ee bd3c 176b c4bb 1428 5ebb
00000090: f125 633c a3e2 a23c 5689 8d3c 2906 b23c
000000a0: 26c5 6f3c 4542 6ebb 7837 fb3c f310 7c3c
000000b0: 3806 283c 0e48 ba3c 1714 5d3c 5732 df3c
000000c0: fc6e 8dbc 760e 0dbc 3fe3 bbbc a337 a9bc
000000d0: d288 5abc 0966 7fbc a365 6abb 9205 9abc
000000e0: 32b1 c53b 1c09 09bd ae10 9e39 dd74 2abc
000000f0: 63ad 33bc 1205 2ebc 2e0c e7bc 9ff5 c8bc
00000100: fb6c e2bc 0a75 0abd 8d88 b8bc e90c 5cbc
00000110: c074 0fbc 5e3e 8abc 134f 12bc 2fbd 14bb
00000120: 204b 27bc ebb1 8abc 5ad6 73bb 51a0 a0ba
00000130: c4f1 273b 36d2 65bc 3aa0 90bc 9783 8ebc
00000140: 57d1 3b3c 937a 16bc 1a29 76bc 0425 c5bc
00000150: 10af 83bb 6635 453c 5301 863b 04db 95bc
00000160: 7146 08bc f2dd 64bc 4d52 223c 3f66 68bc
00000170: 337d 04bc 782e 4abc 49ce d5bb e43a 973c
00000180: ef3f a43b 17aa dbbb 3ac0 a23a 45b3 5ebc
00000190: e9a2 40bc c3e4 ebb9 29f4 bfbb 52de 7ebc
000001a0: a463 13bb 71e0 04bd b390 59bb 234e 093b
000001b0: 0d79 fcbb a45a 143c e071 00bc 2b8a 9bbc
000001c0: 2c86 69bc 0caf 5a3c 4c50 c73c 78e1 5a3b
000001d0: ba40 313c 489a aa3b f841 8e3c 1ca1 163b
000001e0: 232d 12ba 6d70 a53c d7ba e73c bf75 8c3b
000001f0: 1cbe 643c eb0e 103c 66b8 20ba e99a eabb

2.conv1.lin_l.weight f4 [16, 4]
0.089395486 0.013049459 0.054442864 0.13128696 0.098324955 0.0124399625 0.050552674 0.13710232
0.12010982 0.05069707 0.035383705 0.1408398 0.0669696 -0.016150532 0.031881582 0.1177104
0.07386813 0.03185021 0.032360926 0.15662597 0.056356654 0.0069331657 0.010715388 0.1165871
0.09307026 0.032505166 0.043530837 0.14824347 0.056635793 0.0340454 0.032089017 0.13349782
0.060694575 0.0017598942 0.032415338 0.14379746 0.08508052 0.009168481 0.07956695 0.12569186
0.04973037 0.013595041 0.030910213 0.11981355 0.07039663 0.027327368 0.018672116 0.12380243
0.08276668 -0.0066697462 0.033090178 0.14449786 0.12945198 0.009849202 0.07341842 0.13852087
0.08059453 0.03211708 0.06781588 0.20166963 0.09896327 0.020881712 0.04994503 0.098376684
00000000: fb14 b73d 66cd 553c 7bff 5e3d 1770 063e
00000010: 985e c93d fcd0 4b3c 5210 4f3d 8d64 0c3e
00000020: 23fc f53d bba7 4f3d 81ee 103d 4f38 103e
00000030: 5c27 893d 1f4e 84bc 4396 023d 2612 f13d
00000040: 2d48 973d 5e75 023d e48c 043d 8f62 203e
00000050: 3cd6 663d 9c2f e33b 988f 2f3c 38c5 ee3d
00000060: 9f9b be3d 2324 053d 644d 323d 23cd 173e
00000070: effa 673d 3073 0b3d c66f 033d a7b3 083e
00000080: e09a 783d 40ac e63a f2c5 043d a43f 133e
00000090: b23e ae3d 6637 163c fff3 a23d 5eb5 003e
000000a0: 13b2 4b3d bcbd 5e3c 6a37 fd3c ce60 f53d
000000b0: 1c2c 903d a5dd df3c 44f6 983c 218c fd3d
000000c0: 9481 a93d e38d dabb 9189 073d 3ff7 133e
000000d0: 0f8f 043e 8c5e 213c 665c 963d 6ad8 0d3e
000000e0: bf0e a53d 338d 033d 0de3 8a3d 7c82 4e3e
000000f0: 41ad ca3d 2010 ab3c 2993 4c3d b779 c93d

2.conv1.lin_l.bias f4 [16]
0.06435005 0.05778657 0.06382795 0.037804443 0.055237222 0.05395254 0.06285178 0.08058834
0.06107433 0.037296675 0.049327336 0.055952135 0.0801622 0.07550426 0.0717551 0.040049396
00000000: f6c9 833d 9cb1 6c3d 3ab8 823d d5d8 1a3d
00000010: 6d40 623d 57fd 5c3d 6fb8 803d 800b a53d
00000020: 1429 7a3d 66c4 183d 760b 4a3d 112e 653d
00000030: 142c a43d faa1 9a3d 56f4 923d d60a 243d

2.conv1.lin_r.weight f4 [16, 4]
0.11771798 0.027160212 0.0934621 0.18373546 0.11539338 0.0119031845 0.08029435 0.15067886
0.13005902 0.024209548 0.07085546 0.16592787 0.10578899 0.045605153 0.04546852 0.16129594
0.121983595 0.028630896 0.09118061 0.18041891 0.12198088 0.031487748 0.057896193 0.13536227
0.1445861 0.020806247 0.06852321 0.14002967 0.09061245 0.02282363 0.077776685 0.115711994
0.12976259 0.045822863 0.0893992 0.14468132 0.116219245 0.024443211 0.08087649 0.11138878
0.11590292 0.034063216 0.07508245 0.11113582 0.10688916 0.02327834 0.06273088 0.12843424
0.1382309 0.034465566 0.07682186 0.15410946 0.08791252 0.030051036 0.07445743 0.17533846
0.10769462 0.06696798 0.100552514 0.16073725 0.12757376 0.033550136 0.0271468 0.13825363
00000000: 2016 f13d 187f de3c 0f69 bf3d 2625 3c3e
00000010: 5d53 ec3d 9305 433c 5d71 a43d 8f4b 1a3e
00000020: 312e 053e 1a53 c63c ab1c 913d ffe8 293e
00000030: e6a7 d83d 78cc 3a3d 333d 3a3d c32a 253e
00000040: 89d2 f93d 578b ea3c e6bc ba3d bcbf 383e
00000050: 1dd1 f93d 4cf9 003d 8f24 6d3d 689c 0a3e
00000060: 610e 143e dd71 aa3c e655 8c3d f063 0f3e
00000070: 0593 b93d 9ff8 ba3c 6249 9f3d 69fa ec3d
00000080: 7ce0 043e c1b0 3b3d ee16 b73d 5727 143e
00000090: 5b04 ee3d 213d c83c 93a2 a53d cd1f e43d
000000a0: 835e ed3d df85 0b3d d4c4 993d 2d9b e33d
000000b0: b4e8 da3d 38b2 be3c 0c79 803d 4484 033e
000000c0: 678c 0d3e c42b 0d3d c854 9d3d dfce 1d3e
000000d0: 7b0b b43d 972d f63c 237d 983d ed8b 333e
000000e0: ff8e dc3d 8226 893d 7aee cd3d 4e98 243e
000000f0: b2a2 023e de6b 093d f762 de3c 5c92 0d3e

2.conv2.lin_l.weight f4 [8, 16]
0.00020975128 0.009016432 0.0043676384 0.013005129 -0.007928095 -0.002625771 -0.003951164 -0.0005700102
0.005734345 -0.004752146 0.010699925 -0.0004317236 -3.2657237e-05 -0.00755854 0.0038953093 0.0042869635
-0.03399846 -0.011715272 -0.02466033 -0.022737479 -0.020103035 -0.027036618 -0.011402275 -0.019756524
-0.01156204 -0.00085167674 -0.022769528 -0.032520752 -0.026697237 -0.013861432 -0.01487497 -0.012640062
-0.0060648415 -0.0051489873 -0.026724238 0.0013309664 -0.01095033 -0.012443555 -0.004976215 -0.013246451
-0.016043337 -0.0020064733 -0.011848447 -0.011131201 -0.010688622 -0.0042394605 0.0003843096 -0.0030706478
0.028660724 0.017750503 0.025852714 0.02585904 0.021586932 0.021617362 0.021202907 0.026456136
0.021012468 0.00065113575 -0.001180419 0.0037544554 0.026830714 0.012618709 0.013745582 0.008119248
0.0049644937 -0.004333741 -0.009794211 0.00765528 -0.0032318418 0.011430478 0.0029263806 -0.0054022325
0.022604324 -0.0103065595 -0.0001251015 0.03440124 0.0040717814 0.0072627435 -0.009986402 -0.0048064543
0.00020603754 -0.012584133 -0.014156041 0.015972117 -0.00992429 -0.020615809 -0.0027753317 -0.017143253
0.0038009286 0.013070649 0.0031479755 0.0013257025 -0.0006895864 -0.010612173 -0.00055463525 -0.020877264
-0.018003307 0.0057507455 -0.0062154997 0.008184816 -0.0085576475 -0.008124733 -0.0004341872 -0.009076502
0.0063619744 0.016970918 -0.010237914 -0.005186783 -0.0060584573 0.00083883107 0.0031087645 0.015708424
-0.023234384 -0.025182102 0.0011461272 0.0056199413 0.0070807664 0.0045104814 -0.0073736357 -0.0012432889
-0.022601686 0.0054097557 -0.022618836 0.012191279 0.008665855 -0.0038048453 0.013755716 0.00714786
00000000: aef0 5b39 a8b9 133c 681e 8f3b 7713 553c
00000010: d7e4 01bc 2115 2cbb c478 81bb bd6c 15ba
00000020: 2ce7 bb3b e4b7 9bbb bd4e 2f3c f658 e2b9
00000030: 71f9 08b8 a1ad f7bb 7248 7f3b a879 8c3b
00000040: f841 0bbd 6af1 3fbc 7604 cabc f343 babc
00000050: 1faf a4bc e67b ddbc 9cd0 3abc 6fd8 a1bc
00000060: b66e 3dbc 0f43 5fba 2987 babc 7b34 05bd
00000070: 2ab4 dabc 0f1b 63bc 25b6 73bc 4318 4fbc
00000080: 94bb c6bb d6b8 a8bb caec dabc d273 ae3a
00000090: 0369 33bc 0de0 4bbc 840f a3bb a407 59bc
000000a0: 516d 83bc 097f 03bb fd1f 42bc a45f 36bc
000000b0: 541f 2fbc 2ceb 8abb 297d c939 ec3c 49bb
000000c0: e5c9 ea3c 8169 913c 12c9 d33c 56d6 d33c
000000d0: 14d7 b03c e516 b13c b8b1 ad3c 8aba d83c
000000e0: 5722 ac3c fbb0 2a3a 4ab8 9aba 4f0d 763b
000000f0: 16cc db3c b4be 4e3c 2635 613c 9806 053c
00000100: 31ad a23b 0e02 8ebb e677 20bc 25d9 fa3b
00000110: 4fcd 53bb e646 3b3c 85c8 3f3b 3605 b1bb
00000120: b42c b93c d8dc 28bc ae2d 03b9 51e8 0c3d
00000130: 946c 853b 4ffc ed3b 019e 23bc 767f 9dbb
00000140: c80b 5839 ae2d 4ebc bdee 67bc f5d7 823c
00000150: 7d99 22bc 7ce2 a8bc 57e2 35bb 0270 8cbc
00000160: 0019 793b 4626 563c 444e 4e3b 32c3 ad3a
00000170: 5cc5 34ba aede 2dbc f164 11ba cc06 abbc
00000180: ac7b 93bc c070 bc3b 64ab cbbb 9b19 063c
00000190: 6035 0cbc 9a1d 05bc 9fa3 e3b9 9cb5 14bc
000001a0: 1c78 d03b 9806 8b3c ecbc 27bc e4f5 a9bb
000001b0: 0686 c6bb 00e5 5b3a 6abc 4b3b f4ae 803c
000001c0: 0956 bebc b24a cebc a639 963a 7c27 b83b
000001d0: c605 e83b a9cc 933b 8a9e f1bb daf5 a2ba
000001e0: 2c27 b9bc 5244 b13b 234b b9bc eebd 473c
000001f0: 3bfb 0d3c b65a 79bb a85f 613c 9838 ea3b

2.conv2.lin_l.bias f4 [8]
-0.00058457523 -0.03231242 -0.018543454 0.03146546 0.012983232 -0.0049854238 -0.012824249 0.005893842
00000000: 2e3e 19ba 075a 04bd 71e8 97bc ede1 003d
00000010: 9fb7 543c c45c a3bb cd1c 52bc 2121 c13b

2.conv2.lin_r.weight f4 [8, 16]
-0.0025237866 -0.015528893 0.008347262 -0.0006196049 -0.002946492 0.00074866967 -0.0023352846 0.024715208
0.005166792 -0.0022455757 -0.0017006949 -0.0011226549 0.01943799 -0.0016453373 0.006838117 0.007560962
-0.027606707 -0.022607524 -0.037677478 -0.025010074 -0.036187306 -0.038598757 -0.013654049 -0.02810142
-0.029517503 -0.002973794 -0.01579269 -0.025905559 0.00064009667 -0.024122868 -0.021599418 -0.0019749303
-0.014108343 -0.0056918077 -0.0324495 -0.009574246 -0.008224117 -0.01806626 0.0016766408 -0.01912205
-0.00055093336 -0.008661555 -0.019268682 -0.003949153 -0.01843127 -0.033375103 -0.032755464 -0.010482435
0.014930885 0.013881044 0.01299603 0.015422835 0.010865378 0.03963977 0.0082153855 -0.00042022511
0.0020819597 0.0044173677 2.9548182e-05 0.019445272 0.03186062 0.013210855 -0.005338796 0.0067491424
-0.0136627415 -0.010786411 0.0044580875 -0.0041949158 -0.01824575 -0.0071302033 -0.01698566 -0.009709744
-0.0046188436 -0.020075439 0.0061601573 0.013828864 0.024579328 -0.007337304 -0.0125795435 -0.0022108327
0.00015700162 -0.011531695 -0.010336234 0.0021026833 0.00057822285 0.0051829703 0.0004389572 -0.017388273
0.006915661 0.016134435 0.0028469795 0.012044945 -0.007392982 -0.0059677986 0.00048211313 -0.005658064
-0.026090372 0.004668439 -0.006061661 -0.0020897326 -0.011136309 0.007173781 0.008222796 -0.016539736
0.003252441 0.014589296 -0.0110536525 0.009941815 0.0002811584 -0.012902806 0.0068418067 0.0041850554
-0.010414787 0.00441071 0.008299779 0.0024178775 -0.011765685 -0.0042906622 -0.0039696293 -0.008012409
-0.015811406 -0.0035401224 -0.0055065174 0.0023682604 -0.0033380026 0.005214765 -0.02770497 0.006524431
00000000: 1d66 25bb e66c 7ebc f4c2 083c fb6c 22ba
00000010: ef19 41bb 5f42 443a 930b 19bb 8c77 ca3c
00000020: 314e a93b 822a 13bb dae9 deba 0c26 93ba
00000030: 6b3c 9f3c 5ca8 d7ba 4812 e03b f2c1 f73b
00000040: 7627 e2bc 6a33 b9bc b353 1abd ede1 ccbc
00000050: 2439 14bd bb19 1ebd 3bb5 5fbc f334 e6bc
00000060: b1ce f1bc fce3 42bb ac5f 81bc e537 d4bc
00000070: 29cc 273a 529d c5bc 43f1 b0bc d56d 01bb
00000080: ae26 67bc 5882 babb c4e9 04bd 4cdd 1cbc
00000090: 72be 06bc b1ff 93bc bbc2 db3a d8a5 9cbc
000000a0: 836c 10ba 32e9 0dbc 5bd9 9dbc e567 81bb
000000b0: 2dfd 96bc 55b4 08bd 982a 06bd 85be 2bbc
000000c0: aca0 743c 526d 633c 4ded 543c 0fb0 7c3c
000000d0: b304 323c 505d 223d d399 063c a951 dcb9
000000e0: 7d71 083b 91bf 903b 3dde f737 b14b 9f3c
000000f0: 4880 023d 5872 583c 11f1 aebb e927 dd3b
00000100: b1d9 5fbc 7db9 30bc 2615 923b 8175 89bb
00000110: 1c78 95bc 7ba4 e9bb 8325 8bbc 9e15 1fbc
00000120: ab59 97bb 3f75 a4bc 25db c93b 7692 623c
00000130: 965a c93c c46d f0bb 6e1a 4ebc 9ee3 10bb
00000140: cda0 2439 6fef 3cbc 4f59 29bc 2ccd 093b
00000150: e193 173a e8d5 a93b d723 e639 da71 8ebc
00000160: c59c e23b 5d2c 843c 6494 3a3b 2958 453c
00000170: d440 f2bb 868d c3bb 21c4 fc39 4867 b9bb
00000180: 7abb d5bc b4f9 983b e6a0 c6bb e5f3 08bb
00000190: 1175 36bc 0912 eb3b e8b8 063c 577e 87bc
000001a0: e826 553b f107 6f3c 611a 35bc ffe2 223c
000001b0: 7168 9339 4a66 53bc 3c31 e03b ca22 893b
000001c0: c8a2 2abc b887 903b ccfb 073c 4175 1e3b
000001d0: dcc4 40bc af98 8cbb aa13 82bb 7b46 03bc
000001e0: ec86 81bc 6601 68bb 0470 b4bb d134 1b3b
000001f0: 64c2 5abb 9fe0 aa3b 89f5 e2bc e5ca d53b

3.conv1.lin_l.weight f4 [16, 4]
0.06120155 0.028248014 0.11084665 0.24540359 0.0646065 0.010269773 0.10498347 0.20066375
0.038494658 0.047765728 0.11551478 0.20754622 0.049888697 0.062494494 0.1050649 0.21915434
0.03914788 0.017028017 0.09520416 0.18433069 0.06988341 0.015560632 0.08706026 0.18482855
0.07190039 0.0017901553 0.08976225 0.23695777 0.05171068 0.030994989 0.14387618 0.2520283
0.0627587 0.052125163 0.15172294 0.2452355 0.042261023 0.03711963 0.16565856 0.23515052
0.044943407 0.050575312 0.12225927 0.24437201 0.06441405 0.03616773 0.0784847 0.218736
0.04193248 0.049084052 0.13031939 0.21854982 0.060745228 0.009166309 0.13306707 0.2571398
0.041195154 -0.0041493634 0.122895345 0.23832698 0.05965755 0.060397163 0.12197657 0.24049048
00000000: 7aae 7a3d 6168 e73c 9203 e33d 144b 7b3e
00000010: 6a50 843d 8d42 283c 9301 d73d cc7a 4d3e
00000020: 93ac 1d3d ffa5 433d 0393 ec3d ff86 543e
00000030: 1758 4c3d 3afa 7f3d 442c d73d ff69 603e
00000040: 8759 203d 577e 8b3c 66fa c23d 2fc1 3c3e
00000050: 091f 8f3d 05f2 7e3c a64c b23d b243 3d3e
00000060: 8340 933d a5a3 ea3a 45d5 b73d 0fa5 723e
00000070: 94ce 533d 34e9 fd3c 4754 133e da09 813e
00000080: a287 803d 3281 553d 425d 1b3e 041f 7b3e
00000090: e519 2d3d c10a 183d 66a2 293e 4ccb 703e
000000a0: 9416 383d 0f28 4f3d 1163 fa3d a83c 7a3e
000000b0: 83eb 833d 9d24 143d 96bc a03d 54fc 5f3e
000000c0: 64c1 2b3d 5c0c 493d 7272 053e 86cb 5f3e
000000d0: fdcf 783d 492e 163c bc42 083e d4a7 833e
000000e0: 40bc 283d 62f7 87bb 8eb0 fb3d fd0b 743e
000000f0: 7a5b 743d 0463 773d dace f93d 2343 763e

3.conv1.lin_l.bias f4 [16]
0.13695744 0.08342518 0.10627415 0.13794914 0.1213448 0.07413743 0.13214415 0.12966293
0.13661717 0.13481094 0.15310349 0.13456352 0.1327545 0.14631951 0.13812764 0.13060209
00000000: 923e 0c3e d2da aa3d 43a6 d93d 8a42 0d3e
00000010: 9f83 f83d 5dd5 973d cc50 073e 5cc6 043e
00000020: 5fe5 0b3e e10b 0a3e 29c7 1c3e 05cb 093e
00000030: ccf0 073e c8d4 153e 5571 0d3e 8ebc 053e

3.conv1.lin_r.weight f4 [16, 4]
0.07555004 0.04928703 0.15117088 0.24889351 0.070171446 0.03646103 0.10789392 0.22891653
0.09072775 0.07561151 0.15179251 0.23438194 0.07176773 0.047193334 0.123353615 0.27293617
0.11659415 0.02782601 0.12324281 0.19405764 0.075371906 0.06427108 0.091949046 0.18659195
0.07014826 0.050584618 0.15293835 0.23526031 0.06580974 0.058096185 0.1289464 0.23570585
0.08375989 0.06495109 0.12773381 0.26127988 0.08271755 0.023801593 0.15565643 0.26270115
0.08249869 0.06085506 0.1322016 0.24476105 0.0821977 0.056891274 0.13480058 0.255101
0.08364949 0.055699363 0.15248044 0.26040545 0.08579875 0.030147705 0.17653556 0.25952587
0.076262705 0.059866473 0.114984944 0.25077185 0.061347608 0.054663148 0.17891946 0.2283702
00000000: fbb9 9a3d 32e1 493d 8acc 1a3e f1dd 7e3e
00000010: 0cb6 8f3d 2958 153d 7df7 dc3d 1869 6a3e
00000020: 78cf b93d 35da 9a3d 7f6f 1b3e d201 703e
00000030: f6fa 923d cc4d 413d d2a0 fc3d 4abe 8b3e
00000040: eac8 ee3d 5ff3 e33c ba66 fc3d 0cb7 463e
00000050: 965c 9a3d 8ea0 833d c84f bc3d f611 3f3e
00000060: e4a9 8f3d d131 4f3d df9b 1c3e 14e8 703e
00000070: 42c7 863d 44f6 6d3d 860a 043e e05c 713e
00000080: 4e8a ab3d 1405 853d a7cc 023e 7ac6 853e
00000090: d267 a93d 8ffb c23c 6664 1f3e c480 863e
000000a0: 13f5 a83d 2843 793d db5f 073e a4a2 7a3e
000000b0: 4557 a83d d306 693d 2a09 0a3e 999c 823e
000000c0: 6c50 ab3d 0425 643d d523 1c3e dd53 853e
000000d0: 41b7 af3d 52f8 f63c bdc5 343e 93e0 843e
000000e0: 9f2f 9c3d 8c36 753d 3a7d eb3d 2b65 803e
000000f0: a147 7b3d 77e6 5f3d aa36 373e e1d9 693e

3.conv2.lin_l.weight f4 [8, 16]
0.009835551 0.009456762 0.026537409 0.0047969786 -0.010825332 0.009575206 0.036407065 0.030252518
0.0020668355 0.00041971356 0.014110169 0.007537559 0.021906003 0.026348924 0.0324306 0.047531806
-0.020282373 -0.01447618 -0.022838917 0.008927232 0.00446347 0.0071246875 -0.012403888 0.0028354025
-0.0029304249 -0.03134373 0.015011446 -0.038785636 -0.02623053 -0.022739058 -0.010421871 -0.021549935
0.0010698576 -0.018182945 -0.029387647 -0.03455118 -0.040999927 -0.0468601 -0.032453567 -0.021480842
-0.0020191513 -0.030743904 -0.031282265 -0.021875452 -0.029686496 -0.02822227 -0.043655545 0.004309547
-0.0017622296 -0.00914131 -0.0151949115 0.020966796 0.004865934 -0.009677325 0.009897273 -0.0013074822
0.00645885 0.020881765 0.017073907 0.002682773 -0.0067746164 -0.014689547 -0.014710989 -0.011715757
-0.012227118 -0.0013288674 -0.009371489 -0.012511158 -0.007501847 -0.019475218 -0.0030468362 0.0058094286
-0.019758226 -0.000974679 -0.02903934 0.010554719 0.0016105351 -0.02643424 -0.020989947 -0.0080543235
-0.006769568 -0.0070409775 0.0015569407 0.012641609 -0.0061227917 0.010008467 0.0076009487 -0.017213846
7.490089e-05 -0.0065844534 0.009137738 -0.00012407124 -0.0016562876 -0.0014748418 0.011828316 0.014547451
0.023836289 -0.017231278 -0.008831715 0.0031200824 0.01275985 -0.008919707 -0.020829953 -0.00074116956
-0.0037514374 -0.008323687 -0.0021552758 -0.014480258 0.0045807315 -0.004122011 -0.008044326 -0.012802806
0.026850974 0.005924218 0.029117638 0.017836876 0.015914764 0.018343251 0.023877213 0.015342501
0.024962328 0.019126784 0.025306134 0.0011324349 0.018473577 0.034344066 0.016272314 0.020385634
00000000: 4a25 213c 89f0 1a3c fb64 d93c f92f 9d3b
00000010: bc5c 31bc 53e1 1c3c 931f 153d 21d4 f73c
00000020: bf73 073b 000d dc39 572e 673c a1fd f63b
00000030: 3874 b33c b3d9 d73c f3d5 043d b6b0 423d
00000040: 3827 a6bc 802d 6dbc ae18 bbbc 8643 123c
00000050: 4d42 923b 3676 e93b ad39 4bbc 29d2 393b
00000060: 5f0c 40bb 4862 00bd 91f2 753c b0dd 1ebd
00000070: 69e1 d6bc 4347 babc 7fc0 2abc 7d89 b0bc
00000080: 773a 8c3a 66f4 94bc 5dbe f0bc 8a85 0dbd
00000090: 8aef 27bd 60f0 3fbd 08ee 04bd 97f8 afbc
000000a0: bd53 04bb a4da fbbc d521 00bd 2634 b3bc
000000b0: 1831 f3bc 6432 e7bc 28d0 32bd 1a37 8d3b
000000c0: 9dfa e6ba 6fc5 15bc 14f4 78bc 8fc2 ab3c
000000d0: 6a72 9f3b a58d 1ebc 2c28 223c d35f abba
000000e0: c3a4 d33b 3c10 ab3c 94de 8b3c 76d1 2f3b
000000f0: 9afd ddbb 6dac 70bc 5c06 71bc 72f3 3fbc
00000100: 4054 48bc 642d aeba e08a 19bc 9afb 4cbc
00000110: 0ed2 f5bb 7e8a 9fbc 6ead 47bb 055d be3b
00000120: 01dc a1bc 9a81 7fba e9e3 edbc b3ed 2c3c
00000130: 9718 d33a 9f8c d8bc 1cf3 abbc 48f6 03bc
00000140: 41d3 ddbb 00b8 e6bb 4312 cc3a c01e 4f3c
00000150: b3a1 c8bb 8efa 233c 6111 f93b 0d04 8dbc
00000160: 1c14 9d38 66c2 d7bb 73b6 153c 1f19 02b9
00000170: ca17 d9ba 7b4f c1ba 8ecb 413c 6f58 6e3c
00000180: 5244 c33c 9c28 8dbc e6b2 10bc 4c7a 4c3b
00000190: b10e 513c f623 12bc 94a3 aabc 0c4b 42ba
000001a0: adda 75bb 1360 08bc 873f 0dbb 9b3e 6dbc
000001b0: f619 963b ef11 87bb 59cc 03bc dcc2 51bc
000001c0: 93f6 db3c f11f c23b 1d88 ee3c a41e 923c
000001d0: ae5f 823c 9644 963c 259a c33c 1d5f 7b3c
000001e0: cc7d cc3c c6af 9c3c cf4e cf3c 366e 943a
000001f0: e655 973c 5dac 0c3d 844d 853c c6ff a63c

3.conv2.lin_l.bias f4 [8]
0.034759797 -0.008284628 -0.033635836 0.01509721 -0.022399576 -0.0042218827 -0.011804845 0.03234233
00000000: 4a60 0e3d 40bc 07bc bbc5 09bd 4a5a 773c
00000010: 517f b7bc b857 8abb 1c69 41bc 6479 043d

3.conv2.lin_r.weight f4 [8, 16]
0.0026979912 0.016343715 0.00071182696 0.0010199327 0.019160574 0.016733907 0.016090838 0.0039278646
0.008828654 0.0065067266 0.0131833 0.0062965946 0.0013956565 0.022832269 0.021945346 0.02263272
-0.021734826 -0.0022937788 -0.0049543963 -0.022757342 -0.0074617644 -0.009866103 -0.011270515 -0.00816436
-0.013728947 -0.0036877668 -0.003926673 -0.00652101 -0.030944167 -0.022276165 -0.0095628025 -0.030313294
-0.038708877 -0.022727733 -0.032424513 -0.0133944675 -0.02180537 -0.037810955 -0.03450152 -0.019757407
-0.018222397 -0.026353931 -0.026317244 -0.0014794797 -0.04241375 -0.035762247 -0.026012352 -0.0035581202
0.007828759 -0.00452719 0.009396599 0.012234591 0.0034322387 -0.006082428 -0.0075166402 -0.0055634063
0.01042387 0.017570294 -0.0052634813 0.004249086 -0.010097448 -0.007522243 -0.006494151 0.012113398
-0.00091796997 -0.008454233 0.003157233 -0.021776807 -0.00876337 -0.0075683123 -0.01994105 -0.0040780753
-0.013259832 -0.0146899 -0.019616526 -0.008156428 -0.0053868424 -0.02593062 -0.029673226 -0.00839642
-0.013893204 0.011977531 -0.015671156 -0.0060545094 -0.0105361985 0.018695101 -0.0140841715 -0.02031391
0.0019409765 -0.016288586 0.014767775 -0.0010138878 -0.012181444 0.018970884 0.01188544 0.0342864
0.020974452 -0.016804703 -0.013136414 0.014591469 0.020122156 -0.0013365297 -0.018969014 -0.004352392
-0.016131787 0.010413378 -0.0017370906 -0.020816676 0.016705895 -0.0069037355 -0.009930261 -0.01701265
0.005040151 0.0065755886 0.023167135 0.025968222 0.031352416 0.023192354 0.017881451 0.0005854776
0.021191807 0.028268294 0.017426576 0.010361059 0.03322803 0.047877487 0.020644672 0.016927073
00000000: c8d0 303b 41e3 853c e699 3a3a 43af 853a
00000010: a3f6 9c3c 8c15 893c efd0 833c 51b5 803b
00000020: 0fa6 103c 6136 d53b c5fe 573c aa53 ce3b
00000030: 76ee b63a bd0a bb3c bac6 b33c 4168 b93c
00000040: 3c0d b2bc 3953 16bb 7d58 a2bb 9b6d babc
00000050: d181 f4bb 6fa5 21bc f7a7 38bc cfc3 05bc
00000060: 61ef 60bc 76ae 71bb 52ab 80bb 32ae d5bb
00000070: 9f7e fdbc 817c b6bc 4dad 1cbc 9653 f8bc
00000080: 338d 1ebd 832f babc 91cf 04bd 7874 5bbc
00000090: 2da1 b2bc a9df 1abd 7751 0dbd 49da a1bc
000000a0: 2347 95bc 33e4 d7bc 4397 d7bc 1aeb c1ba
000000b0: 0aba 2dbd 6f7b 12bd db17 d5bc 5a2f 69bb
000000c0: 3244 003c d258 94bb 31f4 193c 9873 483c
000000d0: 69ef 603b 1b4f c7bb 264e f6bb 3c4d b6bb
000000e0: e1c8 2a3c 94ef 8f3c 4879 acbb eb3b 8b3b
000000f0: c46f 25bc 267d f6bb e3cc d4bb 4677 463c
00000100: eca3 70ba a083 0abc 94e9 4e3b 4665 b2bc
00000110: 3d94 0fbc 9bff f7bb 6a5b a3bc 60a1 85bb
00000120: c43f 59bc e8ad 70bc d6b2 a0bc 8aa2 05bc
00000130: 1c84 b0bb 746c d4bc 4415 f3bc 2391 09bc
00000140: 52a0 63bc 683d 443c cc60 80bc e864 c6bb
00000150: 05a0 2cbc 7826 993c 4cc1 66bc 5b69 a6bc
00000160: 5d68 fe3a a46f 85bc 8af4 713c 6ee4 84ba
00000170: ae94 47bc d468 9b3c 26bb 423c e56f 0c3d
00000180: 9dd2 ab3c 04aa 89bc 1d3a 57bc 0f11 6f3c
00000190: 38d7 a43c 7f2e afba e864 9bbc 839e 8ebb
000001a0: cf26 84bc df9c 2a3c 17af e3ba bc87 aabc
000001b0: cdda 883c bb38 e2bb 89b2 22bc 1d5e 8bbc
000001c0: da27 a53b 0978 d73b 01c9 bd3c 4fbb d43c
000001d0: 646b 003d e4fd bd3c 1f7c 923c bd7a 193a
000001e0: 719a ad3c e992 e73c 2ec2 8e3c 6ec1 293c
000001f0: 1d1a 083d 2f1b 443d 041f a93c a5aa 8a3c

4.conv1.lin_l.weight f4 [16, 4]
0.03986531 0.022021184 0.15060532 0.2579528 0.07333138 0.028607843 0.1164376 0.24213728
0.05283821 0.053548623 0.11556943 0.24512781 0.064106345 0.04912092 0.1573451 0.20098752
0.055859946 0.01750323 0.103248775 0.22384958 0.046202186 0.06125786 0.12313397 0.21864092
0.033560764 0.041748904 0.10000625 0.23853853 0.028034182 0.038122702 0.1057807 0.19828945
0.04283985 0.044369664 0.14140193 0.23120528 0.044856753 0.057440165 0.12876329 0.22810404
0.029519917 0.05914609 0.11271852 0.22772263 0.058075666 0.022632604 0.12247432 0.20791431
0.030949857 0.04516862 0.10486279 0.23272505 0.065731145 0.030242736 0.14723472 0.25538072
0.049685337 0.017202627 0.094889425 0.20886318 0.056185316 0.03891319 0.15581168 0.21291092
00000000: cf49 233d c565 b43c 4838 1a3e 6412 843e
00000010: c32e 963d ff5a ea3c d676 ee3d d6f2 773e
00000020: e16c 583d cd55 5b3d aaaf ec3d c902 7b3e
00000030: 304a 833d 0533 493d 131f 213e accf 4d3e
00000040: 66cd 643d ef62 8f3c 1874 d33d d338 653e
00000050: 813e 3d3d 86e9 7a3d aa2d fc3d 68e3 5f3e
00000060: 0377 093d e600 2b3d 14d0 cc3d 7243 743e
00000070: f1a7 e53c 8d26 1c3d 8da3 d83d 640c 4b3e
00000080: d778 2f3d f7bc 353d abcb 103e 14c1 6c3e
00000090: b7bb 373d 6146 6b3d 86da 033e 1b94 693e
000000a0: c1d3 f13c 2c43 723d f8d8 e63d 1f30 693e
000000b0: c0e0 6d3d 0368 b93c d1d3 fa3d 7de7 543e
000000c0: 8e8a fd3c bb02 393d 4dc2 d63d 7a4f 6e3e
000000d0: 0d9e 863d 9dbf f73c b3c4 163e 43c1 823e
000000e0: da82 4b3d 86ec 8c3c 6355 c23d 3be0 553e
000000f0: 9322 663d 7063 1f3d 198d 1f3e 5205 5a3e

4.conv1.lin_l.bias f4 [16]
0.14475569 0.18146776 0.14852181 0.12483346 0.12897499 0.13606805 0.12894166 0.1319189
0.15381798 0.10802075 0.10070638 0.13580975 0.1442352 0.15742144 0.1352486 0.1705733
00000000: d63a 143e afd2 393e 1a16 183e afa8 ff3d
00000010: 0512 043e 6c55 0b3e 4809 043e c015 073e
00000020: 7682 1d3e fc39 dd3d 263f ce3d b611 0b3e
00000030: 64b2 133e 1633 213e 9c7e 0a3e c4aa 2e3e

4.conv1.lin_r.weight f4 [16, 4]
0.06960553 0.05195665 0.17104843 0.2748443 0.0521742 0.059831444 0.17610988 0.2896198
0.11559204 0.04354243 0.12993634 0.26613832 0.08673577 0.04071133 0.12290784 0.25228938
0.0724195 0.02010823 0.13182187 0.26509124 0.08958124 0.06261936 0.13766834 0.26952592
0.06934187 0.049069505 0.07711966 0.24008678 0.06583588 0.013655796 0.11574734 0.21576713
0.083038636 0.049228515 0.13772157 0.24151888 0.08001822 0.04213371 0.1429576 0.21402155
0.0622649 0.04847413 0.14303213 0.2155357 0.09665629 0.020232797 0.16203132 0.28250504
0.08023876 0.062127363 0.14461198 0.23824202 0.085164934 0.030137556 0.11915892 0.24096012
0.07744984 0.029308865 0.14250833 0.18992552 0.09010317 0.016313773 0.13815886 0.23892906
00000000: 588d 8e3d 7fd0 543d 5227 2f3e 64b8 8c3e
00000010: 9db4 553d d111 753d 2656 343e 0c49 943e
00000020: 85bb ec3d 8c59 323d 080e 053e 4843 883e
00000030: 86a2 b13d ecc0 263d 1bb7 fb3d 132c 813e
00000040: ad50 943d 04ba a43c 50fc 063e 0aba 873e
00000050: 5f76 b73d 943e 803d eef8 0c3e 4dff 893e
00000060: 1c03 8e3d 1bfd 483d eaf0 9d3d 4fd9 753e
00000070: f6d4 863d 8fbc 5f3c f10c ed3d 0ff2 5c3e
00000080: 2910 aa3d d7a3 493d e206 0d3e ba50 773e
00000090: 98e0 a33d 6694 2c3d 7a63 123e 7728 5b3e
000000a0: 7b09 7f3d cf8c 463d 0477 123e 64b5 5c3e
000000b0: bcf3 c53d 40bf a53c 8aeb 253e 80a4 903e
000000c0: 3854 a43d 4379 7e3d 2a15 143e b7f5 733e
000000d0: f46a ae3d 09e3 f63c 9809 f43d 40be 763e
000000e0: 069e 9e3d 2519 f03c b4ed 113e d67b 423e
000000f0: 0388 b83d 76a4 853c 8479 0d3e d2a9 743e

4.conv2.lin_l.weight f4 [8, 16]
0.0047138846 -0.017300483 -0.00018659786 -0.017907318 -0.011221864 -0.028925672 -0.006085943 -0.0023783848
-0.02727167 0.0012956858 -0.0010490087 -0.020390093 0.025622182 -0.027136566 0.014344956 -0.018363537
0.04360418 0.031015428 0.008144642 0.012231654 -0.0022196495 0.02810891 0.009959958 0.028984085
0.0111701535 0.032355085 0.0013832739 0.025684953 0.008494174 0.038807977 -0.00093752873 0.018518947
-0.0040720077 -0.0025573152 0.011292505 -0.0008685842 -0.013209224 0.016980447 0.01364094 0.01563916
0.012948524 0.010586058 0.009004994 -0.015249051 -0.00048665993 0.021783018 -0.0093584135 0.0028472939
0.0073789936 -0.0045909267 0.012373793 -0.015785195 -0.008042626 -0.0009581715 0.0013017687 -0.0084430445
-0.019994786 0.011128733 -0.0022252237 -0.010103835 0.0021624893 -0.0077275024 -0.023318317 -0.0060507567
-0.030945292 -0.0013835017 -0.03058673 0.0027148277 0.0016547203 -0.01240572 0.006476662 -0.0077308416
-0.016553357 0.02789217 -0.0074208067 -0.025449414 -0.00022780329 0.006062795 0.0059730597 -0.0035772668
-0.014221967 -0.013260544 0.0015524342 -0.00011747956 -0.0055892197 0.01453913 -0.016827919 -0.02823025
-0.012689293 -0.007571203 0.006215966 -0.003755211 0.0015716655 0.0051725204 0.027831648 -0.017023433
0.030428149 -0.00030170288 0.007802601 0.014323826 -0.026392663 -0.0027967268 -0.02181537 -0.019376459
-0.0123874005 -0.020712486 0.017387843 0.0062894993 -0.0036197489 -0.0023961905 0.023356665 -0.00554544
0.015788907 -0.0016122311 0.016145557 0.013461033 0.013239342 0.0036951855 0.0029494197 -0.0007330269
0.0015593203 0.012027437 0.011153069 0.015954677 0.0034925148 0.004539764 3.689751e-05 0.023202157
00000000: ee76 9a3b beb9 8dbc 7ba9 43b9 5eb2 92bc
00000010: e9db 37bc 88f5 ecbc 976c c7bb adde 1bbb
00000020: d668 dfbc 00d4 a93a e47e 89ba 2009 a7bc
00000030: 9ce5 d13c 814d debc 1b07 6b3c 216f 96bc
00000040: 4c9a 323d 1114 fe3c 1b71 053c 4667 483c
00000050: 8a77 11bb a844 e63c 172f 233c 0870 ed3c
00000060: 0503 373c c486 043d f84e b53a 4069 d23c
00000070: 262b 0b3c 1df5 1e3d 7dc4 75ba 0cb5 973c
00000080: 7a6e 85bb a198 27bb 3304 393c b3b1 63ba
00000090: 806b 58bc 941a 8b3c 407e 5f3c b21d 803c
000000a0: 0c26 543c 2571 2d3c af89 133c 28d7 79bc
000000b0: 6426 ffb9 4d72 b23c 0854 19bc aa99 3a3b
000000c0: 7ccb f13b 7c6f 96bb 73bb 4a3c f44f 81bc
000000d0: 38c5 03bc cd2d 7bba 1ca0 aa3a b254 0abc
000000e0: 1bcc a3bc 4a55 363c 0fd5 11bb 8e8a 25bc
000000f0: 8db8 0d3b fd36 fdbb 0e06 bfbc 6d45 c6bb
00000100: fb80 fdbc 9d56 b5ba 0691 fabc 40eb 313b
00000110: 33e3 d83a 5c41 4bbc 2e3a d43b 0053 fdbb
00000120: e89a 87bc 1f7e e43c 3d2a f3bb 4a7b d0bc
00000130: 7bde 6eb9 69aa c63b a8b9 c33b 9470 6abb
00000140: 4103 69bc c142 59bc 0c7b cb3a 5c5f f6b8
00000150: c625 b7bb 8835 6e3c b4da 89bc 2043 e7bc
00000160: c1e6 4fbc db17 f8bb 4daf cb3b fc19 76bb
00000170: 5800 ce3a 3f7e a93b 32ff e33c ba74 8bbc
00000180: 7444 f93c e02d 9eb9 f6ac ff3b 7bae 6a3c
00000190: 6d35 d8bc 4a49 37bb 26b6 b2bc 61bb 9ebc
000001a0: 86f4 4abc 3bad a9bc f370 8e3c 2518 ce3b
000001b0: 4f39 6dbb 6809 1dbb 7a56 bf3c 86b6 b5bb
000001c0: bd57 813c 8051 d3ba b043 843c aa8b 5c3c
000001d0: d3e9 583c ed2a 723b 0d4b 413b 9a28 40ba
000001e0: 1b62 cc3a ba0e 453c 5dbb 363c 62b3 823c
000001f0: ade2 643b 4dc2 943b 66c2 1a38 7312 be3c

4.conv2.lin_l.bias f4 [8]
-0.0022917127 0.004521965 -0.007217412 -0.0031518512 -0.005295894 -0.006811086 0.0028555507 0.00024885059
00000000: 8f30 16bb fe2c 943b 0a80 ecbb 4a8f 4ebb
00000010: 2e89 adbb 882f dfbb 3124 3b3b 2978 8239
