results/agent_SBM_5k_High_Modularity.pth (torch, 30437 bytes, 50 tensors)

0.conv1.lin_l.weight f4 [16, 4]
0.09922206 0.026592866 0.038691662 0.16095531 0.08992887 0.0008751345 0.078530654 0.13625431
0.094971225 0.03854369 0.038337126 0.1946264 0.07733942 0.022856217 0.009137206 0.16512702
0.048762284 0.057812143 0.052274026 0.196992 0.09644481 0.014662829 0.102664776 0.13251925
0.0874823 0.04658453 0.059321795 0.14669155 0.10202343 0.029773243 0.0520563 0.18591246
0.05228003 0.04238741 0.05216234 0.18977779 0.09676653 0.035995964 0.04593884 0.16505969
0.09356024 0.019354722 0.031855226 0.14337792 0.07729601 0.03147273 0.049316697 0.17110103
0.10303654 0.01932198 0.052734155 0.17118058 0.10880123 0.022861777 0.042722616 0.15954928
0.083695546 0.039272882 0.058702663 0.14801668 0.084150925 0.01604794 0.03916464 0.1837144
00000000: ef34 cb3d 48d9 d93c 267b 1e3d 78d1 243e
00000010: a12c b83d 4869 653a aed4 a03d 4086 0b3e
00000020: 4680 c23d fddf 1d3d 6407 1d3d 254c 473e
00000030: 2164 9e3d f63c bb3c 38b4 153c 0f17 293e
00000040: f6ba 473d 6dcc 6c3d 4a1d 563d 45b8 493e
00000050: db84 c53d 5d3c 703c e941 d23d 20b3 073e
00000060: ec29 b33d 6ccf 3e3d 69fb 723d 4f36 163e
00000070: a9f1 d03d 04e7 f33c fd38 553d d65f 3e3e
00000080: 9623 563d 6c9e 2d3d 2ea8 553d 1c55 423e
00000090: 882d c63d 8170 133d 5d2a 3c3d 6805 293e
000000a0: 839c bf3d cb8d 9e3c a07a 023d a9d1 123e
000000b0: 5f4d 9e3d 8de9 003d 4e00 4a3d 1c35 2f3e
000000c0: d204 d33d 2149 9e3c c5ff 573d f649 2f3e
000000d0: 2ed3 de3d 9f48 bb3c e9fd 2e3d e360 233e
000000e0: 9268 ab3d 9adc 203d 3472 703d af91 173e
000000f0: 5257 ac3d f876 833c 1a6b 203d a11f 3c3e

0.conv1.lin_l.bias f4 [16]
0.045561418 0.036948673 0.07643716 0.061058417 0.056410972 0.07202244 0.07311782 0.096833155
0.053929187 0.06557887 0.076028146 0.056425918 0.076751225 0.061021145 0.08151837 0.04962585
00000000: 9c9e 3a3d 7e57 173d 168b 9c3d 6418 7a3d
00000010: 310f 673d 8080 933d ccbe 953d 7650 c63d
00000020: dae4 5c3d 374e 863d a5b4 9b3d dd1e 673d
00000030: bf2f 9d3d 4ff1 793d 1af3 a63d 7a44 4b3d

0.conv1.lin_r.weight f4 [16, 4]
0.07325283 0.04090773 0.060379248 0.15592673 0.15964226 0.034415293 0.080681354 0.15876095
0.100555584 0.024780314 0.075119615 0.19011906 0.114503205 0.032823868 0.079142734 0.17121637
0.103258945 0.06740302 0.089366876 0.18926305 0.115964234 0.06317039 0.040798683 0.17942116
0.12129788 0.059272733 0.09357568 0.17159796 0.11729791 0.049497843 0.072747484 0.19429924
0.11885262 0.016024763 0.08365729 0.18867584 0.11201177 0.017835233 0.07918499 0.15153736
0.14467466 0.032059997 0.06083562 0.22059119 0.1258483 0.051633578 0.02706357 0.18463582
0.10781387 0.04021536 0.096740216 0.20528996 0.14248131 0.06053351 0.09247946 0.18591978
0.14061436 0.030533835 0.05008862 0.16209379 0.10790382 0.07204913 0.036482587 0.2078606
00000000: 9405 963d dd8e 273d 3b50 773d 42ab 1f3e
00000010: 4379 233e 0df7 0c3d 443c a53d 3b92 223e
00000020: 16f0 cd3d 1600 cb3c 50d8 993d 92ae 423e
00000030: a880 ea3d 5272 063d 9615 a23d 5853 2f3e
00000040: 6d79 d33d 980a 8a3d fb05 b73d 2cce 413e
00000050: a87e ed3d 7a5f 813d 851c 273d 2eba 373e
00000060: 066b f83d f7c7 723d 9ba4 bf3d 60b7 2f3e
00000070: e339 f03d 40be 4a3d a2fc 943d 61f6 463e
00000080: 0169 f33d 5d46 833c 8354 ab3d 3d34 413e
00000090: 6d66 e53d 321b 923c bd2b a23d 9c2c 1b3e
000000a0: 9825 143e 5851 033d c52e 793d a8e2 613e
000000b0: 60de 003e bb7d 533d 6cb4 dd3c 2c11 3d3e
000000c0: 85cd dc3d dcb8 243d bc1f c63d 8837 523e
000000d0: 9fe6 113e fcf1 773d df65 bd3d c161 3e3e
000000e0: 36fd 0f3e 1822 fa3c ba29 4d3d eafb 253e
000000f0: aefc dc3d 7f8e 933d c46e 153d 69d9 543e

0.conv2.lin_l.weight f4 [8, 16]
-0.018735254 -0.028961044 -0.010666224 -0.01803394 -0.0062524616 -0.0026755007 -0.008904896 0.0032163851
-0.010308366 -0.018800128 -0.024903176 0.0026326906 -0.02132639 -0.014933331 -0.031125344 -0.0131753385
-0.0046246895 -0.013344711 -0.006092289 0.0009958309 -0.008403901 0.0023291975 -0.004998107 0.021763004
0.0062786653 0.010651225 0.015510128 -0.010551571 -0.016119637 -0.006109121 -0.0016900285 -0.0052863336
0.006835859 0.012201529 -0.0065466734 0.012959155 0.0054226266 0.003755681 0.012797832 -0.00427166
0.023577852 0.017027196 -0.009035695 -0.0071645854 0.009956435 0.018301878 0.0035546909 0.015045444
0.0053779846 -0.009212334 -0.009833226 0.0032608656 0.004973335 0.020043345 -0.0049733995 0.006284114
-0.0058369567 0.00901231 0.006753394 0.016273284 0.008902549 0.02291819 -0.00926943 -0.0056705894
-0.0032950675 0.0041096876 -2.5307685e-05 -0.020449925 -0.01747271 -0.0009285751 -0.020125108 -0.0021069644
-0.018067826 0.0071264505 -0.006105885 -0.007251302 -0.014880309 -0.014518347 -0.009473142 -0.023409057
0.00037990243 -0.012223875 0.0040150513 0.00040975973 -0.009043966 -0.009341527 0.0137527 0.0007621154
0.009129119 0.006504791 -0.021567794 0.011058075 -0.018533729 0.008198061 -0.0076429145 0.0011537191
0.0048801284 0.018642135 -0.008858534 0.0103889415 -0.006930766 0.014821307 -0.017328648 -0.02601455
0.0034036287 -0.010415315 -0.016336855 -0.006189911 0.013925922 -0.008529786 0.0054019857 0.0002176864
-0.033846606 -0.01901197 -0.041622754 -0.021989688 -0.03164275 -0.03256167 -0.021422265 0.0076119574
-0.049825177 -0.024439905 -0.039617628 -0.027697155 -0.016377186 -0.022619845 -0.025111036 -0.018202508
00000000: ad7a 99bc b63f edbc 63c1 2ebc eabb 93bc
00000010: 73e1 ccbb 7457 2fbb d7e5 11bc fdc9 523b
00000020: 6ce4 28bc ba02 9abc bf01 ccbc 3889 2c3b
00000030: aeb4 aebc eeaa 74bc 94fa febc 60dd 57bc
00000040: b58a 97bb c6a3 5abc d3a1 c7bb 8a86 823a
00000050: 84b0 09bc 73a5 183b 29c7 a3bb 5448 b23c
00000060: 43bd cd3b 7a82 2e3c 311e 7e3c 7fe0 2cbc
00000070: 540d 84bc 052f c8bb f283 ddba fb38 adbb
00000080: 57ff df3b ece8 473c 7a85 d6bb a352 543c
00000090: 4ab0 b13b df21 763b ffad 513c 48f9 8bbb
000000a0: 5726 c13c 9e7c 8b3c 740a 14bc e6c4 eabb
000000b0: 5120 233c d2ed 953c d1f5 683b 2a81 763c
000000c0: ce39 b03b 54ef 16bc 8a1b 21bc 3fb4 553b
000000d0: 5cf7 a23b f131 a43c e6f7 a2bb f8ea cd3b
000000e0: f143 bfbb 5ea8 133c 934b dd3b 8d4f 853c
000000f0: ffdb 113c eebe bb3c cfde 17bc 5ad0 b9bb
00000100: 0ff2 57bb 8faa 863b d74b d4b7 9a86 a7bc
00000110: ee22 8fbc 9f6b 73ba 69dd a4bc ff14 0abb
00000120: fa02 94bc 0085 e93b e013 c8bb 549c edbb
00000130: 8acc 73bc 5cde 6dbc 3d35 1bbc 5ac4 bfbc
00000140: a42d c739 a646 48bc b190 833b 05d5 d639
00000150: 252d 14bc 340d 19bc 0153 613c b3c8 473a
00000160: 4d92 153c 2426 d53b f1ae b0bc ee2c 353c
00000170: 0cd4 97bc 2951 063c 6a71 fabb 6438 973a
00000180: 7ce9 9f3b 64b7 983c 6223 11bc 6136 2a3c
00000190: 7b1b e3bb 11d5 723c cff4 8dbc 771c d5bc
000001a0: 6a0f 5f3b ffa4 2abc ded4 85bc bdd4 cabb
000001b0: 8d29 643c 84c0 0bbc 2403 b13b c042 6439
000001c0: bda2 0abd febe 9bbc 9f7c 2abd b823 b4bc
000001d0: d49b 01bd 635f 05bd bf7d afbc ba6d f93b
000001e0: 7c15 4cbd 3236 c8bc 1846 22bd 25e5 e2bc
000001f0: 7329 86bc 414d b9bc a9b5 cdbc 6d1d 95bc

0.conv2.lin_l.bias f4 [8]
-0.0130109545 -0.023793854 0.017751787 0.0024552224 -0.014834055 0.0002641666 -0.010121506 -0.003370199
00000000: e62b 55bc 54eb c2bc 326c 913c cce7 203b
00000010: 890a 73bc d77f 8a39 acd4 25bc 8ede 5cbb

0.conv2.lin_r.weight f4 [8, 16]
-0.022220567 -0.025759092 -4.3842197e-06 -0.016716877 -0.019837178 -0.000588498 -0.002403704 -0.015493352
0.0017535536 -0.009066651 -0.0041273497 0.0036758857 -0.004645774 -0.024584174 -0.036975764 -0.0033343893
0.011879466 -0.0134121515 -0.02676979 0.0006624211 0.007988757 -0.013613283 0.003803024 -0.009125886
0.0024549055 -0.012076952 -0.003840322 -0.0034504493 0.0041531725 0.0090179965 -0.01129704 0.01159001
0.0065397755 0.0011476177 0.009743519 0.004579404 0.015705714 0.0038293535 0.003922543 0.0049773916
0.011392215 0.005170001 0.04353354 0.01067719 0.016044227 -0.011577039 -0.005663407 0.007727352
-0.005830901 -0.014041266 -0.022701912 -0.0056878845 0.02479325 -0.0028913403 -0.0019295478 0.012728457
0.0029643858 -0.0068044327 4.6450496e-05 0.0007021946 0.010288878 -0.012468948 0.016677938 -0.0032079401
-0.015458698 0.013882691 -0.001338259 0.015101347 0.009413123 -0.011694422 -0.023434184 -0.0022068485
-0.011958411 0.011314448 -0.017022328 0.008214922 -0.0040165666 -0.0072055976 -0.01844758 -0.020099089
0.025601175 -0.0073181055 -0.014113549 0.028901331 -0.011986248 -0.02259745 0.007079504 -0.004748904
0.0019397058 -0.016410127 -0.014413036 -0.01517515 0.008510228 0.0093321875 0.0046539693 -0.003349999
-0.011351573 0.016732803 -0.010107734 -0.008532576 -0.009561193 0.003030333 -0.0046424507 0.0011581985
0.010344324 -0.020588653 0.0020894336 -0.004295543 0.005256416 0.0105211325 0.014703732 -0.006210438
-0.029201115 -0.022150977 -0.030840088 -0.0045838025 -0.0065965964 -0.005712041 -0.016938727 -0.014391262
-0.02701423 -0.012273877 -0.021274144 -0.00531094 -0.035112023 -0.020494178 -0.0076288 -0.0033658526
00000000: e807 b6bc bb04 d3bc 291c 93b6 d5f1 88bc
00000010: 9481 a2bc 6f45 1aba 7687 1dbb d4d7 7dbc
00000020: 7fd7 e53a 4a8c 14bc b83e 87bb 21e7 703b
00000030: 943b 98bb c064 c9bc e673 17bd c585 5abb
00000040: 17a2 423c a4be 5bbc 524c dbbc 54a6 2d3a
00000050: 47e3 023c 3f0a 5fbc 283c 793b bd84 15bc
00000060: 7be2 203b 68de 45bc e9ad 7bbb ef20 62bb
00000070: 5617 883b 38c0 133c 3817 39bc 06e4 3d3c
00000080: 9d4b d63b a96b 963a 48a3 1f3c d30e 963b
00000090: 45a9 803c e4f5 7a3b ad88 803b 6319 a33b
000000a0: 6aa6 3a3c 1d69 a93b 3a50 323d 61ef 2e3c
000000b0: 2f6f 833c 9fad 3dbc 1a94 b9bb ba35 fd3b
000000c0: 2511 bfbb 570d 66bc 5cf9 b9bc 6f61 babb
000000d0: 371b cb3c a47c 3dbb e1e8 fcba 058b 503c
000000e0: 2446 423b b8f7 debb d7d3 4238 7b13 383a
000000f0: af92 283c 8f4a 4cbc 2ca0 883c 4e3c 52bb
00000100: 7b46 7dbc 3a74 633c 8568 afba a46b 773c
00000110: 8039 1a3c f699 3fbc 0cf9 bfbc c6a0 10bb
00000120: 36ed 43bc 3c60 393c 6972 8bbc e197 063c
00000130: 679d 83bb ef1c ecbb 611f 97bc d8a6 a4bc
00000140: 8eb9 d13c b8cc efbb 843c 67bc 7cc2 ec3c
00000150: f861 44bc 4a1e b9bc 2ffb e73b b29c 9bbb
00000160: ba3d fe3a 886e 86bc a824 6cbc 31a1 78bc
00000170: 7c6e 0b3c 08e6 183c 5380 983b a88b 5bbb
00000180: f3fb 39bc 3b13 893c e99a 25bc 38cc 0bbc
00000190: 8da6 1cbc 8d98 463b b31f 98bb b1ce 973a
000001a0: 3d7b 293c 89a9 a8bc e1ee 083b a0c1 8cbb
000001b0: 033e ac3b d460 2c3c ece7 703c ee80 cbbb
000001c0: 2d37 efbc f775 b5bc 5aa4 fcbc b933 96bb
000001d0: 4328 d8bb 132c bbbb 16c3 8abc 54c9 6bbc
000001e0: f24c ddbc 5f18 49bc 1d47 aebc 6507 aebb
000001f0: a0d1 0fbd 68e3 a7bc 03fb f9bb a395 5cbb

1.conv1.lin_l.weight f4 [16, 4]
0.09480549 -0.009323839 0.03882144 0.107239425 0.11218579 0.048777796 0.06886017 0.07284562
0.08311935 0.03934995 0.023799878 0.068982586 0.11871459 0.049076747 0.04734525 0.12605473
0.12187569 0.023618953 0.0320284 0.13808483 0.13021132 0.031638738 0.04541203 0.12574936
0.09467724 0.031444687 0.04346939 0.10097063 0.09353801 0.037868716 0.0590798 0.075083435
0.087264776 0.03968463 0.011547051 0.087472476 0.10215316 0.012114575 0.024402559 0.10897842
0.11364996 0.051698703 0.050772034 0.10947856 0.10112534 0.040324345 0.07901061 0.058889475
0.055853464 0.04769409 0.04703133 0.10442981 0.11258538 0.026500005 0.05227884 0.05262795
0.11133314 -0.003801153 0.05277785 0.0660285 0.085451335 0.055614017 0.035321858 0.106909715
00000000: 6129 c23d 04c3 18bc 3b03 1f3d 58a0 db3d
00000010: aac1 e53d 3acb 473d 9006 8d3d 1630 953d
00000020: 7a3a aa3d 6a2d 213d f6f7 c23c be46 8d3d
00000030: a320 f33d b304 493d 18ed 413d 7e14 013e
00000040: f699 f93d 897c c13c 3630 033d 1c66 0d3e
00000050: 1e56 053e 9f97 013d f701 3a3d 71c4 003e
00000060: 24e6 c13d 25cc 003d f60c 323d b1c9 ce3d
00000070: db90 bf3d 3a1c 1b3d a9fd 713d 58c5 993d
00000080: e0b7 b23d 5a8c 223d d82f 3d3c c524 b33d
00000090: ad35 d13d 367c 463c e0e7 c73c 1430 df3d
000000a0: 4fc1 e83d 05c2 533d 56f6 4f3d 4c36 e03d
000000b0: cd1a cf3d 242b 253d 51d0 a13d 1736 713d
000000c0: 9ac6 643d e15a 433d eda3 403d 4cdf d53d
000000d0: 2a93 e63d 8a16 d93c 5622 563d 6890 573d
000000e0: a102 e43d c41c 79bb 962d 583d f339 873d
000000f0: 1c01 af3d 86cb 633d a7ad 103d 7bf3 da3d

1.conv1.lin_l.bias f4 [16]
0.029805182 -0.0020779425 0.03908075 0.02415444 0.050538875 0.069453955 0.010366268 0.031207962
0.068680994 0.008436084 0.04674156 0.0691466 0.054193255 0.052120328 -0.0039459686 0.051006727
00000000: ff29 f43c 172e 08bb 2313 203d 88df c53c
00000010: da01 4f3d e03d 8e3d 48d7 293c d7a7 ff3c
00000020: 9fa8 8c3d 8037 0a3c 1474 3f3d bc9c 8d3d
00000030: bff9 5d3d 207c 553d 2f4d 81bb 6eec 503d

1.conv1.lin_r.weight f4 [16, 4]
0.11073634 0.040541258 0.06850792 0.09137759 0.16309956 0.034502093 0.04252 0.096820794
0.13705285 0.046116743 0.030043488 0.13787436 0.14509308 0.036772396 0.028331496 0.14291558
0.1076671 0.062243566 0.06272685 0.115674555 0.15520482 0.042081494 0.015530443 0.12518121
0.11912011 0.01914141 0.050646327 0.12274466 0.12858693 0.042646833 0.03417273 0.08437493
0.12649618 0.050748173 0.037679482 0.0954082 0.116065405 0.036148835 0.054920416 0.13756853
0.15936843 0.013990458 0.034967996 0.08337092 0.12663995 0.04903862 0.05028799 0.07712396
0.10877786 0.058425695 0.044047456 0.097679146 0.12853512 0.033111565 0.046894655 0.0967083
0.13549499 0.036086462 0.11757698 0.110055536 0.16417712 0.043664765 0.04745654 0.10144388
00000000: bcc9 e23d 970e 263d e14d 8c3d 2d24 bb3d
00000010: 9203 273e 1152 0d3d 7429 2e3d fb49 c63d
00000020: 9557 0c3e e9e4 3c3d c31d f63c f02e 0d3e
00000030: 4893 143e a79e 163d 7417 e83c 7658 123e
00000040: 9280 dc3d 1cf3 7e3d ef76 803d c8e6 ec3d
00000050: 03ee 1e3e a55d 2c3d 6673 7e3c 812f 003e
00000060: 3ff5 f33d 72ce 9c3c 8672 4f3d 8d61 fb3d
00000070: 4bac 033e 72ae 2e3d b4f8 0b3d c3cc ac3d
00000080: 3788 013e 51dd 4f3d cd55 1a3d 6065 c33d
00000090: b3b3 ed3d cd10 143d 3bf4 603d c4de 0c3e
000000a0: 7a31 233e 3c38 653c 9a3a 0f3d 5fbe aa3d
000000b0: e7ad 013e b8dc 483d c8fa 4d3d 2bf3 9d3d
000000c0: edc6 de3d c84f 6f3d 1b6b 343d 010c c83d
000000d0: b69e 033e fe9f 073d 9c14 403d 000f c63d
000000e0: 33bf 0a3e 66cf 133d 33cc f03d cc64 e13d
000000f0: 0c1e 283e d3d9 323d ca61 423d cfc1 cf3d

1.conv2.lin_l.weight f4 [8, 16]
0.009853614 0.0010287223 0.023288377 0.0026957258 0.0048337653 0.011249975 -0.005125152 0.010893388
0.00026153086 0.006203239 0.009660843 0.019554306 0.0029293515 0.01058089 0.04501012 0.002732977
-0.015058789 -0.022929424 -0.009253273 -0.019187056 -0.02976774 -0.025356209 0.0054686256 -0.016110284
-0.006994147 -0.012219145 -0.021999404 -0.020406213 -0.0018556995 -0.00997414 -0.014827413 -0.024991475
0.0057111913 0.01603502 0.0025548434 0.003345214 -0.0040841126 0.007791095 0.006299427 -0.011506208
0.022109447 -0.0076223947 0.003281061 0.0027811902 0.011413876 -0.009743082 -0.009300388 -0.003848427
-0.017809164 -0.008088845 0.008387059 -0.025140058 -0.0021880784 -0.011450265 -0.0015643203 -0.012367993
-0.004038207 -0.021039903 -0.0029806641 -0.016176831 -0.0038014436 0.003634154 -0.013489336 -0.015153523
0.022873187 0.013424976 0.0013682256 -0.010826994 0.016235406 0.020773076 0.001911073 0.015506561
0.0016499603 -0.0062472858 0.00458079 0.010150798 0.01271305 0.018605107 0.0032738477 -0.013799961
-0.010919172 0.001487015 -0.007884332 0.01452527 0.009434822 -0.0039232587 0.0025020817 -0.002534479
0.018813957 0.0053897975 0.010417436 -0.0064998567 -0.0071655377 -0.003699976 -0.015178526 -0.007814047
0.00606688 0.028234411 0.028035836 0.011249504 0.030504057 0.021333123 0.034826666 0.018753879
0.016542995 0.02276259 0.019390024 0.03462758 0.026441505 0.032796126 0.039314646 0.021299172
0.006738908 0.014860316 -0.005382155 0.008561169 0.019607209 -0.011482379 -0.009194861 0.005394936
0.020843945 0.018864345 0.007536233 -0.0003651166 -0.006459422 -0.019105637 0.01412121 0.005599259
00000000: 0d71 213c 31d6 863a 44c7 be3c c6aa 303b
00000010: 9064 9e3b d151 383c e4f0 a7bb 2e7a 323c
00000020: 141e 8939 8a44 cb3b 8348 1e3c 5a30 a03c
00000030: 5dfa 3f3b 785b 2d3c 885c 383d bf1b 333b
00000040: 24b9 76bc 7dd6 bbbc 0a9b 17bc 2c2e 9dbc
00000050: 7adb f3bc d3b7 cfbc 2832 b33b b7f9 83bc
00000060: 282f e5bb cf32 48bc 1838 b4bc ee2a a7bc
00000070: f13a f3ba 936a 23bc adee 72bc ecba ccbc
00000080: f224 bb3b e05b 833c 296f 273b 613b 5b3b
00000090: 05d4 85bb 714c ff3b 6c6b ce3b 8984 3cbc
000000a0: df1e b53c 48c5 f9bb 1207 573b a144 363b
000000b0: 4401 3b3c 73a1 1fbc a860 18bc e435 7cbb
000000c0: 86e4 91bc 1387 04bc e069 093c 86f2 cdbc
000000d0: dd65 0fbb e499 3bbc e109 cdba 1fa3 4abc
000000e0: ef52 84bb e05b acbc 3f57 43bb 4685 84bc
000000f0: a421 79bb fd2a 6e3b 6002 5dbc 7b46 78bc
00000100: 8d60 bb3c 6ef4 5b3c 0856 b33a b463 31bc
00000110: 1d00 853c 4c2c aa3c f87c fa3a 3b0f 7e3c
00000120: 7b43 d83a 08b6 ccbb 741a 963b 884f 263c
00000130: 654a 503c bd69 983c 0d8e 563b 3b19 62bc
00000140: 54e6 32bc f2e7 c23a 492d 01bc 66fb 6d3c
00000150: 8394 1a3c ae8e 80bb f7f9 233b 8019 26bb
00000160: ba1f 9a3c e69c b03b e5ad 2a3c c0fc d4bb
00000170: e3cc eabb 4c7b 72bb 5aaf 78bc 7d06 00bc
00000180: aecc c63b da4b e73c 69ab e53c d74f 383c
00000190: a5e3 f93c cdc2 ae3c 68a6 0e3d bca1 993c
000001a0: 2d85 873c 9c78 ba3c d4d7 9e3c a6d5 0d3d
000001b0: db9b d83c 3b55 063d 6508 213d 9a7b ae3c
000001c0: 0fd2 dc3b af78 733c ca5c b0bb 2544 0c3c
000001d0: 4c9f a03c 9720 3cbc 0ba6 16bc 01c8 b03b
000001e0: ecc0 aa3c 6689 9a3c 81f2 f63b 1f6d bfb9
000001f0: 8fa9 d3bb 6d83 9cbc a65c 673c fd79 b73b

1.conv2.lin_l.bias f4 [8]
0.023114622 -0.010032075 0.005614238 -0.02259905 0.023334412 -0.010819674 0.032605868 0.005155608
00000000: e05a bd3c 935d 24bc a4f7 b73b a521 b9bc
00000010: cf27 bf3c 0045 31bc bb8d 053d 60f0 a83b

1.conv2.lin_r.weight f4 [8, 16]
0.023106776 0.006900017 0.027838614 0.008910763 0.006545618 0.0029190842 -0.0011521555 0.0039736545
0.020025844 0.0049371165 0.0047715395 -0.0027696074 0.009972773 0.015580581 0.0233969 -0.007886811
0.0057544066 0.0024628774 -0.0019344538 -0.004052051 -0.030250246 -0.026784686 0.008012164 -0.011395042
-0.007990593 -0.032895073 0.005213969 -0.01104379 -0.0061037503 -0.016261643 -0.009473574 -0.026701653
0.00760002 -0.008107927 -0.005473184 -0.0033932573 -0.009006791 0.0130332755 0.0072393073 0.0009643471
0.012825299 -0.008969172 -0.0042297933 0.01186237 -0.015005785 0.00031448706 -0.0019615137 0.0065307687
0.0008024816 -0.005793326 -0.01570853 -0.007353268 -0.0048329365 -0.023333201 -0.0031972819 0.0052010333
0.0053843786 -0.0083105145 -0.006833772 -0.0068316627 -0.00053629576 -0.0047567887 -0.027395144 -0.0037283
0.010534704 0.011437323 -0.006174635 -0.004777985 0.009782428 -0.0099612335 0.0061493944 0.024788706
-0.0061075576 -0.0051515736 -0.011262267 -0.00053034874 0.0025562667 0.0074850726 0.011741544 -0.008069429
0.007362968 -0.0055226507 -0.01136383 0.015962087 -0.004963767 -0.017127834 0.0075567286 -0.015420047
0.0057406984 0.002008576 -0.01482554 0.0126794055 -0.006212317 -0.00953842 0.0033401113 -0.014001072
0.0157484 0.023315286 0.024427533 0.013275474 0.01431547 0.018121779 0.034853578 0.015736423
0.018797714 0.028691797 0.025218468 0.031069791 0.02419183 0.017597161 0.015037555 0.02614561
-0.0126580335 0.016988363 0.005601609 0.030419383 0.022359107 0.013805189 0.011488735 0.0033314864
0.01338898 0.015231104 0.015526011 0.0049261437 -0.0028151989 0.020877214 0.007273325 0.020786986
00000000: 6c4a bd3c 8a19 e23b ce0d e43c 73fe 113c
00000010: a07c d63b 1b4e 3f3b ec03 97ba 6e35 823b
00000020: 3d0d a43c 89c7 a13b 935a 9c3b 4d82 35bb
00000030: d764 233c b145 7f3c dbaa bf3c af37 01bc
00000040: 768f bc3b 3a68 213b 808d fdba 11c7 84bb
00000050: 5dcf f7bc 8f6b dbbc 7445 033c 45b2 3abc
00000060: faea 02bc fcbc 06bd f1d9 aa3b 03f1 34bc
00000070: f801 c8bb 2337 85bc 0d37 1bbc 6dbd dabc
00000080: 9709 f93b 1cd7 04bc 6558 b3bb 6961 5ebb
00000090: 3891 13bc 8589 553c b637 ed3b 3dcc 7c3a
000000a0: 3421 523c 6ff3 12bc 149a 8abb 635a 423c
000000b0: d3da 75bc bde1 a439 bd8c 00bb 0f00 d63b
000000c0: a15d 523a f1d5 bdbb 2daf 80bc aff3 f0bb
000000d0: 9c5d 9ebb 4525 bfbc 7d89 51bb 6e6d aa3b
000000e0: 716f b03b d328 08bc d6ed dfbb 24dc dfbb
000000f0: 3396 0cba d6de 9bbb c86b e0bc 7f56 74bb
00000100: c099 2c3c 9c63 3b3c 9854 cabb a590 9cbb
00000110: 7a46 203c 7134 23bc dc80 c93b af11 cb3c
00000120: e821 c8bb 88ce a8bb 5f85 38bc 1a07 0bba
00000130: 0a87 273b 5745 f53b 9b5f 403c a335 04bc
00000140: 0d45 f13b 5af7 b4bb 5c2f 3abc ecc2 823c
00000150: 18a7 a2bb ac4f 8cbc 6f9e f73b 5da4 7cbc
00000160: 781c bc3b 50a2 033b d2e6 72bc 48bd 4f3c
00000170: b190 cbbb 0847 1cbc c5e5 5a3b c164 65bc
00000180: ca02 813c b3ff be3c 401c c83c 6081 593c
00000190: 6f8b 6a3c 2074 943c a0c2 0e3d ace9 803c
000001a0: aafd 993c 0f0b eb3c f696 ce3c 1386 fe3c
000001b0: f22d c63c ec27 903c 1460 763c 512f d63c
000001c0: a463 4fbc 2e2b 8b3c b48d b73b 1232 f93c
000001d0: 722a b73c 292f 623c 3f3b 3c3c 1155 5a3b
000001e0: 745d 5b3c e18b 793c cf60 7e3c 7d6b a13b
000001f0: 337f 38bb b106 ab3c 1355 ee3b 7849 aa3c

2.conv1.lin_l.weight f4 [16, 4]
0.13671452 0.03470845 0.007246537 0.139824 0.12541085 0.02926039 0.039619595 0.13288137
0.11637382 0.0232759 0.085381776 0.14404362 0.11218398 0.010717734 0.04639472 0.11662592
0.100164376 0.032122314 0.07289215 0.12003396 0.123590544 0.021323776 0.049090654 0.08588641
0.12074218 0.00072875456 0.04663306 0.112863496 0.1092046 0.0142456535 0.05342244 0.13279463
0.07650676 0.022956334 0.02434803 0.08037619 0.110766105 0.036235508 0.051707093 0.108362526
0.08549223 0.036397554 0.044323176 0.1031538 0.10698751 0.024483921 0.02728717 0.09677423
0.1020162 -0.021654854 0.060885478 0.121574074 0.118092865 0.033038996 -0.002168293 0.08251122
0.109165125 0.034804728 0.02584224 0.13729799 0.1020279 0.06775851 0.060917888 0.09436072
00000000: e4fe 0b3e 732a 0e3d 5c74 ed3b 062e 0f3e
00000010: b46b 003e 7cb3 ef3c 2848 223d 0e12 083e
00000020: 6655 ee3d 1aad be3c a4dc ae3d 2c80 133e
00000030: b7c0 e53d 6f99 2f3c 6408 3e3d 92d9 ee3d
00000040: fb22 cd3d b092 033d 7b48 953d 5dd4 f53d
00000050: 0a1d fd3d 33af ae3c 4813 493d 37e5 af3d
00000060: ad47 f73d e409 3f3a 4f02 3f3d fa24 e73d
00000070: a9a6 df3d 9a66 693c 7dd1 5a3d 51fb 073e
00000080: 94af 9c3d ec0e bc3c 8575 c73c 469c a43d
00000090: 57d9 e23d af6b 143d d1ca 533d 2ced dd3d
000000a0: 8d16 af3d 9a15 153d 388c 353d 4d42 d33d
000000b0: 451c db3d 8192 c83c 5889 df3c 9131 c63d
000000c0: dfed d03d 8565 b1bc 0d63 793d d4fb f83d
000000d0: acda f13d e653 073d ec19 0ebb a4fb a83d
000000e0: f791 df3d 678f 0e3d 1bb3 d33c d897 0c3e
000000f0: 01f4 d03d f9c4 8a3d 0985 793d 3140 c13d

2.conv1.lin_l.bias f4 [16]
0.060091898 0.079167634 0.061193857 0.028892366 0.063161984 0.07232315 0.049625855 0.04177247
0.050801106 0.040613793 0.05242527 0.06060299 0.028258996 0.0424649 0.061842307 0.031517833
00000000: ec22 763d a422 a23d 69a6 7a3d afaf ec3c
00000010: 125b 813d 291e 943d 7b44 4b3d 9c19 2b3d
00000020: d214 503d a65a 263d e1bb 563d d73a 783d
00000030: 697f e73c adef 2d3d 5c4e 7d3d d818 013d

2.conv1.lin_r.weight f4 [16, 4]
0.12036993 0.04424121 0.015923273 0.14167677 0.11787923 0.05016899 0.040724143 0.09639041
0.13724136 0.036504544 0.06656018 0.16101947 0.12942657 0.011738112 0.08176198 0.13677913
0.12559386 0.025624428 0.0012094841 0.10800397 0.13489696 0.0328858 0.047934726 0.13770708
0.08230768 0.034453716 0.011754256 0.126821 0.13400796 0.033804633 0.072337076 0.120992176
0.14387591 0.039663643 0.045361586 0.132443 0.10126541 0.04729312 0.045404755 0.14599262
0.14902914 0.028420644 0.038371664 0.15890679 0.1523092 -0.0014526313 0.038446262 0.14286503
0.11597987 0.032028124 0.06698956 0.1637849 0.120309696 0.039290074 0.010781178 0.11810437
0.110825256 0.031298365 0.040380903 0.117447466 0.1263025 0.039307237 0.04922479 0.09219778
00000000: 8384 f63d 4536 353d 8671 823c b713 113e
00000010: aa6a f13d 007e 4d3d 5cce 263d 5668 c53d
00000020: 0089 0c3e ca85 153d b450 883d 4ae2 243e
00000030: 6688 043e 3651 403c d372 a73d d40f 0c3e
00000040: ad9b 003e 52ea d13c 8d87 9e3a 2f31 dd3d
00000050: 6e22 0a3e 43b3 063d 3457 443d 1603 0d3e
00000060: ee90 a83d 571f 0d3d ec94 403c 5ddd 013e
00000070: 6239 093e ba76 0a3d 7625 943d bfca f73d
00000080: 3554 133e 5876 223d 12cd 393d 239f 073e
00000090: 3d64 cf3d 6eb6 413d 56fa 393d 177f 153e
000000a0: 189b 183e 69d2 e83c 9b2b 1d3d 76b8 223e
000000b0: f1f6 1b3e 3866 beba d479 1d3d 364b 123e
000000c0: db86 ed3d ec2f 033d d331 893d 3bb7 273e
000000d0: ee64 f63d a1ee 203d 8aa3 303c b4e0 f13d
000000e0: 5af8 e23d b732 003d 7266 253d 4c88 f03d
000000f0: 7155 013e a000 213d ef9f 493d 31d2 bc3d

2.conv2.lin_l.weight f4 [8, 16]
-0.024151808 0.004883335 0.0035788289 -0.0053707086 -0.0024879228 -0.010822516 0.0048603695 -0.0070732
-0.00331405 0.00737213 0.0037612135 0.009642719 -0.0045006727 0.006392029 -0.008864602 0.022561066
0.0015263984 0.0057106107 -0.006231642 -0.0062396573 -0.007141777 0.013297213 -0.011797764 -0.008950369
-0.011728951 -0.0030318236 -0.013848172 -0.024358205 -0.0043943794 -0.006284013 -0.018674666 -0.0037366766
0.010892437 0.021303788 0.02115453 0.0073585184 0.0023766945 0.007658895 0.0047604954 0.021585025
0.007706212 0.02597114 0.0066624642 0.0062486017 -0.0067029935 0.020336013 0.017600738 0.007267629
0.0086922655 0.0033859056 0.021002345 -0.002200256 0.0025474334 0.0021682747 -0.0021085818 -0.009263808
-0.0035171502 -0.014434654 0.012266044 -0.037533984 0.00438617 0.003769781 -0.0009914121 -0.00995069
0.0076494133 0.006421746 3.1658932e-05 -0.004733673 -0.004228658 -0.015660394 0.006616426 0.0004391879
0.0018885523 0.012217611 0.014601185 0.005917889 -0.00087718037 -0.006017417 0.03043037 0.00544735
0.003669874 0.0043927133 0.012484386 -0.007292676 -0.014999063 -0.007637344 0.00017469228 -0.012948764
-0.011732131 -0.012556162 -0.015146619 0.012347724 0.013145953 -0.002626258 -0.0076047336 0.0008740282
-0.020846155 -0.01022693 0.010856053 0.006659801 -0.010505017 0.00058349967 -0.022538356 -0.019087
-0.051072363 -0.0056753005 -0.010425602 -0.015462258 -0.019465143 -0.00947724 -0.010584198 -0.02691958
-0.016936393 -0.0048088683 -0.012595134 -0.004317812 0.0016245872 0.006813241 0.014430612 -0.018631082
-0.016710788 -0.0019576603 0.0012507762 -0.0036772368 -0.009974477 0.0005438789 -0.0002583453 0.008070394
00000000: 03da c5bc 6204 a03b c98a 6a3b c5fc afbb
00000010: 6b0c 23bb ec50 31bc bc43 9f3b 4dc6 e7bb
00000020: 8830 59bb e991 f13b b17e 763b 7ffc 1d3c
00000030: 617a 93bb 3a74 d13b d63c 11bc fcd1 b83c
00000040: 6e11 c83a 1320 bb3b cd32 ccbb 0a76 ccbb
00000050: 9105 eabb 8edc 593c 694b 41bc 92a4 12bc
00000060: c92a 40bc 8fb1 46bb 71e3 62bc dc8a c7bc
00000070: bafe 8fbb 1fea cdbb 9dfb 98bc 08e3 74bb
00000080: 3176 323c 4885 ae3c 444c ad3c ba1f f13b
00000090: 51c2 1b3b 78f7 fa3b eefd 9b3b 14d3 b03c
000000a0: 6484 fc3b 6ec1 d43c cd50 da3b 12c1 cc3b
000000b0: c9a4 dbbb b697 a63c 6c2f 903c 4a25 ee3b
000000c0: 016a 0e3c 12e6 5d3b 1c0d ac3c 2c32 10bb
000000d0: d7f2 263b 9d19 0e3b 2230 0abb 3ac7 17bc
000000e0: fd7f 66bb 547f 6cbc 84f7 483c 3cbd 19bd
000000f0: dcb9 8f3b 6e0e 773b 45f2 81ba 3808 23bc
00000100: eea7 fa3b 836d d23b 85c9 0438 ed1c 9bbb
00000110: 8e90 8abb 3a4a 80bc 9bce d83b cd42 e639
00000120: 4d89 f73a 602c 483c cf39 6f3c daea c13b
00000130: 94f2 65ba c12d c5bb 1c49 f93c af7f b23b
00000140: 4582 703b c0f0 8f3b 4f8b 4c3c 66f7 eebb
00000150: a1be 75bc af42 fabb 9a2d 3739 0d27 54bc
00000160: 2038 40bc 5cb8 4dbc 8629 78bc 1c4e 4a3c
00000170: 2062 573c 4c1d 2cbb 2131 f9bb 0a1f 653a
00000180: 8ec5 aabc da8e 27bc 96dd 313c 763a da3b
00000190: 3c1d 2cbc 00f6 183a 5ca2 b8bc 575c 9cbc
000001a0: 4131 51bd dff7 b9bb 25d0 2abc 6955 7dbc
000001b0: 5d75 9fbc 6d46 1bbc 5869 2dbc 7386 dcbc
000001c0: 31be 8abc b693 9dbb d25b 4ebc 6f7c 8dbb
000001d0: 1af0 d43a 9c41 df3b 606e 6c3c 36a0 98bc
000001e0: 10e5 88bc 174c 00bb 16f1 a33a ccfd 70bb
000001f0: fd6b 23bc 1893 0e3a 8572 87b9 b039 043c

2.conv2.lin_l.bias f4 [8]
-0.015730856 -0.005444341 -0.004871273 -0.0035074197 -0.0002843219 -0.0013145441 -0.032810234 0.0075307046
00000000: ffdd 80bc 7166 b2bb 339f 9fbb bddc 65bb
00000010: 0a11 95b9 c84c acba 0664 06bd 21c4 f63b

2.conv2.lin_r.weight f4 [8, 16]
-0.0062704063 0.0045837383 -0.002435081 -0.0028226885 -0.010284841 0.007065968 0.020233257 0.0029200888
0.013571146 0.0020407452 0.009042168 -0.023724316 0.0011396171 0.003334527 -0.0037029905 0.0028079234
-0.0018518299 0.008760622 0.0010377683 -0.01861395 -0.0186737 -0.015936863 -0.0053580482 -0.017811727
0.0019044606 0.00090393645 -0.003063143 -0.011378789 -0.010346252 -0.009466411 -0.035069082 -0.012334939
0.010017098 0.015908552 -0.0066873366 0.008385491 0.00088520505 -0.008719594 0.005776652 0.007954854
0.007263068 -0.001217707 -0.0069752717 0.007436359 0.0060169827 0.011226155 0.008560293 -0.006410164
0.00660347 0.0022410608 0.00864547 -0.009688192 0.0064196116 -0.0059696157 0.015011687 0.00016361236
-0.0037551806 -0.0021098745 -0.0044932687 -0.020505954 0.0011243207 0.0038195057 0.00701252 -0.01939675
0.007122574 0.00025753528 -0.0075210524 -0.009461981 -0.010949612 -0.0073341816 -0.002185011 0.0064192116
-0.013616184 -0.0071316953 0.00064594194 0.013421106 -0.014915104 -0.0086916955 -0.0054595387 0.002766356
-0.00469606 0.012777359 -0.007107115 -0.002094455 -0.007309714 -0.01752399 0.019109216 -0.0046145264
-0.00849754 0.008978525 0.012908954 -0.0048684757 -0.005013044 0.017677892 0.0050538806 -0.02888193
-0.008037651 -0.018802356 -0.013807107 0.008394283 -0.021753242 -0.0026635283 -0.01729838 -0.01743341
-0.026641319 0.002633193 -0.012660585 -0.015615192 -0.027311336 -0.020872638 -0.001593376 -0.01574843
0.0014424819 0.0018237847 -0.01537366 -0.0042452402 0.005510017 0.013559691 -0.0010968863 0.00678108
0.010563609 0.010630701 0.012560996 0.008472771 0.005873337 -0.010985644 -0.0019886163 0.0027042115
00000000: fb77 cdbb 2f33 963b e195 1fbb dbfc 38bb
00000010: c081 28bc a389 e73b 37c0 a53c f65e 3f3b
00000020: 8359 5e3c 06be 053b 9a25 143c 7f59 c2bc
00000030: 345f 953a 1488 5a3b dfad 72bb 2305 383b
00000040: 1ab9 f2ba b688 0f3c ba05 883a 487c 98bc
00000050: 96f9 98bc 068e 82bc 9192 afbb e6e9 91bc
00000060: 189f f93a 26f6 6c3a 03bf 48bb 1a6e 3abc
00000070: 5383 29bc 0119 1bbc 99a4 0fbd 7c18 4abc
00000080: c11e 243c a752 823c 7221 dbbb 4c63 093c
00000090: 1b0d 683a a1dc 0ebc 124a bd3b 1355 023c
000000a0: 08ff ed3b 779b 9fba d290 e4bb b3ac f33b
000000b0: 1c2a c53b e8ed 373c 7940 0c3c 5a0c d2bb
000000c0: ec61 d83b c3de 123b bba5 0d3c 39bb 1ebc
000000d0: 9b5b d23b c49c c3bb 94f3 753c 5c8f 2b39
000000e0: 7a19 76bb d245 0abb 453c 93bb 1afc a7bc
000000f0: f15d 933a ac50 7a3b 48c9 e53b efe5 9ebc
00000100: 7b64 e93b cd05 8739 2973 f6bb 6d06 1bbc
00000110: 0066 33bc 9353 f0bb 6732 0fbb 4058 d23b
00000120: 6a16 5fbc ffb0 e9bb 6e54 293a 33e4 5b3c
00000130: 7b5e 74bc 9d67 0ebc eee5 b2bb c14b 353b
00000140: 68e1 99bb 2158 513c cde2 e8bb 2043 09bb
00000150: 5386 efbb 788e 8fbc ee8a 9c3c 7435 97bb
00000160: 4439 0bbc aa1a 133c 1480 533c bc87 9fbb
00000170: 7644 a4bb 3ad1 903c 069b a53b cc99 ecbc
00000180: 5ab0 03bc 6607 9abc 3437 62bc 2d88 093c
00000190: db33 b2bc 978e 2ebb 55b5 8dbc 83d0 8ebc
000001a0: e53e dabc a691 2c3b 586e 4fbc ddd6 7fbc
000001b0: 06bc dfbc 18fd aabc d4d8 d0ba da02 81bc
000001c0: a911 bd3a 0f0c ef3a cee1 7bbc a81b 8bbb
000001d0: 5f8d b43b 7729 5e3c 66c5 8fba d233 de3b
000001e0: fd12 2d3c 642c 2e3c a3cc 4d3c 61d1 0a3c
000001f0: 1f75 c03b 21fd 33bc 7253 02bb 2439 313b

3.conv1.lin_l.weight f4 [16, 4]
0.13217388 0.009883728 0.035466302 0.12570883 0.11991689 0.011914346 0.028678326 0.16116332
0.10304285 0.023499824 0.03887321 0.162036 0.11755663 0.020142606 0.0733933 0.12735696
0.12256423 0.014912797 0.034034427 0.105667114 0.13505054 0.00930989 0.055192713 0.1579168
0.122498475 0.025367228 0.03602302 0.1594828 0.10613614 0.023880599 0.04590963 0.111457646
0.12163456 0.0528669 0.026060557 0.17345287 0.13861565 -0.01568418 0.039692093 0.15677954
0.11032734 0.02318449 0.009825633 0.0989133 0.10679014 -0.012730054 0.025826134 0.14644638
0.09178934 0.010864057 0.012326753 0.1689927 0.09171876 0.037838675 0.032728467 0.16426128
0.11894971 0.010088921 0.035834234 0.103410445 0.12170819 -0.008083975 0.05133734 0.119855516
00000000: 9758 073e 5cef 213c 1d45 113d d1b9 003e
00000010: fd96 f53d 6434 433c cfee ea3c ff07 253e
00000020: 2108 d33d b482 c03c 8439 1f3d c4ec 253e
00000030: 88c1 f03d 1b02 a53c 3a4f 963d dd69 023e
00000040: f402 fb3d ce54 743c af67 0b3d 0068 d83d
00000050: b04a 0a3e 8288 183c c111 623d f1b4 213e
00000060: 7be0 fa3d efce cf3c e08c 133d 764f 233e
00000070: e85d d93d 3fa1 c33c bc0b 3c3d e843 e43d
00000080: 8a1b f93d f68a 583d f37c d53c a19d 313e
00000090: 43f1 0d3e 1c7c 80bc 2d94 223d d18a 203e
000000a0: 4df3 e13d 66ed bd3c b1fb 203c 0e93 ca3d
000000b0: cab4 da3d b791 50bc 5491 d33c 0af6 153e
000000c0: 0dfc bb3d 28ff 313c 26f6 493c 6c0c 2d3e
000000d0: 0cd7 bb3d bafc 1a3d 490e 063d 1c34 283e
000000e0: e89b f33d 004c 253c ebc6 123d dbc8 d33d
000000f0: 2542 f93d a672 04bc 1a47 523d cf76 f53d

3.conv1.lin_l.bias f4 [16]
0.092809334 0.073196925 0.06624127 0.062370405 0.044829167 0.046111144 0.050516482 0.035231814
0.061052427 0.044073425 0.06121428 0.063683145 0.041123692 0.04782256 0.04559655 0.09787487
00000000: d212 be3d 45e8 953d 81a9 873d 1c78 7f3d
00000010: ca9e 373d 0adf 3c3d 5fea 4e3d 3c4f 103d
00000020: 1c12 7a3d 5686 343d d3bb 7a3d 4f6c 823d
00000030: 5171 283d 97e1 433d 73c3 3a3d 9f72 c83d

3.conv1.lin_r.weight f4 [16, 4]
0.14675659 0.03421888 0.03292802 0.1123736 0.1510127 0.03147707 0.031940866 0.106133506
0.1135668 0.033883292 0.05104986 0.16243595 0.14457768 0.021917788 0.066331446 0.13565458
0.11377393 0.046337195 0.0676857 0.1234376 0.1559538 0.028848015 0.06418123 0.16296777
0.10845776 0.01481711 0.06534826 0.11779319 0.11681854 0.003502309 0.06358159 0.15215427
0.12221792 0.056078047 0.049884386 0.12115397 0.11653022 0.06976999 0.07680343 0.12157407
0.1326568 0.045964383 0.028467445 0.12919246 0.09940498 0.039622374 0.05935298 0.17806685
0.11797755 0.040656596 0.0041375766 0.14502348 0.15460299 0.042883247 0.04020471 0.14539108
0.14502482 0.059547596 0.056491796 0.12801346 0.12398103 0.023595523 0.057001963 0.15327874
00000000: 5c47 163e 1929 0c3d 88df 063d 2124 e63d
00000010: 13a3 1a3e 1aee 003d 6dd4 023d 865c d93d
00000020: b695 e83d 35c9 0a3d a819 513d 9c55 263e
00000030: 2c0c 143e ef8c b33c c8d8 873d 09e9 0a3e
00000040: 4e02 e93d 12cc 3d3d cd9e 8a3d dacc fc3d
00000050: 5ab2 1f3e ac52 ec3c 7371 833d 06e1 263e
00000060: 1a1f de3d 77c3 723c 4fd5 853d 8e3d f13d
00000070: 8f3e ef3d ff86 653b 1137 823d 54ce 1b3e
00000080: 644d fa3d 18b2 653d 9253 4c3d 931f f83d
00000090: 65a7 ee3d 92e3 8e3d 1e4b 9d3d d3fb f83d
000000a0: 2fd7 073e 2645 3c3d 8f34 e93c 074b 043e
000000b0: d794 cb3d 124b 223d 1c1c 733d 2857 363e
000000c0: 379e f13d 8887 263d 8294 873b 0981 143e
000000d0: 3f50 1e3e 58a6 2f3d b2ad 243d 66e1 143e
000000e0: 6381 143e 2ee8 733d f163 673d f615 033e
000000f0: c4e9 fd3d 664b c13c e47a 693d 1af5 1c3e

3.conv2.lin_l.weight f4 [8, 16]
0.016652381 0.0065496955 0.008524379 0.010228454 -0.0023378276 0.02004298 -0.0042724703 0.015621278
-0.007868291 0.03164327 0.0008904679 -0.017267358 0.013629399 0.0051489063 -0.016573288 0.01394112
-0.0006864542 0.01641506 0.022187725 0.0018910648 -0.0061182664 0.009676792 -0.007846457 0.00021428466
-0.009069266 0.015966166 0.007841992 -0.0025670202 -0.0071258475 0.012144107 0.0073812692 -0.0006790927
0.0027465557 0.005019207 0.030361647 0.01565767 0.008988459 0.013655248 -0.009046098 0.015289991
0.009062492 0.00930918 0.024900088 -0.0058078216 0.011586677 0.01432596 -0.004713543 0.007600466
-0.007313266 0.017816104 0.0026450097 -0.00729331 -0.0060345964 -0.007570316 -0.0019954883 -0.0024502906
-0.008180988 0.012801953 0.0047658794 0.021434179 0.005384814 0.0034226119 0.011265416 -0.007845098
-0.0008305548 -0.0017223192 -0.017956536 -0.0050674975 -0.019718427 -0.012691054 -0.025576234 -0.015843883
-0.023616798 -0.021255407 -0.011153884 -0.016677408 -0.024385368 -0.0040221494 0.0064028264 0.008956465
-0.02699974 -0.005598117 -0.003910536 -0.007989305 -0.0055537443 -0.0007805362 -0.0038951999 0.002420009
0.009029835 0.0049780863 -0.0023427024 -0.00019968778 0.020948673 -0.007842672 -0.002270875 0.009761336
-0.0016012236 -0.0074299895 0.021911092 0.020161381 0.0187329 0.006785534 0.0071710385 -0.0008908135
-0.0011326435 -0.009497701 0.031368483 -0.0046555214 -0.0032200508 0.008802661 -0.0042656353 -0.0019215083
-0.002729513 -0.008114167 0.0059865797 0.010851031 -0.016147476 0.007532235 -0.0019678853 -0.016168002
0.0040422226 0.016625933 0.012560982 0.0068429434 0.009606621 -0.005032492 -0.0077339746 -0.0005704826
00000000: 936a 883c d49e d63b d6a9 0b3c 3f95 273c
00000010: 3d36 19bb 2d31 a43c 1400 8cbb 64f0 7f3c
00000020: 01ea 00bc 609c 013d 4a6e 693a 4674 8dbc
00000030: d84d 5f3c 28b8 a83b b4c4 87bc 4c69 643c
00000040: 29f3 33ba e078 863c 08c3 b53c 9bdd f73a
00000050: bd7b c8bb 688b 1e3c 6d8e 00bc 9ab1 6039
00000060: 4297 14bc 7acb 823c b37b 003c 743b 28bb
00000070: f17f e9bb 14f8 463c 93de f13b 2405 32ba
00000080: 8fff 333b 2978 a43b fdb8 f83c 8444 803c
00000090: 5444 133c 43ba 5f3c 1636 14bc df82 7a3c
000000a0: d97a 143c 8885 183c 45fb cb3c 8a4f bebb
000000b0: 0cd6 3d3c 6eb7 6a3c 1174 9abb 540d f93b
000000c0: 1fa4 efbb 14f3 913c e657 2d3b b8fc eebb
000000d0: ddbd c5bb 6a10 f8bb bdc6 02bb 0e95 20bb
000000e0: 8d09 06bc 48bf 513c 182b 9c3b bb96 af3c
000000f0: 1873 b03b e64d 603b 9492 383c ba88 00bc
00000100: 97b9 59ba 71bf e1ba 9619 93bc 400d a6bb
00000110: 8a88 a1bc 23ee 4fbc 4085 d1bc 08cb 81bc
00000120: 0478 c1bc d21f aebc c8be 36bc 0f9f 88bc
00000130: d3c3 c7bc 3ccc 83bb cdce d13b 23be 123c
00000140: 8f2e ddbc 6970 b7bb f423 80bb 93e5 02bc
00000150: 2ffc b5bb e69c 4cba 9c46 7fbb 0499 1e3b
00000160: e0f1 133c 371f a33b 0688 19bb 4863 51b9
00000170: 8d9c ab3c 8d7e 00bc f6d2 14bb 03ee 1f3c
00000180: 26e0 d1ba 4577 f3bb e47e b33c 7b29 a53c
00000190: bd75 993c 2f59 de3b 08fb ea3b 7b85 69ba
000001a0: 3675 94ba 3f9c 1bbc 3d7c 003d 588d 98bb
000001b0: 7d07 53bb 0939 103c bec6 8bbb 1fdb fbba
000001c0: a1e1 32bb 48f1 04bc 122b c43b 86c8 313c
000001d0: b647 84bc f7d0 f63b a3f7 00bb c272 84bc
000001e0: 9f74 843b 1c33 883c 94cc 4d3c c53a e03b
000001f0: 1765 1d3c 9ae7 a4bb 486d fdbb 708c 15ba

3.conv2.lin_l.bias f4 [8]
0.0067718043 -0.014333325 0.023408437 0.002912065 -0.016268848 -0.0079938015 0.018386336 0.014778366
00000000: 03e6 dd3b 53d6 6abc 0dc3 bf3c 58d8 3e3b
00000010: 3f46 85bc 6ff8 02bc f19e 963c f620 723c

3.conv2.lin_r.weight f4 [8, 16]
0.026578614 0.008529958 -0.007819758 -0.00014063448 0.0046223663 0.0110219335 -0.009223006 0.011808122
-0.009128993 0.005722193 0.013448224 -0.00332994 0.015069387 -0.0046638576 0.0091627315 0.02379055
0.013938856 0.00083701225 0.006313926 -0.003477253 0.0052087563 0.0027107818 0.010931525 0.008100524
0.0143195735 -0.0007217872 -0.006033918 0.0019803683 -0.0087265745 0.006231369 -0.0047527435 0.0059887986
0.021134669 0.014615557 -0.0026088387 0.011427946 0.016756294 0.005558108 -0.0033946293 0.012975111
0.0065180794 0.01666 0.013615541 0.015506515 -0.004163844 0.010440052 0.0076659145 0.00831526
-0.011266592 0.0152441645 -0.0023119748 -0.009051398 -0.009387898 -0.018763311 -0.004362634 -0.0109515665
-0.029426983 0.002183123 -0.019665584 0.007494795 -0.0005186303 0.020579048 0.009041365 -0.0013149874
0.004667591 -0.031245861 -0.020362502 -0.017401518 -0.0145128295 -0.026497783 -0.029302586 -0.015409577
0.0023922115 -0.0291214 0.006102688 3.4249126e-05 -0.021741927 -0.017613681 0.0070745205 -0.007992977
-0.0070236702 -0.012923354 -0.020805512 0.008667951 -0.0048684273 -0.013651771 0.009191994 0.009281935
0.0008006629 -0.010403122 -0.015525046 -0.0034579248 -0.0023817783 0.015000833 -0.011940149 -0.008016158
-0.0017798065 -0.002385639 0.010519573 0.03387378 0.007254966 -0.0026921758 0.002285157 0.02016717
0.013218177 -0.004139964 0.014909079 0.0019751238 -0.0077458774 -0.00051038957 0.00063615444 -0.009316901
-0.00014719278 -0.0045147683 -0.006631277 0.0077615352 0.009685864 -0.0005171366 0.002979864 -0.0118211685
-0.0029316605 -0.0063284226 0.014348286 -0.0038554836 0.006711381 0.0010605359 -0.003237641 -0.0077813566
00000000: 65bb d93c 3dc1 0b3c 711e 00bc 4877 13b9
00000010: 3877 973b 5795 343c 171c 17bc da76 413c
00000020: c691 15bc 3c81 bb3b f155 5c3c 1f3b 5abb
00000030: 97e5 763c 46d3 98bb 481f 163c 66e4 c23c
00000040: cd5f 643c f16a 5b3a 0de5 ce3b a0e2 63bb
00000050: 37ae aa3b 5fa7 313b 241a 333c 0fb8 043c
00000060: a59c 6a3c 5236 3dba 2cb8 c5bb 11c9 013b
00000070: e8f9 0ebc 8330 cc3b e7bc 9bbb af3d c43b
00000080: 9d22 ad3c 1776 6f3c 0df9 2abb 483c 3b3c
00000090: 7f44 893c ca20 b63b 6e78 5ebb 8f95 543c
000000a0: 9d95 d53b 8d7a 883c b813 5f3c 0a0f 7e3c
000000b0: db70 88bb c00c 2b3c 5a32 fb3b ba3c 083c
000000c0: 8397 38bc a9c2 793c 8084 17bb 514c 14bc
000000d0: b3cf 19bc 84b5 99bc 6df4 8ebb 336e 33bc
000000e0: db10 f1bc ba12 0f3b b819 a1bc e696 f53b
000000f0: b1f4 07ba 6495 a83c 3c22 143c a85b acba
00000100: 97f2 983b 52f7 ffbc 43cf a6bc a18d 8ebc
00000110: 38c7 6dbc e111 d9bc fa0b f0bc 7378 7cbc
00000120: a6c6 1c3b 0190 eebc 0ff9 c73b b8a6 0f38
00000130: 201c b2bc 914a 90bc 61d1 e73b faf4 02bc
00000140: d126 e6bb 7abc 53bc 5270 aabc 0604 0e3c
00000150: 5487 9fbb adab 5fbc 049a 163c 4213 183c
00000160: 94e3 513a db71 2abc c35c 7ebc 5a9e 62bb
00000170: 9c17 1cbb 0ec6 753c 9da0 43bc 3456 03bc
00000180: 6548 e9ba 6158 1cbb 4a5a 2c3c 3cbf 0a3d
00000190: 11bb ed3b 376f 30bb 93c2 153b 9f35 a53c
000001a0: 0d91 583c 89a8 87bb 3645 743c 1471 013b
000001b0: 21d1 fdbb aacb 05ba 9ac3 263a eaa5 18bc
000001c0: c357 1ab9 9ff0 93bb 2f4b d9bb 7a54 fe3b
000001d0: 75b1 1e3c 7390 07ba d249 433b 93ad 41bc
000001e0: 1a21 40bb a85e cfbb 1315 6b3c 48ac 7cbb
000001f0: 25eb db3b ae01 8b3a 9a2e 54bb c0fa febb

4.conv1.lin_l.weight f4 [16, 4]
0.12230736 0.034042243 0.02907814 0.07119214 0.13201104 0.029448558 0.06329118 0.09465654
0.09736193 0.030177575 0.07099991 0.09323802 0.07051962 -0.013746593 0.07886328 0.12907013
0.09977147 0.032294694 0.029711103 0.09438167 0.091208465 0.013595211 0.07314121 0.09217527
0.14145212 0.065993406 0.06524953 0.12440522 0.11213275 0.019929761 0.028954716 0.118300565
0.10782443 0.0364938 0.0475711 0.1291954 0.10905161 0.020989304 0.0059828777 0.059586514
0.10240889 0.031400975 0.061897717 0.11261723 0.11459036 0.029259622 0.061891194 0.11249832
0.13497007 0.003145519 0.045648184 0.10980845 0.11450649 0.015999265 0.025928682 0.080416985
0.13021502 0.040279068 0.03161652 0.086839035 0.08747287 -0.00097388984 0.052753136 0.11135333
00000000: 487c fa3d e16f 0b3d 4835 ee3c 2fcd 913d
00000010: e72d 073e 1a3e f13c ce9e 813d 4adb c13d
00000020: b165 c73d f636 f73c 6768 913d 93f3 be3d
00000030: 976c 903d 6439 61bc 1283 a13d f62a 043e
00000040: fc54 cc3d 7147 043d b364 f33c 2d4b c13d
00000050: 81cb ba3d 73be 5e3c 0fcb 953d 63c6 bc3d
00000060: d3d8 103e 8d27 873d 8ca1 853d 2ac8 fe3d
00000070: dba5 e53d bd43 a33c 7132 ed3c 9147 f23d
00000080: 0ed3 dc3d 867a 153d ead9 423d cd4b 043e
00000090: 7356 df3d c3f1 ab3c 040c c43b fd10 743d
000000a0: c1bb d13d 4f9e 003d 7688 7d3d dda3 e63d
000000b0: 5aae ea3d e0b1 ef3c 9f81 7d3d 8565 e63d
000000c0: 9835 0a3e 0d25 4e3b 97f9 3a3d 41e3 e03d
000000d0: 6182 ea3d e410 833c 6368 d43c a9b1 a43d
000000e0: 1657 053e aafb 243d 5380 013d aad8 b13d
000000f0: fa24 b33d a44c 7fba ac13 583d 370d e43d

4.conv1.lin_l.bias f4 [16]
0.07039754 0.08777798 0.08073202 0.0710713 0.012615604 0.059451018 0.08183417 0.03526662
0.060063936 0.059431467 0.06400037 0.04389697 0.07866321 0.060384594 0.055218033 0.042210415
00000000: 962c 903d f1c4 b33d d456 a53d d48d 913d
00000010: aeb1 4e3c e982 733d ac98 a73d bb73 103d
00000020: 9a05 763d 696e 733d a012 833d 4fcd 333d
00000030: 2d1a a13d d655 773d 4e2c 623d d4e4 2c3d

4.conv1.lin_r.weight f4 [16, 4]
0.118849255 0.06132284 0.065080136 0.124621145 0.11182144 0.039487556 0.05890861 0.17006558
0.13355753 0.008787792 0.03440173 0.14464234 0.11757943 0.035913773 0.063351616 0.12606023
0.1318071 0.061648056 0.08110275 0.09973217 0.13463688 0.03885021 0.017271053 0.1338556
0.13355611 0.057144307 0.045486633 0.123580106 0.13072607 0.06508048 0.07812879 0.09811406
0.16246355 0.02792586 0.06312786 0.118276656 0.13719645 0.024589455 0.032703925 0.10159536
0.13301691 0.028622536 0.06737916 0.13943242 0.16798496 0.03923551 0.06239704 0.1010923
0.14604038 0.052100778 0.04313982 0.13078469 0.12488094 0.040553108 0.09241537 0.12582609
0.15463038 0.05134194 0.06338589 0.13968103 0.13002397 0.059995003 0.05320632 0.14649786
00000000: 3d67 f33d a92d 7b3d bc48 853d 5f39 ff3d
00000010: a402 e53d b4bd 213d 284a 713d ac25 2e3e
00000020: 4ec3 083e acfa 0f3c d4e8 0c3d 1f1d 143e
00000030: 7ccd f03d 521a 133d 7ebe 813d ef15 013e
00000040: 71f8 063e ac82 7c3d 3319 a63d 6140 cc3d
00000050: 40de 093e 6621 1f3d 067c 8d3c 7111 093e
00000060: efc2 083e 2610 6a3d 3150 3a3d 9117 fd3d
00000070: 0edd 053e ea48 853d fd01 a03d 06f0 c83d
00000080: d85c 263e c6c4 e43c 2e49 813d 083b f23d
00000090: 3a7d 0c3e d36f c93c 8df4 053d 3a11 d03d
000000a0: 9635 083e cf79 ea3c 16fe 893d 5fc7 0e3e
000000b0: 4004 2c3e 6ab5 203d 0a94 7f3d 7b09 cf3d
000000c0: 9c8b 153e a067 553d 61b3 303d 6cec 053e
000000d0: 94c1 ff3d 041b 263d 4544 bd3d 8ed8 003e
000000e0: 6d57 1e3e ed4b 523d 76d0 813d 8b08 0f3e
000000f0: 0125 053e 52bd 753d dfee 593d 8903 163e

4.conv2.lin_l.weight f4 [8, 16]
0.0068479762 -0.0035664877 -0.008700621 0.009332079 -0.0015430561 -0.0036163956 -0.005561032 -0.011780968
-0.0014911492 0.014604961 0.0071455818 -0.01270143 0.0020899891 -0.003535774 -0.007473011 0.023487143
0.022622174 0.022085145 0.0261229 0.015743122 0.021288497 0.011382867 0.037463512 -0.004690665
0.0096289795 0.014573803 0.023806935 0.0004473275 0.030120006 0.015959509 0.01592191 0.0027418658
-0.018212004 -0.0089449035 -0.009157147 -0.02590205 -0.0036459423 -0.015730498 -0.02547662 -0.030608268
-0.00843818 0.0055945828 -0.019720882 -0.015057117 0.0149724325 0.027803687 0.0064188256 -0.005324587
0.015301121 -0.0029725046 0.004661144 0.01817141 -0.00024724245 -0.002005309 0.00065388245 -0.007426086
0.022432225 -0.011159027 0.010754291 0.020792007 0.014285144 0.00039027288 -0.010283725 0.0005679272
0.010719601 -0.013317635 -0.005284788 0.011403654 -0.007870527 0.0040854956 -0.027691295 -0.011791803
-0.011020099 0.010454696 -0.0047944095 0.0043765777 0.013387252 0.016968457 0.0018849451 0.007357314
-0.012259875 -0.0086221965 -0.016771648 -0.006819531 -0.00031166722 -0.0039832634 -0.011403242 -0.015929844
-0.0063021793 -0.005919014 -0.016738787 0.009631776 0.0041855634 0.005033735 0.0075504296 -0.011170391
-0.011559597 -0.008759849 0.009781594 -0.026547577 0.020734435 -0.029579781 -0.017337715 -0.012289453
0.0048968615 0.0010047529 0.0024798536 -0.0056127124 -0.007692392 -0.0026818044 0.0003647685 -0.0024127315
0.00727309 0.010522532 0.013643607 -0.00032841592 -0.008924257 0.02213204 0.01700195 0.0019339285
0.014207338 0.007744724 -0.0010968917 -0.007687268 -0.014453449 0.0075793993 0.005824832 0.02352086
00000000: fd64 e03b bcbb 69bb 0d8d 0ebc 94e5 183c
00000010: 5f40 caba 0d01 6dbb 5139 b6bb f604 41bc
00000020: aa72 c3ba a549 6f3c 7c25 ea3b a919 50bc
00000030: 33f8 083b 72b8 67bb 29e0 f4bb 1c68 c03c
00000040: 2352 b93c e8eb b43c b1ff d53c b8f7 803c
00000050: 3765 ae3c 347f 3a3c 5773 193d 26b4 99bb
00000060: dec2 1d3c f6c6 6e3c c306 c33c 4887 ea39
00000070: 3bbe f63c 84bd 823c aa6e 823c e0b0 333b
00000080: 5731 95bc a58d 12bc dc07 16bc 8930 d4bc
00000090: c3f0 6ebb 3fdd 80bc 58b4 d0bc 31be fabc
000000a0: 4b40 0abc c352 b73b b08d a1bc 20b2 76bc
000000b0: ef4e 753c 8fc4 e33c 0355 d23b e079 aebb
000000c0: 8eb1 7a3c 5ace 42bb 83bc 983b 35dc 943c
000000d0: 52a0 81b9 816b 03bb 4f69 2b3a 8656 f3bb
000000e0: c9c3 b73c 5ad4 36bc c432 303c 0054 aa3c
000000f0: 3d0c 6a3c 8a9d cc39 127d 28bc f3e0 143a
00000100: 44a1 2f3c 3632 5abc 042c adbb 64d6 3a3c
00000110: 62f3 00bc 9fdf 853b dbd8 e2bc 6832 41bc
00000120: a58d 34bc 2c4a 2b3c 6c1a 9dbb 6569 8f3b
00000130: 3456 5b3c 6f01 8b3c 4310 f73a a015 f13b
00000140: a5dd 48bc 1d44 0dbc b264 89bc 5f76 dfbb
00000150: 4467 a3b9 0986 82bb aad4 3abc 4e7f 82bc
00000160: 8382 cebb 4af4 c1bb c81f 89bc 99ce 1d3c
00000170: 0d27 893b 08f2 a43b 9869 f73b 0404 37bc
00000180: 7764 3dbc 7885 0fbc fb42 203c 4e7a d9bc
00000190: 43db a93c 4c51 f2bc d307 8ebc b459 49bc
000001a0: da75 a03b eab1 833a 0a85 223b d8ea b7bb
000001b0: 7610 fcbb 36c1 2fbb 663e bf39 eb1e 1ebb
000001c0: 1a53 ee3b b366 2c3c 6f89 5f3c 3d2f acb9
000001d0: 0c37 12bc 404e b53c ac47 8b3c df7b fd3a
000001e0: e5c5 683c 74c7 fd3b 94c5 8fba 7ae5 fbbb
000001f0: 29ce 6cbc 9c5c f83b 3bde be3b d2ae c03c

4.conv2.lin_l.bias f4 [8]
0.0029382824 0.028695406 0.0064553465 0.015444479 0.0026897115 0.001099093 -0.02313076 0.022958307
00000000: 3390 403b a112 eb3c 5f87 d33b d70a 7d3c
00000010: df45 303b 710f 903a b87c bdbc 0f13 bc3c
