results/agent_Orkut-Sampled.pth (torch, 118231 bytes, 200 tensors)

0.conv1.lin_l.weight f4 [16, 4]
00000000: 6267 8c3d 3645 c73c a005 5a3d e1d7 c63d
00000010: 269e 533d 5f43 35bc 0cdb 2b3d ff36 a43d
00000020: 377c 903d 4e6f 9d3c ec89 b73c e14f 8e3d
00000030: 54d1 043d ce1b 193d 77f9 fd3c 1f17 b23d
00000040: 5d5e 7d3d e7b6 1c3d b372 253c 1d34 a13d
00000050: 2e1b 373c b87d ea3c c584 51bc 0132 313d
00000060: 1891 9b3d da1c 77bb dfb7 413d 4a52 c33d
00000070: 0ca8 8e3d 5585 0d3d bc83 2e3d 6af1 883d
00000080: 7db3 893d 696d 343d b3bb ae3c 044b cb3d
00000090: 8d3c ae3d 1756 843c e486 0b3d 21d3 8f3d
000000a0: 6ad6 663d abe4 913c e8f5 0e3d c613 9a3d
000000b0: 9fee 443d 7dee 513c 9844 813d 6638 c63d
000000c0: 4cbf 693d 9acc 893b e8fe 9d3d 6f8d d33d
000000d0: 2abc 743d 1ead 9a3c e698 7b3c 1706 7e3d
000000e0: 9456 6b3d 98ef 1e3d 21e9 083d 978a 8b3d
000000f0: fada 8e3d b8c6 46bc 77df 623d ef43 963d
0.06855656 0.024324995 0.05322802 0.097091444 0.051664494 -0.011063426 0.041956946 0.08018302
0.07054942 0.019218113 0.022404633 0.069488294 0.032426193 0.037380032 0.031002743 0.08695816
0.06185757 0.038260367 0.010098147 0.07871268 0.011175914 0.0286244 -0.012788002 0.043260578
0.07596034 -0.0037706406 0.047294494 0.0953718 0.06965646 0.034550983 0.0426061 0.06686671
0.06723688 0.044049654 0.021329736 0.099264175 0.08507643 0.016154332 0.03406419 0.070226915
0.056356825 0.017809233 0.034902483 0.07523303 0.04807913 0.012813208 0.06311911 0.09678726
0.0570672 0.0042052986 0.07714635 0.10329711 0.05974976 0.018881377 0.015356278 0.062017526
0.057455614 0.038802713 0.033425454 0.06813543 0.0697536 -0.012132339 0.055388894 0.07337176

0.conv1.lin_l.bias f4 [16]
00000000: c3d8 d43c a84a b53d 0f94 8e3d 7b35 6c3d
00000010: c190 723d 7163 683d 80f3 493d 4d69 b33c
00000020: c3eb 463d 1a8f 193d 2dbf 803d bfde 9e3c
00000030: fd97 253d 71d3 673d a391 3a3c 2643 723c
0.025982266 0.0885213 0.06961834 0.05766819 0.05922008 0.05673546 0.049304485 0.021900797
0.048564684 0.037489988 0.06286464 0.019393323 0.04042815 0.05659813 0.011387262 0.014786517

0.conv1.lin_r.weight f4 [16, 4]
00000000: e967 ee3d 246d 50ba 11f2 783d e19e b23d
00000010: f29c a83d 5fef 2c3d bfed 113d 037a 0d3e
00000020: b703 df3d 8dd3 923d 5695 663d 71cd cf3d
00000030: ca45 f93d 3f37 903d 97d8 2d3d 382e c93d
00000040: 6e94 ec3d 42bd 0e3d 6433 fc3c 7fc7 eb3d
00000050: 630a bb3d bf6a 633d afd3 803d fcb4 003e
00000060: 08d5 e23d 54b1 7f3d 5cc4 833d dfe7 1a3e
00000070: 7d93 0b3e dc94 753d fc77 653d 6854 123e
00000080: ceac ce3d ed64 613d 0be9 8a3d 00cc e33d
00000090: ff48 a93d ef8d 143d feb1 143d 3af4 b13d
000000a0: 9184 c73d db70 bf3c 985a 833d 0c91 c23d
000000b0: 34d8 913d 0818 8e3d ea8e 853d 4848 d13d
000000c0: 04ef da3d 5edf 033d d5c8 093d 4eec 783d
000000d0: f6e4 c03d 3c66 583d 39b4 9e3d edde 8f3d
000000e0: 1c96 9e3d 54ae 413d 0462 583d ee9a 0d3e
000000f0: 7cb9 ef3d e44c 46bb 36ea 9d3d d78a a63d
0.11640913 -0.00079508335 0.060777728 0.0872171 0.0823306 0.04222047 0.035627123 0.13816075
0.108893804 0.07169256 0.05629476 0.10146607 0.12171514 0.07041787 0.042442884 0.09823269
0.11551748 0.03484846 0.030786224 0.1151266 0.091328405 0.055521723 0.062903754 0.1256904
0.11075789 0.062424973 0.06433937 0.15127514 0.13630481 0.059956416 0.05602263 0.14290011
0.10091554 0.05502789 0.06782731 0.11122894 0.08265876 0.03626817 0.03630256 0.08689161
0.09742082 0.023369243 0.06413764 0.09500322 0.071213156 0.06938177 0.06521399 0.10218865
0.1069012 0.03219544 0.033638794 0.060772233 0.09418671 0.052831873 0.077492185 0.070249416
0.07743475 0.047285393 0.05282785 0.13828632 0.117053 -0.0030258233 0.07710688 0.0813195

0.conv2.lin_l.weight f4 [8, 16]
00000000: 2e83 053c 768f f73b f8e5 6b3b 2e0d 6a3c
00000010: 4117 8a3c 9fac 843c 3a84 893c afc1 bb3c
00000020: a471 7b3c 7b3d fe3a 28fd ac3c 00b0 46ba
00000030: 0885 d43c ff8c a93c ba8a a03c b8aa c23b
00000040: a683 27bc b3e2 2b3c 9277 a4ba 4848 44bc
00000050: 6df2 ebba fa7d 513b f1a0 223b 480a 08bc
00000060: 2a0e 90bb 4cff 8dbc 5756 c43b 08a1 5ebc
00000070: 3833 8dbb e491 8cbc 7b13 67bc 4886 fbba
00000080: 416f bd3c a172 4ebc f6d1 a33c aa62 f1bb
00000090: ea6c 523b c10b a23b f3ad 583c e40a 083c
000000a0: a9fa 343c e46d 303c c856 ea3c 9e26 873c
000000b0: ceac 443b a468 2fbb 03d1 b33c c579 803c
000000c0: 9922 01bc 4ef8 a53c 0f44 c4b8 8da5 2ebb
000000d0: 54bc fc3b ee47 75bc 9af1 34bc 9253 cabb
000000e0: fdcd 50bb 3818 193c f628 243a 2eb9 a13b
000000f0: fb2c babc e630 8ebc 962b 9cbc 6461 fbba
00000100: f4a8 b13c 41a4 863c 8aab 3c3c 78c4 1f3c
00000110: cedf 903c 730a 413c eaff 903c 056a 943b
00000120: 0db9 ce3c 321e 2c3d 58b4 943c 1181 e03b
00000130: 7f22 733c cfb2 8a3c 332d a63c e956 c33c
00000140: 4015 763c 6d07 5b3b 26c2 d63b 433f 33bc
00000150: f82c 7fbb 5caf 17bc a902 333c 98b9 883b
00000160: 8e93 3c3c a4f3 9f3b 7334 8b3c 78f0 f0bb
00000170: 5a0a 33bc 4ab0 6a3a d494 aa3b 65b7 a63b
00000180: c12b bfbc 49f8 c9bb 8d11 3dbb 83e9 57bc
00000190: 1285 713a 6d01 3ebc bd5c 35bc 1a42 46bb
000001a0: 0972 0e3c c1a6 dabb f8ce e33b da73 44bb
000001b0: efdc 55bc a470 cbbc 9de6 a5bc e1ec ba3b
000001c0: 455b 6d3c c311 cc3b 4eb3 e6b9 0188 b43c
000001d0: 2ca8 b33c 048e ae3b a404 823b dc20 b03c
000001e0: 9226 0c3c 962d 293c 2de9 cd3c 5186 853c
000001f0: 7b7a a33b 543d 7dbb e11a 05bc 5cc8 4dbc
0.008148951 0.0075549437 0.0035995226 0.014285369 0.016856791 0.016195593 0.016786683 0.022919504
0.015346918 0.0019396985 0.021116808 -0.00075793266 0.02594234 0.020697115 0.0195974 0.0059407614
-0.0102242585 0.010491061 -0.0012547842 -0.011980124 -0.0018001326 0.0031965957 0.0024815167 -0.0083032325
-0.0043962197 -0.01733365 0.005991738 -0.0135881975 -0.0043090843 -0.01715941 -0.014103766 -0.0019189799
0.023124339 -0.012600572 0.019997578 -0.007366498 0.0032108375 0.004945249 0.0132250665 0.008303378
0.01104609 0.0107683875 0.028605834 0.016497906 0.0030010226 -0.0026765252 0.02195025 0.015683064
-0.007881784 0.020260002 -9.358685e-05 -0.002664897 0.00771288 -0.014970763 -0.01104393 -0.006174513
-0.003186106 0.009344153 0.0006262207 0.004935405 -0.022726526 -0.017357301 -0.019063752 -0.0019178805
0.021687008 0.016435744 0.0115155075 0.009751432 0.017684843 0.011782276 0.017700154 0.00452924
0.025234723 0.042020984 0.0181524 0.0068513234 0.0148397675 0.016930966 0.020285225 0.023845153
0.015019715 0.0033421174 0.006553906 -0.010940376 -0.0038936716 -0.0092581175 0.010925927 0.004172515
0.011509789 0.004881339 0.016992783 -0.007352885 -0.010927761 0.0008952661 0.00520573 0.0050877803
-0.023336293 -0.006163631 -0.0028849572 -0.013178232 0.00092132494 -0.01159702 -0.011069474 -0.0030251802
0.00869418 -0.0066727106 0.006952163 -0.002997628 -0.013053163 -0.024833985 -0.020251567 0.0057045077
0.014487092 0.0062277033 -0.0004400261 0.022037508 0.021930777 0.005326988 0.0039678384 0.021500044
0.008554118 0.01032581 0.025135601 0.016299399 0.004988966 -0.003864129 -0.008124084 -0.012559976

0.conv2.lin_l.bias f4 [8]
00000000: 2cef 803b 16a3 c3bc 4836 563c 1f03 0f3a
00000010: f375 8b3c 5f69 98bb ac56 69bc ee42 673b
0.0039347615 -0.023881476 0.013074465 0.0005455482 0.017024016 -0.004651233 -0.014241856 0.0035287696

0.conv2.lin_r.weight f4 [8, 16]
00000000: 97e7 ce3b b121 3c3c 3d39 43bc bd2d ee3b
00000010: 20ec c23c 7bb3 1c3c 89fc 00bb fd02 6b3b
00000020: 5d71 633c f8f0 48bc be10 163c bf0f 133c
00000030: 3f72 c63c ff2e 4e3c d6ff d43c 4681 4a3c
00000040: f6c1 51bc 80db a93b 033d f0bb 6eb4 4fbc
00000050: f4df 8abb 6aa7 a0bb a8b5 bc3a 8116 b0bb
00000060: b8c4 6ebb 8cb9 4cbb 29ab 8ebc c37b 27bb
00000070: 917c 89bb 8362 d0bc e1c6 5abc b875 87bc
00000080: e9c1 853c 4e6c cdbb c910 bf3c 7619 9f3b
00000090: aa62 ef3b 9ff8 723c 26c1 c53c cad9 3dbb
000000a0: 7b6b aab8 103d 8d3b 8da2 543c f8cd 753c
000000b0: 20b8 ae3c ad1c 12bb 7d22 e13b c9cc 8abb
000000c0: 1d7c 863c 0aab 313b b466 2fbc 5680 02bc
000000d0: ca27 b03c 6f50 5abc f47d 4aba cf11 cfbb
000000e0: 5cf4 20bb eee7 eb3a 5c67 0cbc c845 d13b
000000f0: 9a99 86bc bb74 2bbb 85f7 7cba fd28 2dbc
00000100: d335 e63c 1e76 8c3c 1819 c73c e8c3 ae3c
00000110: 94cf d03c e3bb 323b bb72 183d ae8e 493c
00000120: 8aa4 823b f14d 2a3c d34c 04bc 3a44 05bc
00000130: 0dcb 353c 2445 433c 2c9d 6b3c cac8 9f3c
00000140: ffdb 103c d830 573c e6bf 21bc 5606 78bc
00000150: 4ac1 9b3c 8511 403a f3b4 36bb 064e c43b
00000160: c10d 223c e4e9 18bb b131 683c 8f08 10ba
00000170: b7b6 86bb 4460 2ebb ba30 57bb f244 b03c
00000180: 03ea 33bb ce6a 83bc 08bc 69bb 0c9f 11bc
00000190: 7b83 983a b68a 98bc a13a eaba 00b7 3b3a
000001a0: 88f3 a5bb 7d09 39bc 2e36 c73b 9c95 aebc
000001b0: dc74 0bbc 1f4f edbb 74c2 aabc df9c 61bc
000001c0: 34f8 413c 1158 acbb 7a6c 353c 3b1d 88bb
000001d0: 3bd9 bb3c 0119 bb3c f69b c03b 9637 9d3c
000001e0: ea62 28bc 98b1 44bc 9411 5a3b bbc2 5e3c
000001f0: c489 1a3c f1e2 303a 8a9a c53b aab3 1bbc
0.0063142288 0.011482642 -0.011915502 0.007268636 0.023794234 0.009564276 -0.0019681773 0.0035859935
0.013882008 -0.012264483 0.009159265 0.008975922 0.024224399 0.012584447 0.026000898 0.012359923
-0.012802592 0.005183637 -0.007331492 -0.012677295 -0.004238123 -0.00490277 0.00143974 -0.0053737764
-0.0036433171 -0.0031238524 -0.0174156 -0.0025555945 -0.0041957577 -0.025437599 -0.0133530805 -0.016535625
0.016327815 -0.0062690144 0.023323433 0.00485533 0.007305463 0.014829784 0.024139952 -0.0028968924
-8.1262515e-05 0.0043102577 0.012978208 0.01500272 0.021328032 -0.0022294924 0.0068705664 -0.004235838
0.016416604 0.0027110004 -0.010705639 -0.007965168 0.021503348 -0.013324841 -0.0007724457 -0.0063192616
-0.0024559712 0.0017998198 -0.008569565 0.0063864924 -0.016430665 -0.0026162106 -0.00096499204 -0.010568854
0.028101837 0.017146166 0.024303958 0.02133365 0.025489606 0.0027272634 0.03721879 0.012302084
0.0039868997 0.010394559 -0.008074957 -0.008133942 0.011095774 0.01191834 0.014380734 0.019504923
0.008841514 0.013134204 -0.009872412 -0.015138229 0.019013066 0.00073268294 -0.002787885 0.0059907464
0.0098909745 -0.002333277 0.014172004 -0.00054944394 -0.004111137 -0.0026607672 -0.003283544 0.02151725
-0.0027452714 -0.01604214 -0.0035665054 -0.008888017 0.0011635864 -0.01862083 -0.0017870256 0.0007160753
-0.0050644316 -0.011293766 0.006079457 -0.021311574 -0.008511748 -0.007242098 -0.020844676 -0.013770311
0.011838961 -0.005259522 0.011073226 -0.004153875 0.022930732 0.022839071 0.005877967 0.019191545
-0.010277489 -0.012005232 0.0033274638 0.013596232 0.00943226 0.0006747684 0.0060303854 -0.0095032845

1.conv1.lin_l.weight f4 [16, 4]
00000000: cd09 003d da99 7b3c a657 d83b 69bc da3d
00000010: 74ce a33d 45fc b83c f3fc 823d e4ea c53d
00000020: 4abe 873d 241c 363d 2310 353d a1ac d63d
00000030: f389 a83d 6870 4b3d fa06 603d cc28 ae3d
00000040: 16ab ab3d 6262 853c c641 5f3d 77c5 d33d
00000050: 5826 9e3d 0387 fc3c 3dab 813c bdaf bf3d
00000060: 9ebc 9c3d 1c43 2e3c 539a 843d e442 ae3d
00000070: ea29 893d 6907 7a3c 6a06 273d 7a2b eb3d
00000080: 2085 c13d bcaa 133d 72a3 cc3c b7fc 973d
00000090: 03a6 883d 05f0 4c3c e1c2 2c3d 3477 9a3d
000000a0: 2f27 bd3d d12b 033d 3897 5f3d c176 2b3d
000000b0: 5f43 873d 81a5 32bc 1636 473d c3af c33d
000000c0: 3dea 543d ef66 bf3a e88d 853d e6d6 993d
000000d0: 7f54 e33d 3d90 b63c e983 6d3b 9c1f b83d
000000e0: 7394 b93d 0acf f43a 2e6c e23c 5647 083e
000000f0: 25fb b23d 6da2 363a ffa5 083d 8a94 c03d
0.031259347 0.015356505 0.0066022454 0.10680468 0.07998362 0.022581229 0.063959025 0.096639425
0.06628092 0.04446043 0.044204842 0.10482145 0.08229437 0.049667746 0.054694153 0.08503875
0.083822414 0.016282264 0.054506086 0.10340398 0.07722157 0.030826097 0.015828723 0.09359691
0.076531634 0.010636117 0.064747475 0.08508852 0.066974476 0.015260556 0.0407776 0.11482902
0.0944922 0.036051497 0.02498028 0.074212484 0.06672289 0.012508397 0.04217804 0.075422674
0.09235989 0.03202421 0.054587573 0.0418613 0.06604647 -0.010903717 0.048635565 0.09555008
0.0519812 0.001460282 0.06521207 0.07511692 0.11100101 0.022285575 0.0036241955 0.08990404
0.090615176 0.0018677425 0.027639475 0.13308463 0.08739308 0.00069669524 0.03336143 0.094033316

1.conv1.lin_l.bias f4 [16]
00000000: 388f 1b3d 24f3 353d 6158 923d 9a7a 913d
00000010: 6ede 9a3d 2a8d 643d 3137 613d 2f84 8a3d
00000020: fdf3 7e3d cfcd 293d 1835 6d3d a460 b33d
00000030: 9fa1 7b3d 4476 a63d 7cdc a83d 4ed5 0e3d
0.03797838 0.04442133 0.07145763 0.071034625 0.07561956 0.055798687 0.054984275 0.06763493
0.062244404 0.04145604 0.057911962 0.08758667 0.06143343 0.08128026 0.08245179 0.034871392

1.conv1.lin_r.weight f4 [16, 4]
00000000: cebb db3d 1a17 1c3d 40a2 973d dd95 0b3e
00000010: f723 ea3d 5b17 863c d83a ba3d 45a6 103e
00000020: 1f93 bf3d bec6 063c 5567 0b3d c488 153e
00000030: 9865 ca3d 63b3 da3c 1c25 393d afe9 0f3e
00000040: a8b8 cd3d ef0f 073d 945d 803d 32dd 0c3e
00000050: 60d3 d63d 5415 db3b 3e6e 973d 7f78 f83d
00000060: 7381 e03d e59f c93c c636 273d 41a8 e23d
00000070: 7482 023e c92c 563d f764 673d 2ee5 163e
00000080: 0ebd a73d dcde 7f3d 18cf 5c3d 84d8 bc3d
00000090: 6e92 c93d 1931 8f3d 5d4e ae3d 8888 da3d
000000a0: 6975 bd3d 1417 363d 2188 f43d e80e c93d
000000b0: 0181 cc3d 4c78 2a3c efc1 6b3d 24f8 e43d
000000c0: 848c b93d 2656 5f3d 54bb 903d bb31 123e
000000d0: 176b ec3d 8375 a23d c94b 853d 5864 123e
000000e0: 4c8a c93d ee6e b93c 04df e33d 84c9 f23d
000000f0: c688 b43d 9ce0 2d3d fde6 bf3d 01b3 dc3d
0.1072918 0.03810797 0.074039936 0.13631387 0.11432641 0.016368559 0.09093255 0.14125927
0.09354233 0.008226095 0.034034092 0.14602953 0.09882659 0.026696866 0.045201406 0.14053987
0.10044986 0.03297418 0.062678486 0.13756254 0.10489535 0.006685892 0.07394074 0.12132358
0.109621905 0.024612376 0.04082372 0.11067248 0.12745076 0.052288804 0.056492772 0.14735863
0.08190356 0.062468395 0.053908437 0.092209846 0.09842382 0.069917865 0.0851104 0.106705725
0.0925091 0.044455603 0.11940027 0.09817296 0.09985543 0.010404658 0.057557996 0.111801416
0.09060004 0.054525517 0.0706698 0.14276783 0.11543863 0.0793257 0.065085955 0.1429609
0.09840831 0.022635903 0.11126521 0.11854842 0.0881515 0.042450532 0.093702294 0.1077633

1.conv2.lin_l.weight f4 [8, 16]
00000000: e90f fe3b 4ec2 04bc 7461 5f3c 7919 21bb
00000010: 9fac 7b3b b35c 003c 7d02 143c a509 d53c
00000020: 9bf3 a83b a764 0d3c 14de 3238 7461 823b
00000030: 9152 8c3c 56e6 cc3c 8a7a 77ba ae79 70b9
00000040: 4514 b53c cac9 55bc 803b 4ebc 1c09 ae3a
00000050: c569 29bc fd51 8ebb bfd8 22bc 2f22 9abb
00000060: 0433 c3bc 83e0 8aba ced3 6fbb fa7b acbb
00000070: cc95 0b3b 8e1c 143c 4de0 233c 72ca 86bc
00000080: ad0b 373b dfe1 6c3b b476 e03b 72bb 273c
00000090: 2194 893c 9b3c 2abc 0860 cb3a bfa4 9e3b
000000a0: 6511 333a f381 983b 06d8 ec3b 521e dbb9
000000b0: 9f50 81bb 6442 3fbb 26ea f3ba 0148 81bb
000000c0: 6436 bc3b 8392 64bb 7f5f f13b 0c60 dcbb
000000d0: b1d0 813c b7cc 30bc e398 b93c ed57 263c
000000e0: e3ea 9e3b e308 c73b 8e28 643b 613a 67bc
000000f0: f409 063d b041 003c 216b d4bb 648a 97bc
00000100: ae5e 62bc ade7 c03a c416 843c b173 63bb
00000110: f682 9bbc 6cd6 6e3c dfa8 773c fcf4 973b
00000120: 3690 1e3c 9a88 44bb c3d2 78ba bd1f 9fbc
00000130: 6c3b 693c 76ef 9c3c 8eff b1bb 8938 a1bb
00000140: bc12 08bc e611 0cbd 449d 5cbb 7c36 fc3b
00000150: 6cc8 85bc bddd 89bc bb69 fcbb 45af f3bc
00000160: ca5b a03b 33ae 703c 38a1 49bc 2d0f 98bc
00000170: ef23 0a3c 3143 61bb 401d 39bc daa5 2cbd
00000180: 21e8 62ba 0762 8dbb b1d6 68bc 38a0 7c3c
00000190: fd8d b1bb 76d5 d33b 60a0 fc3a 1933 89bb
000001a0: 7353 0f3c ba52 8f3b c69b 33bc 1dd2 a2ba
000001b0: e33d 8b3c a881 163b e5e6 c33b bcb9 773c
000001c0: 83f5 31bb eda1 353b 71cd 7d3c 63cc 463c
000001d0: 141d 743c 3fc5 03bc 98ea 89bc fb04 09bb
000001e0: db63 093b c5df 2b3c 5d6e c53b e17b ab3b
000001f0: 3c13 803c 2e45 05bb 71fc dabc 26c3 a43b
0.0077533615 -0.0081029665 0.0136340745 -0.0024581833 0.003840245 0.007834601 0.009033796 0.026005575
0.005155993 0.008629954 4.2645333e-05 0.0039789025 0.017129214 0.025012176 -0.0009440562 -0.00022933513
0.022104392 -0.013048599 -0.012587428 0.0013277861 -0.010340159 -0.00434327 -0.009939372 -0.004703782
-0.023828037 -0.0010595474 -0.0036594751 -0.0052638026 0.0021299003 0.009040011 0.010002208 -0.016453955
0.0027930543 0.0036145372 0.006850088 0.010237562 0.016794266 -0.010390426 0.001551629 0.0048414166
0.00068309 0.004654163 0.0072279004 -0.00041793525 -0.0039463784 -0.002918386 -0.001860921 -0.003945351
0.0057437886 -0.0034877367 0.0073661203 -0.006725317 0.015846582 -0.010790995 0.02265591 0.010152799
0.004849778 0.0060740574 0.0034814212 -0.01411304 0.032724336 0.007828161 -0.0064824973 -0.018498607
-0.013816519 0.0014717482 0.016124137 -0.0034706409 -0.018983345 0.014577489 0.015115946 0.0046373587
0.009677937 -0.0029988647 -0.0009491855 -0.019424314 0.014235359 0.019157153 -0.005432076 -0.0049200696
-0.008305248 -0.034196757 -0.0033663074 0.0076969247 -0.01633092 -0.016829366 -0.0077030337 -0.029746661
0.0048937546 0.01468997 -0.012306504 -0.018561924 0.008431419 -0.0034372325 -0.011298478 -0.042150356
-0.0008655806 -0.0043146643 -0.014211343 0.0154190585 -0.0054185377 0.0064646555 0.001927387 -0.0041869995
0.008747923 0.0043738754 -0.010962432 -0.0012422238 0.016997283 0.0022965465 0.0059784525 0.015119966
-0.0027154393 0.0027714923 0.015490876 0.0121336905 0.014899511 -0.008042633 -0.016835496 -0.002090751
0.002096406 0.0104903625 0.006025119 0.0052332734 0.015634172 -0.0020335424 -0.026731702 0.0050281463

1.conv2.lin_l.bias f4 [8]
00000000: 2e00 b63b 2e88 933b 5c0d ba3a b8c9 e43a
00000010: 9c3c a1bb e66b a3bc b804 3f3c 8a82 37ba
0.0055542206 0.004502318 0.0014194655 0.0017455136 -0.0049205553 -0.01994891 0.01165884 -0.0007000348

1.conv2.lin_r.weight f4 [8, 16]
00000000: a58b ae3c 884e b43c ee83 4d3c 8cd5 213c
00000010: 00d7 bcba 6802 363c fd3b 353c 4428 373c
00000020: 0823 003c c3f5 ee3a a63f 8ebc 003e b0ba
00000030: baf4 813c fbb9 6fba d475 4a3c f625 a939
00000040: 1ddc f4bc 43a6 fabb 296b c03a b880 0cbc
00000050: 3d18 93bc 1b27 b53a ddb0 82bc b8a3 0fbc
00000060: 9a10 bdbb 8de5 643c 317e 24bc bc04 153b
00000070: 5f5e 3f3b f3e4 413c 1321 2b3c 0601 5fbc
00000080: e16a 2f3c ef7b 923c 0f0a fbbb 26b6 303b
00000090: 1468 1cbc ae04 1c3a 4c6d 08bb dcd3 b13a
000000a0: 43c7 003b ff70 d93b 3b8c e0ba ec49 e939
000000b0: 762a c9ba 44c1 ddbb 12a0 9c3c 852d babc
000000c0: e48a c93b c2c0 a13b 97d9 6fbc e6cf 6a3c
000000d0: 92c4 babb e0f4 e13a ecc9 c5b9 37a5 333c
000000e0: 3f40 a73c ea28 f63c 5552 9bbc 7d06 ba3a
000000f0: dcb7 933c 94ab 6b3b d71d a9bb 21d5 96bc
00000100: f489 e73b 4f9d 13bc 3c6f 293c 31cf 213b
00000110: 4807 12bc b8ae 403c dc12 323c 1320 d43b
00000120: 1a72 51bc a16b 65bb dfad 35ba e8ae 873c
00000130: 48b9 d43b ef6d 123c 1b12 73bc 5187 1c3d
00000140: 86e2 1f3c 6461 42bc d4e7 79bc a4c6 3dbc
00000150: 26d1 54bc 4081 5a3c 52b2 2abc db64 d4bc
00000160: 68bf 15bc 81dc 023c ee5b c0bb 80f6 3fbc
00000170: 7fd8 10bc d25f 4dbb dbed 063c 08e7 04bc
00000180: 8038 c6bb a3e2 653c 246b 9fbb 0a3a c9bb
00000190: 6cba 25b9 3374 013a dc9e a43a 8f1f 183c
000001a0: 67f8 913b c09f debb af77 11bb 29ea bc3b
000001b0: bb42 0c3c cca7 b53b 8e2e b63c f203 593c
000001c0: 9250 2a3c e19e c13c 0194 363c d446 58ba
000001d0: 291c b5b9 01ef 9b3c a301 5bbb 1507 103c
000001e0: 86ca 983b 01d3 e23b d72a 533c a406 f6ba
000001f0: a506 283b 4022 abba ec81 f0b9 2e36 c03b
0.021306822 0.022010103 0.0125436615 0.009877574 -0.0014407337 0.011108972 0.011061666 0.011179034
0.007820852 0.0018231202 -0.017364334 -0.0013446212 0.015863765 -0.000914484 0.012357194 0.00032262475
-0.029890114 -0.0076492145 0.0014680374 -0.008575611 -0.017955894 0.0013820858 -0.015953476 -0.008767061
-0.0057698013 0.013970745 -0.010039852 0.0022738418 0.0029200537 0.011834371 0.010444897 -0.013611084
0.010706634 0.017881362 -0.007661111 0.0026964038 -0.0095462985 0.0005951625 -0.00208171 0.0013567167
0.001965002 0.0066357846 -0.0017131636 0.000444963 -0.0015347737 -0.006767424 0.019119296 -0.022726784
0.0061505903 0.0049363086 -0.01463928 0.014331793 -0.0056997025 0.0017239116 -0.00037725212 0.010964683
0.020416377 0.030048806 -0.018960157 0.0014192607 0.018032007 0.0035960423 -0.005161028 -0.018412175
0.007066006 -0.009009673 0.010341462 0.0024690146 -0.008912869 0.011760406 0.010868754 0.00647355
-0.012783552 -0.0035006779 -0.0006930511 0.016562894 0.006491814 0.008937343 -0.01483586 0.038214985
0.009758597 -0.01186404 -0.015253026 -0.011583004 -0.012989318 0.01333648 -0.010418491 -0.025926998
-0.009139873 0.007987143 -0.005870334 -0.011716485 -0.008840679 -0.003133763 0.00823542 -0.008111723
-0.006049216 0.014031085 -0.004865067 -0.006140952 -0.00015805074 0.00049382745 0.0012559551 0.009284868
0.0044546607 -0.006793946 -0.002219658 0.0057652188 0.008560832 0.0055436846 0.022238996 0.01324557
0.010395186 0.02363533 0.011143685 -0.00082503003 -0.0003454399 0.019034864 -0.0033417724 0.008790751
0.0046628146 0.0069221263 0.012888632 -0.001877029 0.0025638726 -0.0013056472 -0.00045873167 0.0058658337

2.conv1.lin_l.weight f4 [16, 4]
00000000: 68c2 ab3d 01e9 543c 613b 893d 083d e03d
00000010: a651 7f3d c837 84ba 6f77 453d 2475 e73d
00000020: 845b 5e3d 2efb f5b9 3a7c 553c 4163 df3d
00000030: fd86 9b3d 031d ce3c 9cee a73c 5a59 fe3d
00000040: 4d03 ad3d 3b13 43bb 5c1d 5c3c 769a d63d
00000050: 2fb5 3f3d 8afd b0b9 a623 393d 9c73 f13d
00000060: d690 383d bdd1 9ebc 71af 5f3c 8d73 b33d
00000070: a8da 923d 0ee6 bf3c d8f2 603d d22e d83d
00000080: a9ff 643d 5855 2abc 69fd 7b3c cd5c a73d
00000090: 3171 863d bf8e 903c db12 373d 777f bd3d
000000a0: 1a21 0a3d 82bf 87bc 11f0 043d 0a9e ec3d
000000b0: 0789 183d 8334 ccbb 9ce8 293d e62a 9b3d
000000c0: edc7 893d 28bb 2e3d 77d5 773d 366d f63d
000000d0: 69c7 813d 1177 443d 7464 473d ad8b 013e
000000e0: 724d 533d 0a68 903a 6f37 2b3c 730f 023e
000000f0: ac5b 743d dada b63c 6c92 753d 0cec 9e3d
0.083866894 0.012995006 0.06700779 0.10949141 0.062333725 -0.0010087425 0.048209604 0.1130164
0.054286495 -0.00046917185 0.013030106 0.10907603 0.07594106 0.025160318 0.02049952 0.12419386
0.08447895 -0.00297661 0.013434734 0.1047868 0.04680365 -0.00033758237 0.045200013 0.11789629
0.04506 -0.01938712 0.013652668 0.08762274 0.071706116 0.023425128 0.054919094 0.10555805
0.05590788 -0.010396324 0.015380242 0.08171997 0.06564558 0.017646192 0.044695716 0.092528276
0.033722974 -0.01657081 0.032455508 0.11553581 0.037240054 -0.006231846 0.0414816 0.075765416
0.06727586 0.042658955 0.06050631 0.12032549 0.063368626 0.047965113 0.048679784 0.12650938
0.05158753 0.0011017334 0.010450228 0.12701206 0.059657738 0.022321153 0.059954092 0.07759866

2.conv1.lin_l.bias f4 [16]
00000000: 33c6 753d d19a 4d3d ba05 043d b7fa 5b3d
00000010: 00e9 a93b 89f8 363d ef14 0b3d 659f 803d
00000020: 0585 3a3d 5f67 863d ece9 af3c 131d 223d
00000030: db48 8a3d 57bc 633d 51b3 9d3d 6ac9 2c3d
0.06000347 0.050196473 0.032232024 0.053705897 0.0051852465 0.044670615 0.03395551 0.06280402
0.045537014 0.06562685 0.021473847 0.03957851 0.06752177 0.055599537 0.077002175 0.04218427

2.conv1.lin_r.weight f4 [16, 4]
00000000: 3233 c63d 0948 253d fa40 123d 432b ef3d
00000010: c37f c33d 0f14 6e3d 81a9 d03c f2cc 093e
00000020: 8cfd 943d bbc3 343d 2a97 893d a633 e13d
00000030: 618b d93d 0110 2b3d 2a09 713d 570e df3d
00000040: da79 d13d 749d 123d 9252 e63c f728 fa3d
00000050: 54e4 a73d 95d2 a23d 2950 8d3d 7aeb e13d
00000060: ed4c 023e 7c99 893d ac4f 0f3d aabe 063e
00000070: ef58 ec3d 8464 2b3d 0010 6f3d adc2 fc3d
00000080: 1650 db3d 9fbb be3c 0f26 dc3c 9d78 d53d
00000090: 249b a13d 4903 fa3c 9f1f b63d 9710 003e
000000a0: 3fcc 8f3d d413 963c afd7 663d 6655 113e
000000b0: 29b6 d13d aa4e a83b 5c2b bc3d ca35 ea3d
000000c0: 9bee bb3d 2869 383d 7616 aa3d 0c2c e83d
000000d0: 435c 9b3d 77e6 2c3d 49c2 223d 5215 ed3d
000000e0: 4126 ca3d 76c5 6d3d bbfb 9a3d 288c c13d
000000f0: e016 d53d 7144 7a3d 25ed ad3d 48f8 0a3e
0.096777335 0.0403519 0.035706498 0.116781734 0.09545853 0.058124598 0.02547145 0.13457087
0.07274923 0.044131976 0.067182854 0.10996179 0.106222875 0.04176331 0.05884663 0.10891407
0.102283195 0.03579469 0.028115544 0.12214845 0.08197847 0.079503216 0.06900055 0.11031242
0.12724657 0.06718728 0.03498809 0.1315867 0.115404 0.041843906 0.05836487 0.12341819
0.107086346 0.023282824 0.026873617 0.10423396 0.07890919 0.030519145 0.0889275 0.12506329
0.07021379 0.018320002 0.056358036 0.14192733 0.102398224 0.0051363306 0.09187958 0.11436041
0.0917637 0.04502216 0.08305065 0.11336526 0.07585957 0.042211976 0.039736066 0.11576332
0.098705776 0.05804964 0.07567545 0.09450561 0.10404754 0.061100427 0.08492497 0.13571274

2.conv2.lin_l.weight f4 [8, 16]
00000000: 88a6 173a 2e26 5b3c f8c3 c3bb 2e00 4a3c
00000010: 5cf2 0fbb 3d34 723b c4ee 373c 2d0d afba
00000020: d289 78b9 c642 563c d8a5 943c ede3 be3c
00000030: 2f14 7bbb e139 6d3c a444 52b9 b329 1f3b
00000040: e8b8 31bb 6c12 993c 748f aa3b e69a c43b
00000050: d2d8 af3b 0fcc 533b 9c58 24bb 05d3 c93b
00000060: f26b 8f3b a048 c93b 008c 9fb8 5c6b a4ba
00000070: 3d7c 47bc faf4 4abc 29e3 e03b 0490 cc3b
00000080: e161 e0bb 4a04 803b 31e3 68bc 7b17 0039
00000090: 871f 21bc e5af 29bb c017 b23c aafa c03b
000000a0: feff 07bc 3a59 353a 1c34 673c cf21 cebb
000000b0: 1a22 533b 3af7 5d3b ca20 3abb f20c 023c
000000c0: 9a7b cfbc 5c56 18bc ed63 92bc 130f 3ebc
000000d0: 6eae 283c df70 863b fbeb 54ba 0685 70bc
000000e0: ff54 e1bb d3ff 05bd 4dd5 d7bc 6cc6 c1bb
000000f0: b897 9fbc e648 193c 6f49 acbb a02b b8bc
00000100: 2e8f ea3b 6c38 3dba 8a9d a539 dc8e 533c
00000110: 8847 a5ba d715 1d38 cd84 dd38 5628 433b
00000120: 9c39 3c3c 09e3 43bb 326a be3c a8d1 593b
00000130: 1767 94bc 3779 86bc 4456 ccbb 912d 25bc
00000140: 7ff0 273c 5815 b63c a9e7 183c c6e9 a33c
00000150: a912 d33b d25e 993b 96dd c93b a1cf 3f3b
00000160: 8927 c83b f8a4 cdbb cd6e 703c 2de8 813c
00000170: c128 63bc 6ede 9d3b 03cd a43c 72f8 383c
00000180: 2342 803c 5b16 5cbc 0328 bdbc e9fe d73a
00000190: 0693 6bbc 5adc d0bb a6f3 803c f439 f43b
000001a0: ce43 2dbb a3e0 8abb 78a3 dd3b 10e4 1ebc
000001b0: cda5 e23b 0fd2 86bc 9161 9bbc 4f97 59bc
000001c0: 4058 d83b 8f6a 223c 7cda 13bb a146 31bc
000001d0: a1cc 6a3c 216d db3c 21bc 853a ca79 713c
000001e0: 8a5a e53b 2307 543c 0901 aa3c 7fb4 f63a
000001f0: 7eca 103c 56c6 093c c98c 06bc 74de 0abc
0.0005785008 0.013375802 -0.005974289 0.012329144 -0.0021964526 0.0036957406 0.01122636 -0.0013355367
-0.00023702465 0.013077443 0.018145487 0.023302043 -0.003831159 0.014479131 -0.00020052731 0.002428633
-0.002711827 0.018685542 0.005205089 0.0059999106 0.005366423 0.0032317673 -0.002507723 0.0061591887
0.0043768818 0.006142691 -7.607788e-05 -0.0012544203 -0.012175617 -0.0123875085 0.006863017 0.006242754
-0.0068476056 0.0039067613 -0.014214323 0.00012215778 -0.009834177 -0.0025892195 0.02173984 0.0058892565
-0.008300779 0.0006917898 0.014111545 -0.0062906514 0.003221637 0.0033869282 -0.0028400891 0.007937657
-0.025327493 -0.009297933 -0.017869914 -0.011600274 0.0102954935 0.0041028108 -0.0008122322 -0.014680153
-0.0068765874 -0.032714676 -0.026346827 -0.0059135463 -0.019481525 0.009355759 -0.0052577774 -0.02248174
0.0071581816 -0.00072181853 0.00031588628 0.012912478 -0.0012609819 3.7452057e-05 0.00010562837 0.002977868
0.0114883445 -0.0029889962 0.023243997 0.0033236537 -0.018115563 -0.016415222 -0.0062358696 -0.010081665
0.01025021 0.022226974 0.009332576 0.020008933 0.0064414334 0.004680493 0.0061604483 0.0029268044
0.0061082286 -0.0062757693 0.014674854 0.01585778 -0.013864697 0.0048177755 0.020117288 0.011289703
0.015656536 -0.013433064 -0.023090368 0.0016479167 -0.014378315 -0.006373924 0.01574118 0.0074531976
-0.002643812 -0.0042382046 0.0067638718 -0.009697929 0.0069167376 -0.016457586 -0.018967422 -0.013280704
0.006602317 0.009913101 -0.0022560647 -0.010820062 0.014331014 0.026785435 0.0010203162 0.014738509
0.0069993185 0.012941155 0.020752447 0.0018822103 0.00883734 0.008409103 -0.008212277 -0.0084758885

2.conv2.lin_l.bias f4 [8]
00000000: 3ef6 0c3c 0fa2 18bc 66c1 5a3c 657e 9fbc
00000010: b87f cc3b ba49 033d 1c50 503c c4cf 5d3c
0.008603631 -0.0093159815 0.013351774 -0.01946945 0.006240811 0.032052733 0.012714412 0.013538305

2.conv2.lin_r.weight f4 [8, 16]
00000000: bb60 503c 2441 983c ccbb 643c adbe 75bb
00000010: 3dbc 85bc 0a59 c23c 48cf 5c3c 2992 333c
00000020: 0fc7 17bc 9604 0b3c 9a31 be3c 4db4 8f3c
00000030: 95a0 8f3c 93ef 093d cf54 813b 0566 243c
00000040: 84d6 0cbc 9ac2 ff3b 7779 663a 45ea 0b3c
00000050: 499a 723c 9aff ab3c 03a8 043c c9a6 c43c
00000060: 5f46 ad3c b799 283c 2c7e 29bb ddc0 c2bb
00000070: 3c09 dc3a b30d 4d3c cc99 083c 2c4c c5bb
00000080: d2e7 e8bb 1d66 3ebc 7c5e 4e3b bb1c f3bb
00000090: 714d 333c dfc7 2bbc 7bcc 303c df67 f5bb
000000a0: 97e8 7c3c e773 00bc 4005 2e3c 7b55 32bc
000000b0: c86c 9f39 af3b f0bb 6328 2e3c 5c11 453c
000000c0: ac33 93bc 4178 653b 3def 6d3a b42a 0cbd
000000d0: 0d8e 4bbc 23a9 c4bc 3388 e5b9 8039 a63a
000000e0: 8ff4 3bbc a39e d4bc 58a1 e8bb 6f6a 0abc
000000f0: 3c6b fd3b fa9e 91bc 211b ccbb 8f6e abbc
00000100: 74a1 ceba 6477 aa3b 4acb 08bc e10d d7bb
00000110: aca7 353c 7f67 8f3a ecb3 87bb fe8c 05bc
00000120: d781 c13a 64dd 97bc 46d2 4abb 6d65 1f3c
00000130: 0f89 553b 7678 4dbc 8612 09bc c53b 46bc
00000140: 67f5 a23b ffed 5f3c b603 0c3c 6af8 b43c
00000150: b8ba 363b f242 ba3c 972e d63b c540 163b
00000160: ba67 123c 563b afbb 185c 473c d2b0 cc3b
00000170: 8fe5 03bc c5a9 653c 4a5f a13c 5826 a63c
00000180: 1f11 0cbc 2df4 cebc 1cd5 b5bb aef1 723a
00000190: db84 0abc bd17 39bc 2411 993c 0650 8abb
000001a0: 26f3 17bc e4fa e7bc 8b2f 063c 6a2e b43a
000001b0: af4a 1c3b 1340 35bc 0371 b3bb b6ec b1bb
000001c0: f545 973a 08dd f23a 24c1 b2bb 0863 053c
000001d0: 5205 e0bb 0f8d eb3c 5b90 af3b 2c87 b1ba
000001e0: cd12 8fba cc27 a73c 0eb7 6f3b 0a79 4f3c
000001f0: 47de 8a3c b4d2 593c 3357 95bb 13a8 103c
0.012718375 0.018585749 0.01396079 -0.0037497685 -0.01632511 0.023724098 0.013477154 0.01096014
-0.009263768 0.00848498 0.023217011 0.017542029 0.017532626 0.03367574 0.0039468776 0.010034089
-0.008596066 0.0078051807 0.00087919034 0.008539741 0.014807292 0.020995904 0.008096698 0.02400531
0.02115172 0.010290555 -0.0025862558 -0.0059434013 0.001678742 0.012515473 0.008337449 -0.0060210433
-0.0071077133 -0.011621025 0.0031489423 -0.0074191964 0.010943756 -0.010484665 0.010790939 -0.007489189
0.015436313 -0.007840133 0.010621369 -0.010884638 0.00030407892 -0.0073313336 0.010629746 0.012028065
-0.017968975 0.0035014304 0.0009076482 -0.034220412 -0.012424004 -0.024006432 -0.0004377976 0.0012681931
-0.0114718815 -0.02595455 -0.007099312 -0.008448227 0.0077337306 -0.017776001 -0.00622882 -0.020926742
-0.001576467 0.0052022208 -0.008349249 -0.006562934 0.011087339 0.0010940878 -0.0041413214 -0.008151291
0.0014763427 -0.018538184 -0.0030948087 0.009728772 0.0032582914 -0.012540927 -0.008366233 -0.012099211
0.004973102 0.0136675825 0.008545807 0.02209111 0.002788229 0.022737 0.0065363157 0.002292679
0.008935863 -0.0053476496 0.012167953 0.0062466646 -0.0080503365 0.014017527 0.019698758 0.020281956
-0.008549004 -0.025262916 -0.0055490863 0.00092675805 -0.008454527 -0.011297164 0.018684931 -0.0042209653
-0.00927428 -0.028317876 0.008190046 0.0013746743 0.0023848226 -0.01106264 -0.0054761185 -0.0054298295
0.0011541235 0.0018529007 -0.005455153 0.008141287 -0.0068365717 0.028753785 0.0053577847 -0.0013544313
-0.0010915637 0.020404719 0.0036577615 0.012663135 0.016951693 0.013294864 -0.004557514 0.0088291345

3.conv1.lin_l.weight f4 [16, 4]
00000000: 9fbe 783d 1994 94bc 2929 4c3d 6531 df3d
00000010: 0fa1 a43d a3db f3ba 54d5 2f3d 0f46 df3d
00000020: 8de5 563d 937a 003d c035 b93c b141 fc3d
00000030: 8fac f53c d784 6c3c 5b96 e23c fdfa df3d
00000040: 7615 973d 6119 963c ba42 673d bcea e53d
00000050: 9860 363d 0973 ccbc 2c7d 393d 08c9 d63d
00000060: ddac 653d da9c 1e3c e43c 4d3d cc4b 163e
00000070: 1d87 3a3d 1224 da3c 0cbd 673d 282a d53d
00000080: 858f 463d 8e46 4b3b 0baf 9f3d 6d04 1f3e
00000090: f722 543d cda3 27bd d71d 573d a049 ea3d
000000a0: d676 4c3d e3b7 903b dec3 843d 76cb dd3d
000000b0: 05cc 883d 0f1d 773c 7b8f fb3c 94bc d33d
000000c0: 5e94 883d 2d89 ccba 6fce 003d a16b ab3d
000000d0: 05b2 5f3d ec5c 093d 6daf 673d 56b8 b63d
000000e0: 6d7e 993d 0a19 dd3b 297e 2a3d c85c b03d
000000f0: 544d 373d ad18 d83c 20d5 0d3d bc50 073e
0.060728665 -0.018137025 0.04984394 0.10898093 0.08038532 -0.0018604886 0.042928055 0.109020345
0.05246501 0.031366896 0.022608638 0.12317217 0.029989509 0.014435968 0.027659586 0.10936544
0.0737714 0.018322648 0.05646012 0.11226413 0.044525713 -0.024957197 0.04528539 0.104875624
0.05607306 0.009680951 0.050106898 0.14677352 0.04553901 0.026628528 0.056576774 0.10408431
0.048476715 0.0031017396 0.07797059 0.15529032 0.051791158 -0.040927697 0.052518692 0.11439824
0.04991802 0.0044164523 0.06482671 0.10829823 0.06679539 0.015082612 0.030708065 0.10338703
0.06668924 -0.0015604846 0.03144687 0.08370138 0.054613132 0.033535883 0.056563783 0.08921878
0.07494817 0.0067473697 0.041624222 0.086114466 0.04475148 0.026378954 0.03462708 0.13214391

3.conv1.lin_l.bias f4 [16]
00000000: 0ad6 543d 6527 693d 4888 943d 413e a53d
00000010: 6d91 fc3c da00 6c3d ee57 303d 8627 773d
00000020: fc7c 633d b118 c03d c46a af3d ac09 a03d
00000030: d89a 923d a698 7b3d 6d76 893d ea37 0b3d
0.051961936 0.056922335 0.07252556 0.080685146 0.030831063 0.057618 0.043052606 0.060340427
0.055539116 0.093797095 0.08565286 0.07814345 0.0715844 0.061424874 0.06712041 0.03398887

3.conv1.lin_r.weight f4 [16, 4]
00000000: c546 a83d fec8 1f3d aaba 3f3d a58f 093e
00000010: 28c2 c53d a39a e03c 9c70 9d3d 2c0a 053e
00000020: 854a 873d 087a 113d 1d4d 4d3d 1f7b 043e
00000030: 1dfc 953d 6348 f83c 2e5a 8c3d 9685 143e
00000040: bbb8 c73d 096c c53c cf1d 853d 3397 0c3e
00000050: 1a07 d93d b345 283d f349 a73d f7fe 0d3e
00000060: 089d df3d 91ee 583c b4fb 993d ae45 083e
00000070: 813a c23d 338f 013d 1bdb 2e3d 8ffc fb3d
00000080: 8761 a23d f6b4 db3c f676 873d 72c6 083e
00000090: 37b8 b83d ae97 763d e09e 913d 1c85 f13d
000000a0: 1189 a03d f380 a73c 33ed 7d3d 64d5 f73d
000000b0: 739c d43d 6af8 863d 9198 5f3d dd05 033e
000000c0: b660 bf3d 0ddc 2c3d 9a43 893d 72b2 ee3d
000000d0: 8eec ec3d bf86 8b3c 96e4 973d 4a79 043e
000000e0: a53b d53d 77b9 703d e551 803d 8e0e 033e
000000f0: 8d05 e53d d8af 013d 227d 873d 73f5 d03d
0.08216623 0.03901004 0.046808876 0.13433702 0.09656173 0.027417487 0.07687494 0.12992162
0.0660601 0.03551677 0.05012237 0.12937592 0.073234774 0.030307954 0.06853138 0.14504084
0.097520314 0.024099367 0.06499826 0.13729553 0.10597058 0.041082095 0.081684016 0.13866793
0.10918623 0.013240472 0.07518712 0.1330783 0.09483815 0.031630706 0.042689424 0.12304031
0.07928758 0.026819687 0.06614487 0.13356951 0.09019511 0.060203247 0.07110381 0.11792967
0.07838643 0.02044723 0.06199379 0.12101248 0.10381403 0.0659035 0.054588858 0.12795205
0.09344618 0.042202044 0.06702347 0.116551295 0.11568557 0.017032025 0.07416646 0.12936893
0.10411767 0.058770623 0.0626562 0.12798521 0.11182699 0.03166184 0.06615664 0.10203066

3.conv2.lin_l.weight f4 [8, 16]
00000000: 0cbf b2bb c412 5dbc cabf 20bc a5d4 753c
00000010: 29c1 e23b 9a6b 8439 293c ecb9 8163 c5bb
00000020: f7ae e7bb 8130 f53b a4da 08b9 06d0 7dbc
00000030: 0aae 4fbc 9222 43bc 8f52 50bc d761 5bbb
00000040: 00aa a73b 33d8 383c df04 5d3c 0080 32bc
00000050: fdf1 6e3b c662 1a3c 5a2f 55bc cdc4 b2b8
00000060: cd2d a93b 3aab 143c 0a34 493a 61dd 863c
00000070: 6fdb 183d d7ca d13b 2f99 6d3c e41b bebb
00000080: a0f7 adba 14bd 4ebc 3f1d 8bbb a1d8 53bb
00000090: 6649 99bc 8327 5ebc 7d41 4d3c 643e 333c
000000a0: 8369 4b3a b846 8d3b 0a0b 3d3b 211e 4abb
000000b0: c511 53bc ee6f e33b 6a7b 93bc bb6a 40ba
000000c0: 74e2 6b3c dceb a63b 5cc8 5e3b 1ffd a83c
000000d0: 208c 073c 1740 e4bb 40e7 673c 08f6 33ba
000000e0: 927a b13c 4079 be3c 3469 1ebc 3d89 033b
000000f0: f681 a43c d78d 013c fb05 993c c111 763c
00000100: 862d 38bc 2eeb 48bc 0577 7d3b c858 f2ba
00000110: 54ef 52bc 3281 2a3b 2d7b 2abc b142 803b
00000120: 0696 4d3c de79 96bc 88d0 a8bc e6d6 f53a
00000130: a506 923b af39 04bc 0839 aeba a63a 11bc
00000140: a09a a73c 40c4 6d3b 633f a73a 9441 903b
00000150: 5615 bc3c 68e3 c3bb d856 b83b c4ef 5c3c
00000160: 6ce8 cfb9 8a69 57bb c063 7ebb e0d9 f53b
00000170: ccfd 3e3c 4ede be3b bf8a 38bc 85a3 82bb
00000180: a83d 99bb fc4d c5bc 61f0 afbb afa0 b1bb
00000190: 64c7 ddbc e63d 7dbc 9c2a 48bc 8068 cfba
000001a0: cc41 86bc 0c92 a83b b11a 27bc 1ffa eebb
000001b0: 8a60 74bc a38d 08bc 039f f0bb 3c88 13bc
000001c0: 8e8f 84bb 5a42 bbbc 1f91 0b39 0e46 8abc
000001d0: f35f 433b 1744 42bc d1ab 0cbc 454e a2bc
000001e0: 43f1 a13b 5116 f7bb c490 2abc fa30 99bc
000001f0: 2641 abbc 977e a8bc b351 78bc 31f1 0cbb
-0.0054549035 -0.013493244 -0.009811351 0.015004312 0.006919999 0.0002525717 -0.0004505825 -0.0060238247
-0.007070418 0.0074825888 -0.0001305142 -0.015491491 -0.0126757715 -0.011910098 -0.012714996 -0.0033475065
0.005116701 0.011282015 0.013489931 -0.010894775 0.0036460154 0.0094229635 -0.013011778 -8.5243584e-05
0.0051629306 0.009074027 0.0007675296 0.016462984 0.037318643 0.006402354 0.014501854 -0.0058016647
-0.001327265 -0.012618322 -0.0042454298 -0.0032325166 -0.018711757 -0.013559225 0.012527821 0.010940168
0.0007759558 0.004311409 0.002884569 -0.0030840712 -0.012882655 0.0069408333 -0.018003184 -0.0007340123
0.014397252 0.0050940346 0.0033993935 0.02062851 0.0082731545 -0.006965648 0.014154255 -0.00068649696
0.021664891 0.023251176 -0.009668637 0.0020070814 0.020081501 0.007907352 0.01867961 0.015018881
-0.011241322 -0.012263102 0.0038675677 -0.0018489594 -0.012874443 0.0026016948 -0.010405344 0.0039142002
0.012547975 -0.018368658 -0.020607248 0.0018756061 0.0044563585 -0.008070393 -0.0013292143 -0.0088640805
0.020459473 0.0036280304 0.001275998 0.004402349 0.022959393 -0.0059780367 0.005625587 0.013484899
-0.00039655284 -0.0032869303 -0.003881678 0.0075027794 0.01165719 0.0058248406 -0.011263548 -0.003986778
-0.0046765395 -0.024085037 -0.0053692316 -0.0054207663 -0.027072616 -0.015456652 -0.01221719 -0.001582399
-0.016388796 0.0051443633 -0.010199235 -0.0072930004 -0.014915595 -0.00833455 -0.0073431744 -0.009004649
-0.0040454334 -0.022858787 0.00013310135 -0.016879108 0.002981183 -0.011857054 -0.008585886 -0.019812712
0.0049420907 -0.007540502 -0.010410491 -0.018700112 -0.020905089 -0.020568175 -0.015156197 -0.0021506066

3.conv2.lin_l.bias f4 [8]
00000000: c5fe ddbb 9d3c 523c 7b4d edbb 45ff 833b
00000010: 779d cebb 6665 963c c079 8ebc c01a 42bc
-0.0067747557 0.012831834 -0.0072419024 0.0040282332 -0.0063053924 0.018358897 -0.01739204 -0.011847198

3.conv2.lin_r.weight f4 [8, 16]
00000000: 645e 45bc 14cc 20bc 6a77 16bb d628 22bb
00000010: 3a63 95bc 2474 f0ba 833a a4ba 243c 4abb
00000020: 0382 12bc 1f1f a43b 1bef 7ebc d835 a7bb
00000030: f60b afbb 691d d7bb 24da e3bb 0688 0dbb
00000040: 5f0a 39bc e921 943b c39d 1739 c5f6 59bc
00000050: 3bf1 d33a bb07 593c 86ce 84bc f15b 453b
00000060: 1738 cbba 7336 363b e9ba 4f3c 528d 773c
00000070: 30da 0a3d 8075 daba 581f 143b 3a30 2dbc
00000080: 623c 8ebb bf1f bf3a 55ab 8dbb 9313 80bc
00000090: 631c 83bc 9cc1 173c 9b17 353c 3a64 08bb
000000a0: cf04 a8bb 577c b7bb 788a f9ba 883c 2cbb
000000b0: 6820 7c3c aed8 3b3c bf93 c9bb b2e5 243c
000000c0: e8dc 2c3c ec33 813a e6a4 573c 3ad3 7a3b
000000d0: 2f9e 813c 9466 84bc 2ebc bc3c b6e1 e139
000000e0: f3d4 913c c344 693c f567 123c 6eb1 3a3c
000000f0: ae25 27b9 dacc 953b 3814 153c 71a8 7c3c
00000100: 88a0 af3b ccbf edbc b81d 45bc b317 f73b
00000110: 64cd 27bc c074 893c 0602 04bd 3e15 95bc
00000120: c51f 45bb 78c8 42bc 74fc 8dbc 036c 2fbc
00000130: 0e4e c03a fb62 ccbc 4a27 31bc 9c10 2ebb
00000140: 0d23 1c3c 0a64 b23c 8584 423c 0a2d 8e3c
00000150: f8d0 58bb 133a 4bbb 51bd 143c 24f1 3b3c
00000160: 7b5b 073c e409 43bc dd78 ea3b e40c e83b
00000170: 8f99 f03a 3bfd 88bc c450 c83b 9abe e93a
00000180: a3b4 87bc a586 3c3b 8ae0 9b3a 0fe5 eebc
00000190: 7144 95ba e61b a3bc b7f3 30bc 342b 9bb9
000001a0: 5305 94bc 26ff fcbc f48c b6bc 2189 fbba
000001b0: 5afb 86bb 4ea0 a3bc 0cb9 88bc 7119 30bc
000001c0: e414 c53b 4f9a c2bc 34e7 3c3c 668a 87bb
000001d0: 08e4 89bc 442e b7bc 3aa6 15bc 0897 7cbc
000001e0: 9917 92bc f1a9 923c bc37 8f3b 9822 4ebb
000001f0: db22 86bc 81ce a5bc 9f3e c1bc 0463 01bc
-0.01204643 -0.009814281 -0.002295936 -0.0024743578 -0.018235791 -0.001834516 -0.0012529645 -0.00308586
-0.00894213 0.0050085927 -0.015559937 -0.005102854 -0.005342002 -0.0065647853 -0.0069534946 -0.002159597
-0.011293977 0.004520644 0.00014459253 -0.013303463 0.0016169915 0.013246472 -0.01621176 0.0030114616
-0.0015504387 0.002780345 0.01267884 0.015109377 0.033899486 -0.0016667098 0.002260169 -0.01057058
-0.0043406943 0.0014581605 -0.004323403 -0.015634334 -0.016004747 0.009262469 0.011052991 -0.0020811693
-0.0051275264 -0.0055995393 -0.0019038459 -0.0026281197 0.015388586 0.011465235 -0.006151646 0.010064529
0.010550715 0.0009857393 0.013161873 0.0038272873 0.015822498 -0.016162194 0.02303895 0.00043083512
0.017801737 0.0142375855 0.008935918 0.011394842 -0.00015940398 0.0045715393 0.009099059 0.015421019
0.005359713 -0.02902212 -0.012031011 0.007540667 -0.01024184 0.016779304 -0.032228492 -0.018198606
-0.003007875 -0.011888616 -0.017332293 -0.010706904 0.00146717 -0.024949541 -0.01081259 -0.0026560193
0.009529841 0.021776218 0.011872415 0.01735546 -0.003308354 -0.0031009957 0.00907834 0.011471067
0.008261557 -0.011904214 0.0071555213 0.007081615 0.0018356311 -0.016722312 0.0061131436 0.0017833293
-0.016565626 0.0028766778 0.0011892479 -0.029161958 -0.0011388195 -0.019910764 -0.010800294 -0.00029596093
-0.018068945 -0.030883383 -0.022284009 -0.0019190648 -0.004119319 -0.0199739 -0.0166898 -0.010748253
0.0060144532 -0.02375522 0.0115297325 -0.0041363714 -0.016832367 -0.022360928 -0.00913387 -0.015416868
-0.017833518 0.0179033 0.0043706577 -0.0031453725 -0.016374042 -0.02024007 -0.02358943 -0.007897142

4.conv1.lin_l.weight f4 [16, 4]
00000000: c990 b03d 9b81 083d ee9c ef3c 1770 133e
00000010: 843e 343d ea9e f53c 9407 0f3d 7d17 103e
00000020: 4f5e 923d 443e 03bd 78e4 ab3d 468e 093e
00000030: dac1 3b3d 053b 78bb 81e5 0a3d 93a9 e53d
00000040: 0e4a 863d 964f 70bc eca5 0c3d 0a58 1d3e
00000050: 0ee6 7b3d 2c7f 39bd f8b2 833d 284a 073e
00000060: d212 9d3d 9a5e 363c 31c0 5d3c cf8b c83d
00000070: afe0 833d ae7c 47bb d770 6e3c d8b4 b23d
00000080: cac5 033d ec06 0e3c 0973 963d 5713 f83d
00000090: fd6f 703d 761a f43c 1c00 523c 0c69 dd3d
000000a0: 4f85 883d 7f98 87bb 9ef8 183d f831 fc3d
000000b0: da7f 463d a607 dabb ca06 793d f323 e73d
000000c0: 1dfa 5c3d 3419 eebc 8f11 ea3c d581 043e
000000d0: 1180 7d3d 92ec 4cbc 5d18 aa3c a1e0 153e
000000e0: 78ea 843d b78c e8bb 1777 fe3c b72e ed3d
000000f0: 1242 373d 802d 063c 25d6 923d a4c6 253e
0.086213656 0.033326726 0.029249635 0.14398228 0.044004932 0.029983003 0.034919336 0.1407146
0.07146894 -0.032041803 0.08393186 0.1343318 0.045839168 -0.0037876975 0.03391028 0.11213984
0.065570936 -0.014667412 0.034337923 0.15365615 0.061498694 -0.045287296 0.0643062 0.13211882
0.07669605 0.011130953 0.0135345915 0.097922914 0.06439339 -0.0030439305 0.01455327 0.087258995
0.03217105 0.0086686425 0.0734616 0.12113064 0.05870055 0.029797774 0.012817409 0.10811052
0.066660516 -0.004138052 0.037346475 0.12314218 0.048461773 -0.006653744 0.06079749 0.11286154
0.053949464 -0.029064752 0.028572826 0.12940152 0.06188971 -0.012507575 0.02076357 0.1463647
0.06490034 -0.0070968526 0.031062646 0.11581176 0.044740744 0.008189559 0.07169751 0.16189057

4.conv1.lin_l.bias f4 [16]
00000000: 6696 853d 0dd6 743d 0a0b c73d 5bb7 743d
00000010: 142b 933d 8625 8f3d b2ed 7c3d a255 8d3d
00000020: 9c8b 153d 21be bd3d 2bdd a03d a645 5b3d
00000030: 20b2 053d 0f5e c03d cdf9 3a3d be47 843d
0.06522827 0.059774447 0.097189024 0.059745174 0.07185951 0.06989579 0.06175012 0.06901099
0.036510095 0.0926478 0.078546844 0.05353322 0.032640576 0.0939294 0.045648385 0.06458996

4.conv1.lin_r.weight f4 [16, 4]
00000000: 1f82 ec3d 212d 523d 8d0b 623d 98e1 373e
00000010: 9fe3 cf3d 32d9 403d fd66 2d3d 4485 423e
00000020: 5112 9f3d 85f0 3a3d a9f6 313d b707 063e
00000030: 7385 c63d 646d 403d f747 b23d 5a7d 163e
00000040: 5ca4 df3d 61b2 303d 61a0 a03d cd30 203e
00000050: ff3d b93d 63cf 7b3d bf6c 4e3d f436 2f3e
00000060: 0d84 b13d 7831 4e3d 8fc4 b83d 6308 0e3e
00000070: 2a7e c83d 5664 113d 45d0 4a3d 58e7 123e
00000080: d1ee be3d 5c61 8c3d a6be 583d f65f 1a3e
00000090: 6ff5 ea3d 005d af3c 2630 6b3d b437 0f3e
000000a0: a9ea a33d e631 743d 360d 793d 1359 b93d
000000b0: 1cc7 003e 53b4 183d 573e 8b3d 9b66 273e
000000c0: 9f43 b13d 2eb9 f83c 06b6 8d3d e0a3 133e
000000d0: 43f2 b03d a832 bb3c cb1c 893d f7c7 1e3e
000000e0: 11d5 aa3d 54eb cb3c d6e6 353d 4cef 1e3e
000000f0: 0564 d53d ac3d 0e3d f825 983d 319d 423e
0.11548256 0.05131257 0.055186797 0.17957151 0.10150837 0.047082134 0.042334545 0.1899615
0.077671655 0.045639534 0.043448124 0.1308888 0.09693422 0.046979323 0.087051325 0.14696255
0.10920021 0.043138865 0.0784309 0.15643616 0.09045028 0.061477076 0.050396677 0.17110807
0.08667765 0.050340146 0.090218656 0.13870387 0.09789689 0.03549608 0.049515028 0.14346063
0.09322894 0.06854507 0.05291619 0.15075669 0.11472594 0.02140665 0.057418965 0.13986093
0.08003742 0.0596179 0.060803615 0.09050193 0.12575954 0.037281346 0.06799 0.16347735
0.08655476 0.030361738 0.06919484 0.14417982 0.08639958 0.022851303 0.06694945 0.15505968
0.083414204 0.024892487 0.044409595 0.15520972 0.10419468 0.034726784 0.07429117 0.19005276

4.conv2.lin_l.weight f4 [8, 16]
00000000: 38e7 563c e8ba a4bb 4460 b63b e321 bf3c
00000010: f522 9d3b c5e7 b63c b303 bd3c e488 43bc
00000020: 7dbc 1a3c c04d a13c 942e 933c 6617 0dbc
00000030: d83d 413c c12c 393c 9f0f f2bb 837b 893c
00000040: 1114 9c3c d362 1e3b 0f05 af3c 6888 2a3c
00000050: 73a1 483b 22da a03c 1412 4dbc d3cd 343c
00000060: 5f47 38bc c9fc 563c 4fad e3bb 6fbc f53c
00000070: 5734 26bc 834e d53c bfc8 b93c 6e02 0b3b
00000080: f818 24bc b2c6 483c fdab debb a195 a63c
00000090: f867 7ebb 38ef eeba cfaf 763b da72 f13b
000000a0: 382d df3c e4bc 633a 66c7 e5bb 0369 0f3c
000000b0: 6132 633a 8999 eb3c 1a98 81bc c66c cdba
000000c0: 2ede ecba 5634 5e3b 6fdf fcbb 45a0 a03b
000000d0: 7b26 35bc aecb 1539 71d2 e33b 4a60 eabb
000000e0: 0564 313c 1332 01bc e4eb 0bbc 637b 5e3c
000000f0: ac23 36bb 8ddb 43bc eaaa 433b b3c7 f6b9
00000100: fe7f 8a3c f661 63bc 3f0b 43bc 0134 3f3b
00000110: 7aa9 623c 4e08 843a 4525 73bb 54f6 e13b
00000120: c676 633c dfb3 963c a571 20bb f4af c33b
00000130: 00b3 4d3b 5a3c 783c b83d 4c3a 5c51 1e3c
00000140: 9639 14bc 0aab 5a3c a828 cd3c 0a98 7d3c
00000150: 2a0a d9bb 80d0 c73b 1f7b 903c cda2 473c
00000160: 3863 293b c237 883c e42f c63a 36f5 693c
00000170: bd67 813c 03d0 253b 7876 853b 0fd8 2f3c
00000180: eead 253c 2862 9f3b 6da6 adbc 6e79 6fbc
00000190: 126b 363c 12e6 8a3c 4fdb 073c 9246 c33a
000001a0: a003 d93b a1f9 033c 2c8f 88bb 7bcf 53ba
000001b0: f203 883c b2ec 963b 147d 8d3b 2aa9 62bb
000001c0: 1241 423c c130 08ba cfc0 ce3a 4e00 8b3b
000001d0: 3af9 ab3b 0a86 743c 9af9 9637 bff8 263b
000001e0: 0114 7dbb 3c96 463c b1e7 8abb ad0e c6bb
000001f0: b8fd 113c 2675 aebb 1447 79bc d273 0d3b
0.01311665 -0.005027164 0.005565675 0.023331588 0.004795427 0.022327313 0.023073053 -0.011934493
0.009444353 0.019690394 0.017966546 -0.008611536 0.01179453 0.011302174 -0.007387116 0.016782528
0.019052537 0.002416779 0.021364717 0.010408498 0.003061381 0.019635264 -0.012516517 0.0110354
-0.011247485 0.013121792 -0.00694815 0.029997079 -0.010144315 0.026038414 0.022678731 0.0021211165
-0.010015719 0.012254404 -0.006795405 0.02033502 -0.0038819294 -0.0018229252 0.0037641411 0.0073684277
0.027243242 0.00086875097 -0.0070122955 0.008753064 0.000866687 0.028759735 -0.015819598 -0.0015672676
-0.0018071586 0.0033905706 -0.007717065 0.004901918 -0.011056538 0.00014285624 0.006952577 -0.007152592
0.010827069 -0.007885474 -0.008540127 0.013579222 -0.0027792258 -0.0119542 0.0029856511 -0.00047069564
0.016906735 -0.013878336 -0.011904537 0.0029175284 0.013834352 0.0010073276 -0.0037101072 0.0068958197
0.013883298 0.018396316 -0.00244818 0.005971903 0.003138721 0.015151108 0.0007791179 0.009662952
-0.009046933 0.013346443 0.0250438 0.0154781435 -0.006623526 0.006097853 0.017636834 0.012184811
0.0025846492 0.01662815 0.0015120474 0.014279654 0.015796537 0.0025300987 0.0040729605 0.010732665
0.010112269 0.004863996 -0.021197522 -0.014616353 0.011133926 0.01695541 0.008292033 0.0014898351
0.0066227466 0.008055122 -0.004167458 -0.0008079928 0.016603444 0.004605853 0.004317889 -0.0034585693
0.011856334 -0.0005195253 0.0015774014 0.0042419797 0.005248216 0.0149245355 1.7997623e-05 0.0025477854
-0.003861666 0.01212078 -0.0042390455 -0.00604423 0.008910589 -0.005324024 -0.0152147 0.0021583927

4.conv2.lin_l.bias f4 [8]
00000000: 4f55 dfba f316 563a 8d57 333c 73af e73b
00000010: 13a2 da3c c406 673c 409f 3c3c 480b 60bb
-0.0017038974 0.0008166872 0.010946167 0.0070704757 0.026688611 0.014100734 0.0115125775 -0.0034186412
