results/agent_SBM_5k_Zero_Modularity.pth (torch, 30437 bytes, 50 tensors)

0.conv1.lin_l.weight f4 [16, 4]
0.051364355 0.040848035 0.0506719 0.113532476 0.04915416 0.019009516 0.03592327 0.08864356
0.05425152 0.0035359021 0.049759537 0.14254828 0.088140465 0.033087853 0.020967307 0.104243405
0.04603066 0.019466843 0.041235067 0.08652392 0.057246212 0.029645301 -0.021385465 0.097541906
0.049052447 -0.00068302004 0.030100117 0.09649093 0.064817205 -0.0009211534 0.028616423 0.1159539
0.03382959 0.019204237 0.066802256 0.12787844 0.02862571 0.041353 0.031299807 0.11206213
0.033963244 0.024912674 0.041049927 0.11906419 0.03675693 0.042209018 0.05008413 0.1007586
0.058414493 0.05012764 0.029225785 0.08455242 0.040160157 -0.010873849 0.068483725 0.10113588
0.060289092 0.009711309 0.031275533 0.093221806 0.039397687 0.035105992 0.026763564 0.120687574
00000000: 6e63 523d 4550 273d 578d 4f3d b783 e83d
00000010: df55 493d d8b9 9b3c 4724 133d c18a b53d
00000020: d836 5e3d 98ba 673b a8d0 4b3d 2df8 113e
00000030: fd82 b43d 2187 073d a1c3 ab3c 917d d53d
00000040: a58a 3c3d ee78 9f3c 1ae6 283d 7433 b13d
00000050: 017b 6a3d b4da f23c 9230 afbc 0dc4 c73d
00000060: 38eb 483d b30c 33ba 8594 f63c 099d c53d
00000070: e2be 843d 8f79 71ba fd6c ea3c 3d79 ed3d
00000080: e590 0a3d 3452 9d3c 9fcf 883d 91f2 023e
00000090: 7780 ea3c c361 293d 3a34 003d d480 e53d
000000a0: 0b1d 0b3d aa15 cc3c f823 283d edd7 f33d
000000b0: 6f8e 163d 5de3 2c3d 0425 4d3d 865a ce3d
000000c0: 0944 6f3d a452 4d3d ea6a ef3c d229 ad3d
000000d0: fa7e 243d 3a28 32bc 3241 8c3d 5420 cf3d
000000e0: b2f1 763d 2f1c 1f3c c61a 003d 13eb be3d
000000f0: 785f 213d 4dcb 0f3d 433f db3c 0c2b f73d

0.conv1.lin_l.bias f4 [16]
0.041217517 0.038849026 0.03557151 0.047876015 0.016144846 0.07810691 0.044219695 0.012596054
0.03522997 0.043541316 0.03194972 0.06305685 0.053373452 0.08112905 0.044621795 0.041200086
00000000: b3d3 283d 2820 1f3d 6fb3 113d a419 443d
00000010: 3242 843c 84f6 9f3d b61f 353d ae5f 4e3c
00000020: 4d4d 103d 6158 323d b6dd 023d f323 813d
00000030: 1f9e 5a3d fd26 a63d 58c5 363d 6cc1 283d

0.conv1.lin_r.weight f4 [16, 4]
0.10747777 0.018903665 0.0408161 0.15715437 0.08348349 0.042275652 0.060000703 0.13514088
0.0643892 0.03992955 0.07072576 0.15178914 0.07390999 0.048748437 0.034646574 0.12932713
0.08240813 0.061354443 0.06814014 0.13772592 0.0988133 0.021265993 0.06613186 0.09719596
0.07477717 0.03010524 0.063633725 0.12792245 0.084512144 0.041568547 0.032047525 0.10814142
0.0668112 0.05387633 0.041744612 0.14281817 0.086520985 0.017410187 0.054253235 0.115830705
0.081472255 0.021785889 0.05416001 0.1312594 0.06331812 0.024687385 0.03986296 0.11578325
0.09135246 0.008884794 0.04683867 0.09144497 0.08272454 0.029171832 0.06651419 0.13784853
0.060990028 0.03320278 0.08271661 0.10251015 0.048796896 0.008678515 0.025002647 0.13059378
00000000: 4e1d dc3d dcdb 9a3c c82e 273d 13ed 203e
00000010: 64f9 aa3d 3c29 2d3d 4cc3 753d 5f62 0a3e
00000020: 7cde 833d 2b8d 233d abd8 903d 9d6e 1b3e
00000030: 1f5e 973d 71ac 473d 91e9 0d3d 556e 043e
00000040: 98c5 a83d cc4e 7b3d 0f8d 8b3d 0608 0d3e
00000050: a15e ca3d 0536 ae3c 2470 873d ad0e c73d
00000060: c624 993d 449f f63c 6652 823d 1afe 023e
00000070: b414 ad3d c843 2a3d 4444 033d 4079 dd3d
00000080: 4fd4 883d 6dad 5c3d 66fc 2a3d ed3e 123e
00000090: ea31 b13d cf9f 8e3c a438 5e3d a638 ed3d
000000a0: edda a63d 5278 b23c e3d6 5d3d dd68 063e
000000b0: eeac 813d 333d ca3c 5847 233d c51f ed3d
000000c0: 0017 bb3d 8791 113c e8d9 3f3d 8047 bb3d
000000d0: 7c6b a93d c4f9 ee3c 9738 883d 2a28 0d3e
000000e0: aed0 793d a3ff 073d 5367 a93d d7f0 d13d
000000f0: 41df 473d 5530 0e3c 5ad2 cc3c 60ba 053e

0.conv2.lin_l.weight f4 [8, 16]
0.011654678 0.007751278 0.018924177 -0.0014243248 -0.013230025 0.015915666 0.0055054557 0.03162058
-0.007928023 0.003247241 0.017133305 0.009749529 0.003905835 0.008922935 0.02009407 -0.0023923363
-0.0023423089 0.0043089786 0.012368214 0.0025620996 0.006723953 0.006078195 -0.004809166 0.009161307
-0.0120439045 0.0045956825 0.0044939816 -0.0052333977 0.0094504 -0.006157397 0.0065918434 -0.003994995
0.0016190748 0.0011805585 0.020611953 0.007541903 0.0074187005 -0.0026212314 0.0062040184 0.0024253277
-0.003576778 0.0024427823 0.016519438 -0.00212256 0.015699573 0.013646445 0.004701433 0.019725526
-0.020822799 0.01641198 -0.005474898 -0.001026399 -0.01383572 -0.002622177 0.0030267343 -0.0007662704
-0.0034882617 -0.003312002 0.00026171148 0.0008167653 -0.0051325643 -0.008222668 -0.014878509 -0.029657077
-0.025456076 0.0052817636 -0.017738098 -0.0035715047 -0.012995221 -0.02560354 -0.0097667305 -0.016423827
0.008715549 -0.00514543 -0.01824078 -0.017173648 0.00533997 -0.0024998365 -0.0068649584 -0.0039296346
-0.004408736 -0.000991972 0.008470485 -0.0067696534 0.015190887 0.0052058925 0.004710086 -0.0112214815
0.007033927 0.0051269494 -0.0056399666 0.012784877 -0.005069332 0.021480108 -0.00074431807 0.00929076
-0.009618196 -0.016903793 -0.016938215 0.0013299691 -0.0066093565 -0.019821491 0.008584848 0.008969117
-0.024024926 -6.9614056e-05 -0.0052971207 -0.0052793114 -0.010137615 -0.028117284 -0.015830211 -0.022014791
-0.009163193 0.008225367 -0.02032154 -0.03527925 -0.022653732 -0.012003777 -0.008680381 0.007976849
0.0018437946 -0.0220613 -0.03231973 -0.017802594 -0.014942293 -0.022056442 -0.008842876 -0.01092861
00000000: 43f3 3e3c 6ffe fd3b e006 9b3c 69b0 baba
00000010: bfc2 58bc 9261 823c 1c67 b43b 9584 013d
00000020: 8ae4 01bc aacf 543b 255b 8c3c 7dbc 1f3c
00000030: 0af9 7f3b 8131 123c 529c a43c bec8 1cbb
00000040: 6c81 19bb 5532 8d3b 0da4 4a3c e6e8 273b
00000050: 9b54 dc3b 982b c73b 3596 9dbb 4e19 163c
00000060: cc53 45bc 6197 963b 4042 933b ec7c abbb
00000070: dad5 1a3c fdc3 c9bb 6400 d83b 72e8 82bb
00000080: 2337 d43a f8bc 9a3a 66da a83c 1122 f73b
00000090: 9218 f33b f7c8 2bbb 144b cb3b 3ff2 1e3b
000000a0: 6168 6abb 1617 203b c653 873c a61a 0bbb
000000b0: 649c 803c 5795 5f3c 7a0e 9a3b 6d97 a13c
000000c0: 9394 aabc 6b72 863c c666 b3bb 3c88 86ba
000000d0: 37af 62bc d4d8 2bbb 2d5c 463b 89df 48ba
000000e0: 529b 64bb 2c0e 59bb 5236 8939 311c 563a
000000f0: 122f a8bb 5fb8 06bc fdc4 73bc 66f3 f2bc
00000100: 4389 d0bc a512 ad3b 7d4f 91bc e80f 6abb
00000110: e8e9 54bc 84be d1bc a304 20bc 438b 86bc
00000120: a9cb 0e3c ff9a a8bb b06d 95bc c0af 8cbc
00000130: eafa ae3b 4cd4 23bb 72f3 e0bb 2ac4 80bb
00000140: 2877 90bb 0f05 82ba cac7 0a3c f8d3 ddbb
00000150: 33e3 783c 3196 aa3b 1157 9a3b 4eda 37bc
00000160: db7c e63b f8ff a73b 78cf b8bb a977 513c
00000170: a41c a6bb 0df7 af3c 571e 43ba 4638 183c
00000180: a395 1dbc d379 8abc 03c2 8abc 5c52 ae3a
00000190: 4d93 d8bb ae60 a2bc 76a7 0c3c 34f3 123c
000001a0: eccf c4bc c3fd 91b8 7893 adbb 13fe acbb
000001b0: 3d18 26bc 3856 e6bc 5cae 81bc 5d58 b4bc
000001c0: 3821 16bc b1c3 063c 5c79 a6bc fa80 10bd
000001d0: 5294 b9bc 7dab 44bc 2838 0ebc 54b1 023c
000001e0: 7bab f13a e6b9 b4bc b161 04bd bfd6 91bc
000001f0: 85d0 74bc b6af b4bc b6e1 10bc ea0d 33bc

0.conv2.lin_l.bias f4 [8]
0.010584609 0.012949905 0.015715525 -0.014554389 -0.015926626 -0.0045316136 0.0028672775 -0.01832336
00000000: 116b 2d3c d72b 543c d8bd 803c 8875 6ebc
00000010: 8e78 82bc ee7d 94bb efe8 3b3b df1a 96bc

0.conv2.lin_r.weight f4 [8, 16]
0.004203622 0.0076980595 0.004336579 -0.00050267763 0.022675622 0.029792018 0.011341566 0.028178873
-0.0014501315 0.0038957635 0.01638255 -0.004285464 0.029605458 0.0038023156 -0.00047050195 -0.014252175
0.007857816 0.0076313955 0.010682929 0.0050259256 -0.0073613958 -0.0065025594 -0.0014905317 -0.015864708
0.0037521916 -0.004780246 -0.0030029917 -6.4652115e-05 0.021273706 -0.00022636041 0.012812547 -0.0041484437
-0.00011027798 0.010643167 0.007212123 -0.012659898 0.007528001 0.0031718009 0.009914778 0.022307904
0.018376106 0.020649064 -0.0043782587 0.004033056 0.010720559 0.031867754 0.0062397136 0.01003356
-0.020145541 -0.0056297276 -0.010235428 -0.0051510166 -0.0075480454 -0.0013468331 0.018555468 -0.010929261
-0.0019757359 -0.009179104 -0.009767549 -0.0136821 0.0046047787 0.0010539582 -0.027454617 -0.008349997
0.0061869957 -0.011078133 -0.0013822778 -0.0052113044 -0.020018848 -0.014205725 -0.007768052 -0.0012373732
-0.020832734 -0.018139727 -0.031020021 -0.018731507 -0.01706091 -0.028938252 -0.015925022 -0.035168096
-0.012294977 -0.004028918 0.0030599725 0.0010855295 -0.00096167653 0.01470748 0.0040295934 0.012533689
-0.00037352354 -0.013512634 -0.0031730724 0.010072291 -0.0110508595 0.017516453 0.008249047 0.0048447168
-0.00833578 -0.0049497597 -0.012195392 0.004810856 0.00018382206 -0.008913811 0.003826199 -0.015032795
-0.010816428 0.002000597 -0.004781451 -0.0024856618 -0.016076235 -0.017526392 -0.010461353 -0.0123666255
0.013504391 -0.00086915924 0.00572538 -0.0063106995 -0.012051102 -0.006706385 -0.005580248 -0.008222284
0.019473528 -0.018625926 -0.0060054488 -0.01554323 -0.006515729 -0.02034379 -0.0108159 0.004901171
00000000: 8abe 893b 0140 fc3b dc19 8e3b 20c6 03ba
00000010: 3ac2 b93c 640e f43c fad1 393c 61d7 e63c
00000020: 5712 beba 1150 7f3b b334 863c 146d 8cbb
00000030: 2587 f23c 4530 793b b4ad f6b9 f481 69bc
00000040: 12be 003c c910 fa3b 7407 2f3c 85b0 a43b
00000050: dd37 f1bb 6c13 d5bb f25d c3ba b4f6 81bc
00000060: 54e7 753b 9ca3 9cbb d7cd 44bb d795 87b8
00000070: 3246 ae3c 295b 6db9 b8eb 513c abef 87bb
00000080: 0a45 e7b8 ae60 2e3c ac53 ec3b 766b 4fbc
00000090: 73ad f63b fddd 4f3b 9871 223c 11bf b63c
000000a0: 7d89 963c 3a28 a93c 7f77 8fbb ba27 843b
000000b0: 49a5 2f3c c387 023d 8376 cc3b cd63 243c
000000c0: 4308 a5bc 9479 b8bb 7fb2 27bc dcc9 a8bb
000000d0: 9855 f7bb 3888 b0ba a301 983c a510 33bc
000000e0: 597b 01bb f463 16bc 1208 20bc e32a 60bc
000000f0: afe3 963b f824 8a3a 81e8 e0bc 6dce 08bc
00000100: 48bc ca3b 0f81 35bc 8c2d b5ba 97c3 aabb
00000110: 91fe a3bc 21bf 68bc 258b febb 5b2f a2ba
00000120: 69a9 aabc c499 94bc b31d febc d172 99bc
00000130: 52c3 8bbc ea0f edbc 3175 82bc 6c0c 10bd
00000140: df70 49bc 0405 84bb d289 483b 5348 8e3a
00000150: 0519 7cba a4f7 703c ae0a 843b 1a5a 4d3c
00000160: 7bd5 c3b9 1864 5dbc 52f3 4fbb 4006 253c
00000170: aa0e 35bc aa7e 8f3c 0327 073c 6ec0 9e3b
00000180: cc92 08bc 9831 a2bb 2ecf 47bc 63a4 9d3b
00000190: 5cc0 4039 3c0b 12bc f8c0 7a3b 1d4c 76bc
000001a0: 6337 31bc 731c 033b b8ad 9cbb 7ce6 22bb
000001b0: 4fb2 83bc 8293 8fbc 1866 2bbc 639d 4abc
000001c0: 8541 5d3c 4ad8 63ba f89b bb3b fcc9 cebb
000001d0: fc71 45bc 3cc1 dbbb 83da b6bb c2b6 06bc
000001e0: f386 9f3c 6695 98bc 5bc9 c4bb 08a9 7ebc
000001f0: e581 d5bb 05a8 a6bc 2c35 31bc 019a a03b

1.conv1.lin_l.weight f4 [16, 4]
0.07482649 0.014080376 0.021120997 0.0027408719 0.092064045 0.027727306 0.019996196 -0.0049719894
0.06620737 0.01767313 0.011219416 0.050393175 0.03922625 0.014251807 0.029193902 -0.0052372096
0.06897095 0.031215597 0.021529207 0.032521572 0.08688032 0.04608885 -0.016333554 -0.0034417373
0.05946566 0.014651908 0.014427355 -0.012436449 0.06839315 -0.028951153 0.005669855 0.02449821
0.07820587 -0.0012999848 0.0062390966 0.023896215 0.111984484 -0.0051785065 -0.004796363 0.0251297
0.091753684 -0.014614399 0.023715898 -0.0031427974 0.08346431 0.023591286 -0.00664588 0.053742267
0.07004907 -0.0072721206 -0.012402666 0.02238965 0.051599827 0.025019713 -0.024188189 0.004385387
0.06821773 0.013250418 0.025787197 0.024925506 0.108415365 -0.014604458 0.009405833 0.0034658695
00000000: a13e 993d 61b1 663c f105 ad3c 33a0 333b
00000010: 138c bc3d 6024 e33c 10cf a33c 12ec a2bb
00000020: bb97 873d 3dc7 903c a4d1 373c 1369 4e3d
00000030: b4ab 203d 6980 693c 0d28 ef3c e69c abbb
00000040: a440 8d3d dab7 ff3c 055e b03c 5735 053d
00000050: 4fee b13d a9c7 3c3d f2cd 85bc c58e 61bb
00000060: 4492 733d 8e0e 703c b660 6c3c 3fc2 4bbc
00000070: b511 8c3d f82a edbc 31ca b93b 78b0 c83c
00000080: 662a a03d 4064 aaba 5671 cc3b ffc1 c33c
00000090: 1f58 e53d 76b0 a9bb cf2a 9dbb cddc cd3c
000000a0: 5be9 bb3d 3b71 6fbc d847 c23c 64f7 4dbb
000000b0: 56ef aa3d 8342 c13c afc5 d9bb da20 5c3d
000000c0: e375 8f3d f84a eebb 8d34 4bbc 806a b73c
000000d0: 575a 533d 24f6 cc3c 4f26 c6bc 4bb3 8f3b
000000e0: bdb5 8b3d 4818 593c ac3f d33c 9330 cc3c
000000f0: e008 de3d 8947 6fbc ec1a 1a3c a423 633b

1.conv1.lin_l.bias f4 [16]
0.0009665668 0.017521482 0.030066786 0.0009056026 0.022147266 -0.026394866 0.0012136769 0.017288433
0.005154211 0.005070491 0.011278429 0.0002883509 0.040957212 -0.0012637522 0.024230946 0.00837763
00000000: 3361 7d3a 3689 8f3c 9f4e f63c f665 6d3a
00000010: 2f6e b53c 0c3a d8bc 3d14 9f3a 79a0 8d3c
00000020: a8e4 a83b 5d26 a63b 29c9 383c cd2d 9739
00000030: c0c2 273d 7da4 a5ba fa7f c63c 5442 093c

1.conv1.lin_r.weight f4 [16, 4]
0.10848503 0.028413128 0.05068544 0.054147243 0.09562152 0.046878066 0.020135812 0.039867517
0.09129992 0.01152471 0.00824617 0.06936955 0.11450767 0.013232683 0.028772263 0.04704322
0.13685153 0.028248778 0.02165175 0.042636406 0.1114811 0.032035127 0.06110538 0.07348213
0.13013938 0.039727677 0.027679676 0.05583303 0.13359065 0.029071651 0.0492988 0.026242565
0.096347004 0.01866902 0.058999196 0.03282854 0.10329089 0.0063232468 0.010610166 0.012476563
0.14165683 0.041717038 0.033154417 0.03583398 0.12660673 0.029848628 0.047593713 0.040463835
0.10396101 0.020369386 0.047498308 0.06212716 0.14083976 0.053499527 -0.006738863 0.021294426
0.1084196 0.046393633 0.011632434 0.035627935 0.088898346 0.033525657 0.035481233 0.042347822
00000000: 662d de3d a6c2 e83c 899b 4f3d 80c9 5d3d
00000010: 37d5 c33d 3703 403d dcf3 a43c 1f4c 233d
00000020: 74fb ba3d 23d2 3c3c f21a 073c 9f11 8e3d
00000030: ff82 ea3d e5cd 583c cfb3 eb3c 64b0 403d
00000040: cf22 0c3e fb69 e73c 035f b13c 83a3 2e3d
00000050: 3450 e43d 4437 033d a349 7a3d cd7d 963d
00000060: 4243 053e 7db9 223d 7dc0 e23c 2db1 643d
00000070: fdcb 083e ac27 ee3c 8aed 493d a6fa d63c
00000080: 9451 c53d c6ef 983c 24a9 713d 3877 063d
00000090: 2d8a d33d 3d33 cf3b 43d6 2d3c 806a 4c3c
000000a0: 7d0e 113e 7cdf 2a3d edcc 073d a7c6 123d
000000b0: 32a5 013e 1c85 f43c a0f1 423d 68bd 253d
000000c0: 83e9 d43d b3dd a63c 968d 423d 0d79 7e3d
000000d0: 4c38 103e 5222 5b3d aed1 dcbb a671 ae3c
000000e0: 180b de3d 4007 3e3d f795 3e3c 99ee 113d
000000f0: 5610 b63d 3352 093d c554 113d e974 2d3d

1.conv2.lin_l.weight f4 [8, 16]
-0.015694043 0.0005767274 -0.004748632 -0.01779486 -0.016209017 -0.02107477 0.008974909 -0.0075835376
-0.00773178 -0.014841697 0.00029903933 -0.012688608 -0.018383317 -0.012493771 -0.01806852 -0.014126395
0.014579742 0.0035129758 0.006460849 0.009931408 -0.0009828567 0.002026138 0.01586014 0.005063343
0.014574822 -0.00012424566 0.00884753 -0.003283207 0.0015044314 0.0022545964 0.012266776 0.006817399
0.019459546 0.005126845 -0.005451835 0.008090818 -0.015578376 0.0052107964 0.013392762 -0.0157016
0.0014399547 0.02282846 -0.0077492106 0.0003604108 0.018470485 -0.014369793 0.0016498532 -0.0023814035
-0.012215032 0.0027150083 0.0116683915 -0.0030345703 0.0058982777 0.009680087 -0.0023385081 0.016335402
0.0016665929 0.0029250362 0.013313098 0.01913843 0.0021067823 0.008179014 0.017738026 0.011661797
-0.0078186635 -0.006068742 -0.006731124 0.009539335 0.0041121 -0.0005564748 -0.018215554 -0.0069579314
-0.0054331957 -0.0019927358 0.0005484319 -0.0043989914 -0.018550806 0.0017257878 -0.007574048 -0.011823757
0.004696084 -0.010966809 -0.0013677843 -0.0044755503 0.00016597315 0.015019772 -8.708626e-05 0.011030966
-0.0019282007 0.004400822 0.0032154126 -0.0016253261 -0.0026466488 0.01022932 0.001222074 -0.013920494
-0.015473496 0.003524098 -0.002325587 -0.010475111 0.01349244 0.006580484 -0.0034238445 -0.0009560977
-0.0020217844 0.0061276495 0.0004918679 0.009560874 0.0037063258 0.008300774 0.009893993 -0.008386209
-0.0046074293 -0.0038682974 0.0009282005 -0.00276432 -0.006279336 -0.006861744 0.027052129 0.0043986016
0.014160267 0.011357773 -0.0048276037 -0.0052277194 -0.0058419276 0.0009157395 -0.010746312 0.018485524
00000000: cb90 80bc 852f 173a 6a9a 9bbb 87c6 91bc
00000010: c6c8 84bc ffa4 acbc 7f0b 133c 537f f8bb
00000020: df5a fdbb 972a 73bc 61c8 9c39 e1e3 4fbc
00000030: 9c98 96bc acb2 4cbc 6f04 94bc 6572 67bc
00000040: dfdf 6e3c f439 663b 88b5 d33b 58b7 223c
00000050: 33d3 80ba f4c8 043b 20ed 813c 66ea a53b
00000060: 3ccb 6e3c f147 02b9 3bf5 103c 132b 57bb
00000070: 5730 c53a dac1 133b 96fa 483c 7d64 df3b
00000080: a069 9f3c 18ff a73b 4fa5 b2bb 5a8f 043c
00000090: 723c 7fbc 54bf aa3b 516d 5b3c a4a0 80bc
000000a0: ddbc bc3a c002 bb3c 17ed fdbb 85f5 bc39
000000b0: 6a4f 973c 486f 6bbc e33f d83a 5211 1cbb
000000c0: 8f21 48bc 48ee 313b c82c 3f3c a4df 46bb
000000d0: 5746 c13b 3a99 1e3c a841 19bb d2d1 853c
000000e0: 9471 da3a f7b1 3f3b 2e1f 5a3c 32c8 9c3c
000000f0: f111 0a3b 4501 063c 564f 913c 1f11 3f3c
00000100: da19 00bc 4cdc c6bb c390 dcbb df4a 1c3c
00000110: ccbe 863b 64e0 11ba c938 95bc 5cff e3bb
00000120: f308 b2bb 8f98 02bb a4c4 0f3a 6a25 90bb
00000130: dcf7 97bc d433 e23a b82f f8bb 6eb8 41bc
00000140: 9ce1 993b 21ae 33bc 3a47 b3ba a3a7 92bb
00000150: 1409 2e39 7d15 763c 14a2 b6b8 3abb 343c
00000160: aebb fcba c534 903b acb9 523b e508 d5ba
00000170: 6673 2dbb e198 273c 002e a03a c912 64bc
00000180: 8c84 7dbc 8ef4 663b e068 18bb cd9f 2bbc
00000190: 650f 5d3c 1aa1 d73b 9462 60bb a1a2 7aba
000001a0: ea7f 04bb 73ca c83b b2f0 003a 36a5 1c3c
000001b0: d4e5 723b f8ff 073c 6a1a 223c 4f66 09bc
000001c0: ebf9 96bb 4383 7dbb 7b52 733a 9829 35bb
000001d0: e3c2 cdbb 7bd8 e0bb 6d9c dd3c 2522 903b
000001e0: 7700 683c f415 3a3c e030 9ebb 4a4d abbb
000001f0: a46d bfbb 3d0e 703a 4d11 30bc f46e 973c

1.conv2.lin_l.bias f4 [8]
-0.01765653 0.019009585 0.01414464 0.0022139344 0.0021013652 -0.0021733006 0.0054926253 0.01644757
00000000: 6da4 90bc fdb9 9b3c ecbe 673c a817 113b
00000010: 0fb7 093b ef6d 0ebb 7bfb b33b 0ebd 863c

1.conv2.lin_r.weight f4 [8, 16]
-0.006879754 -0.0027117198 -0.016532907 -0.005507759 0.0020682395 -0.0037752069 -0.012220319 -0.0034391542
0.004467409 0.013384588 -0.009258059 -0.008488629 -0.0013845423 -0.009968039 0.006197553 -0.0016711967
-0.0002612695 -0.020120017 0.013201431 0.0010498329 0.007926314 0.016184183 0.0054796133 0.012141721
-0.0036114603 0.012132819 -0.003889798 6.506413e-05 0.0036564458 0.00443224 -0.003118016 -0.0026085621
0.0010676113 0.014537888 0.009133095 -0.013528129 0.0021356975 0.019328192 -0.00024079204 -0.008421414
0.0053450954 0.0055579543 0.0056102667 0.0037785803 -0.00057612016 -0.0029348426 0.0056574894 -0.0024095036
0.010678245 -0.011402359 -0.0032432494 -0.0072929394 0.02621845 0.0022863976 0.014028221 0.013187237
0.005962491 -0.004086799 0.01690773 0.0045003705 0.00839385 0.01034557 0.025157068 -0.009487777
-0.02655638 -0.008579187 -0.0112077035 -0.010607406 -0.009696698 -0.010223588 -0.01832258 0.0024301582
-0.01234655 -0.00085224764 -0.013637606 -0.0014074626 -0.015283549 0.012708829 0.00257602 -0.0015438256
0.0003681986 0.00060770154 0.0013069526 0.007013398 -0.0062406026 0.015779948 0.007125995 -0.0033276475
-0.013332934 -0.0145136835 0.022629516 0.007639296 -0.0026764392 -0.011944349 0.013244617 0.018820254
0.0024611002 -0.010772841 0.015530084 0.006048809 -0.0009969212 -0.0005794162 -0.0077017546 -0.0045948066
0.009960644 0.0015193176 -0.015544612 0.018477283 0.0065567344 0.0015617555 0.008227317 0.014822325
0.001376524 0.01925222 -0.015046325 -0.0005251318 3.076762e-05 -0.007044866 -0.008473549 -0.0005187367
-0.011464579 0.0032880718 0.015171152 -0.000303977 0.010380184 -0.0006703746 0.002186914 0.0033082748
00000000: 8f6f e1bb 1cb7 31bb 0570 87bc 6e7a b4bb
00000010: 4d8b 073b 7669 77bb bc37 48bc 6f63 61bb
00000020: 5863 923b 084b 5b3c 1daf 17bc e413 0bbc
00000030: 8879 b5ba fc50 23bc d814 cb3b 0e0c dbba
00000040: 00fb 88b9 bcd2 a4bc d14a 583c 8c9a 893a
00000050: 5fdd 013c b194 843c 548e b33b 12ee 463c
00000060: 40ae 6cbb bbc8 463c fbeb 7ebb 0a73 8838
00000070: fba0 6f3b 533c 913b a157 4cbb 69f4 2abb
00000080: 17ef 8b3a 5230 6e3c faa2 153c 16a5 5dbc
00000090: 0ff7 0b3b 2856 9e3c 1f7d 7cb9 f8f9 09bc
000000a0: e925 af3b 801f b63b 54d6 b73b 0fa2 773b
000000b0: c506 17ba 7d56 40bb 7662 b93b c3e8 1dbb
000000c0: cef3 2e3c f6d0 3abc b28c 54bb 9cf9 eebb
000000d0: 13c8 d63c 63d7 153b a0d6 653c 480f 583c
000000e0: 0061 c33b 8eea 85bb 1482 8a3c d877 933b
000000f0: 5c86 093c 7780 293c 3216 ce3c 9f72 1bbc
00000100: c48c d9bc b88f 0cbc 84a0 37bc afca 2dbc
00000110: e6de 1ebc d680 27bc 3c19 96bc 4a43 1f3b
00000120: 2f49 4abc 5f69 5fba 4470 5fbc 9c7a b8ba
00000130: da67 7abc b138 503c 72d2 283b 315a caba
00000140: c80a c139 294e 1f3a 0d4e ab3a a6d0 e53b
00000150: f87d ccbb f344 813c 2e81 e93b a914 5abb
00000160: 6172 5abc cdca 6dbc 8961 b93c 0f53 fa3b
00000170: 3367 2fbb 3bb2 43bc f3ff 583c ef2c 9a3c
00000180: 694a 213b 9280 30bc e571 7e3c 1635 c63b
00000190: 20ab 82ba f7e3 17ba 005f fcbb 0890 96bb
000001a0: f831 233c d723 c73a d4ae 7ebc ac5d 973c
000001b0: e0d9 d63b d2b3 cc3a decb 063c 56d9 723c
000001c0: 7b6c b43a d5b6 9d3c dc84 76bc 00a9 09ba
000001d0: 7b0c 0138 9fd8 e6bb a4d4 0abc d5fb 07ba
000001e0: eed5 3bbc b17c 573b 6c90 783c 1a5f 9fb9
000001f0: a611 2a3c 14bc 2fba 5452 0f3b a4cf 583b

2.conv1.lin_l.weight f4 [16, 4]
0.06570198 0.03171029 0.02620297 0.08329086 0.064459346 -0.015835697 0.024538927 -0.014476392
0.07860646 0.050166503 0.043497447 0.06273833 0.06458365 0.024843194 -0.0039766296 0.02407259
0.058332056 0.036509767 0.0014373494 0.041104455 0.05523782 0.031181285 -0.018305462 0.032265797
0.10002085 -0.027891774 0.03191928 0.038853843 0.04835442 0.021236852 0.029933842 0.054014694
0.062384848 0.01948195 0.015808402 0.032518417 0.06040845 0.00036290078 0.01008532 0.041564494
0.062217426 0.008420288 0.016169302 0.054109458 0.07288026 -0.00030001058 -0.010206116 0.05766395
0.07304188 0.0125689255 0.038619038 0.027589826 0.07066428 -0.0077235973 -0.009340317 0.022905953
0.07462926 -0.0071626813 0.0067303223 0.051964115 0.06014897 0.003013628 0.027874267 0.08420634
00000000: c28e 863d a6e2 013d 9ca7 d63c 6694 aa3d
00000010: 4303 843d ddb9 81bc dc05 c93c 642e 6dbc
00000020: 6cfc a03d 647b 4d3d 612a 323d f47c 803d
00000030: 6f44 843d f483 cb3c 634e 82bb e133 c53c
00000040: 98ed 6e3d 448b 153d 7165 bc3a 255d 283d
00000050: 0d41 623d e56f ff3c 56f5 95bc 2429 043d
00000060: bbd7 cc3d 4a7d e4bc cabd 023d 3525 1f3d
00000070: 490f 463d e8f8 ad3c d137 f53c 833e 5d3d
00000080: 4187 7f3d 9c98 9f3c 9f80 813c 0832 053d
00000090: da6e 773d b843 be39 e63c 253c 883f 2a3d
000000a0: b3d7 7e3d 3ff5 093c 7c75 843c e1a1 5d3d
000000b0: 3f42 953d bd4a 9db9 8e37 27bc 0931 6c3d
000000c0: fb96 953d e5ed 4d3c ff2e 1e3d 0f04 e23c
000000d0: 6fb8 903d 3b16 fdbb 2108 19bc 44a5 bb3c
000000e0: 3ad7 983d edb4 eabb 098a dc3b 53d8 543d
000000f0: c45e 763d 4a80 453b 9358 e43c 6074 ac3d

2.conv1.lin_l.bias f4 [16]
0.05774847 0.044075996 0.020628987 0.022416769 0.019179154 -0.0011340332 0.020049307 0.04421484
0.03914224 -0.00858475 0.060348257 0.028682716 -0.010699944 0.02554213 0.027621176 0.020342734
00000000: a989 6c3d 0889 343d 1ffe a83c 5fa3 b73c
00000010: 9a1d 9d3c d7a3 94ba 723e a43c 9f1a 353d
00000020: 9d53 203d 0da7 0cbc bc2f 773d 04f8 ea3c
00000030: d14e 2fbc bb3d d13c ce45 e23c cea5 a63c

2.conv1.lin_r.weight f4 [16, 4]
0.08209919 0.010571358 0.0052715694 0.054982625 0.0847539 0.03888305 0.07141845 0.10152433
0.10777183 0.016359322 0.0568558 0.066338554 0.07983243 0.009610799 0.050276957 0.057124957
0.09811793 0.067314886 0.03115653 0.073846266 0.10832229 0.036559984 0.046734262 0.06321895
0.08037786 0.050342333 0.011968384 0.08609604 0.11766287 0.022144062 0.02544038 0.07263755
0.107389495 0.02963057 0.0531176 0.061639223 0.11175279 0.03999382 0.03961529 0.11251282
0.10757367 0.02943596 0.03098648 0.042387318 0.1299328 0.009092202 0.041225743 0.031449288
0.106789395 0.05662112 0.020993931 0.099534705 0.11630773 0.031636078 0.041184984 0.06433026
0.111761466 0.034328494 0.040813252 0.054172322 0.09465471 0.020802438 0.059274092 0.08931201
00000000: 9f23 a83d 7d33 2d3c 21bd ac3b 7635 613d
00000010: 7493 ad3d d543 1f3d d643 923d fdeb cf3d
00000020: 7ab7 dc3d fc03 863c a1e1 683d 82dc 873d
00000030: 2f7f a33d 9d76 1d3c 36ef 4d3d dcfb 693d
00000040: 0ef2 c83d 63dc 893d fb3b ff3c b63c 973d
00000050: 14d8 dd3d ecbf 153d 6d6c 3f3d f078 813d
00000060: 269d a43d c333 4e3d 0a17 443c 1f53 b03d
00000070: 3bf9 f03d 7767 b53c 5868 d03c ffc2 943d
00000080: 06ef db3d cfbb f23c d791 593d 6979 7c3d
00000090: a6de e43d 8fd0 233d a443 223d 1f6d e63d
000000a0: 964f dc3d af23 f13c 5cd7 fd3c 539e 2d3d
000000b0: 1b0d 053e 76f7 143c 53dc 283d f8d0 003d
000000c0: 66b4 da3d 8ceb 673d 77fb ab3c dad8 cb3d
000000d0: bf32 ee3d d594 013d 96b1 283d 95bf 833d
000000e0: 32e3 e43d 099c 0c3d cc2b 273d cce3 5d3d
000000f0: 54da c13d e069 aa3c 64c9 723d 37e9 b63d

2.conv2.lin_l.weight f4 [8, 16]
0.008471109 0.019852925 -0.0012794525 -0.007753234 0.012172556 -0.018912835 0.012823695 -0.013290234
0.00827327 0.0047529205 0.0185931 -0.0020658409 0.00051629514 -0.0034183767 0.0009899011 0.02220129
0.02109117 -0.001655989 0.009534219 0.0017108211 -0.0027466835 0.0017981571 0.022060396 0.011120696
0.031566814 -0.009862027 -0.0058680116 0.021702614 -0.013177945 0.0039332747 0.001285031 0.013623051
-0.015042666 -0.020027924 -0.005643879 -0.030984657 -0.009986801 -0.00863973 -0.01357476 -0.015310212
-0.006886718 -0.002502661 0.009762939 -0.0023701966 0.004809183 0.02832875 -0.000405967 -0.0010453342
-0.0075463224 0.009096519 -0.019624144 -0.0034365635 -0.016935019 0.0165947 0.0013180277 -0.013554897
-0.016629694 0.010945602 0.004028744 0.021078084 0.011401428 0.008317219 -0.0027385394 0.00021073908
0.01302542 0.0045115696 0.02759437 0.0069298036 0.013595381 0.015551123 0.008922132 0.004614539
0.019110728 0.020127866 0.0028305827 0.016634539 0.0077254428 -0.003313533 0.0003857863 0.030278733
-0.013862492 0.003732098 0.008076153 -0.00662894 -0.01701533 -0.010168114 0.017059123 -0.0030315085
0.0049756146 0.0019605937 0.009292845 0.00797906 -0.0022463647 -0.0052595735 -0.011565333 0.00058293535
-0.008062442 0.0027074488 -0.004184041 -0.012015185 -0.0069416887 0.008113588 0.0104642995 0.003635046
-0.011908734 -0.0012389143 -0.0059185517 0.0144630745 0.00231512 -0.018654313 0.005831069 -0.0041650007
0.01460029 0.0128692435 0.025656877 -0.0020645822 0.018055756 0.0020981987 -0.002633632 0.021951312
-0.011950345 0.022963598 0.0100466255 0.004445263 0.0028860753 0.015415282 0.0055870772 0.0009920269
00000000: 68ca 0a3c 9aa2 a23c 4db3 a7ba d70e febb
00000010: 666f 473c 17ef 9abc 7a1a 523c 48bf 59bc
00000020: 9c8c 073c 63be 9b3b 8f50 983c 0f63 07bb
00000030: fb57 073a d806 60bb 92bf 813a 7bdf b53c
00000040: 64c7 ac3c c50d d9ba 6a35 1c3c a13d e03a
00000050: b401 34bb 24b0 eb3a 01b8 b43c 9433 363c
00000060: 344c 013d 5794 21bc 7348 c0bb aec9 b13c
00000070: 4fe8 57bc b3e2 803b 7c6e a83a 3833 5f3c
00000080: 8475 76bc 9a11 a4bc 4af0 b8bb 89d3 fdbc
00000090: ae9f 23bc a78d 0dbc ac68 5ebc afd7 7abc
000000a0: faa9 e1bb af03 24bb bcf4 1f3c 4d55 1bbb
000000b0: 5a96 9d3b b211 e83c f8d7 d4b9 9803 89ba
000000c0: 2447 f7bb 9109 153c d0c2 a0bc f837 61bb
000000d0: 4fbb 8abc 9cf1 873c acc1 ac3a 5c15 5ebc
000000e0: ff3a 88bc 2f55 333c 8e03 843b f2ab ac3c
000000f0: 0ecd 3a3c f244 083c 1179 33bb d7f9 5c39
00000100: 9268 553c cad5 933b 970d e23c 6813 e33b
00000110: 29bf 5e3c 23ca 7e3c 222e 123c 8f35 973b
00000120: 1a8e 9c3c 32e3 a43c 4c81 393b 2845 883c
00000130: b625 fd3b dc27 59bb 5c43 ca39 1b0b f83c
00000140: 811f 63bc 3796 743b d751 043c 9437 d9bb
00000150: bc63 8bbc 2998 26bc 93bf 8b3c 46ac 46bb
00000160: 7b0a a33b 4e7d 003b 0441 183c 9aba 023c
00000170: bf37 13bb 8058 acbb 867c 3dbc 21d0 183a
00000180: 5518 04bc 746f 313b 481a 89bb 57db 44bc
00000190: 1b77 e3bb dbee 043c 7472 2b3c f439 6e3b
000001a0: da1c 43bc 1163 a2ba 69f0 c1bb 88f6 6c3c
000001b0: 45b9 173b eed0 98bc 8d12 bf3b 8f7a 88bb
000001c0: 0e36 6f3c 85d9 523c 5f2e d23c f14d 07bb
000001d0: aae9 933c ef81 093b 0399 2cbb 3dd3 b33c
000001e0: 61cb 43bc 281e bc3c 9a9a 243c 92a9 913b
000001f0: 4f24 3d3b 6190 7c3c cd13 b73b e606 823a

2.conv2.lin_l.bias f4 [8]
0.012920461 0.0027090334 -0.021065956 0.012401807 0.027035976 0.0060099196 -0.0074349553 0.013300235
00000000: 57b0 533c 0a8a 313b 8392 acbc f330 4b3c
00000010: 8d7a dd3c dcee c43b eda0 f3bb 3be9 593c

2.conv2.lin_r.weight f4 [8, 16]
0.0046807895 -0.013405807 0.0014048457 0.007884519 0.007010726 -0.0053708446 0.00012219191 0.007137434
-0.000586184 -0.006365388 0.020979658 0.017601678 -0.002537974 0.01043429 -0.004246602 0.0005503231
0.0006038764 0.004869362 0.019568402 -0.0042889323 -0.006059936 0.0059401738 -0.002101817 0.017311024
0.00089933706 0.0042751003 0.010481698 0.0022515268 -0.00851938 0.0006673148 0.0075778896 0.015660368
-0.028354835 -0.007969826 -0.012743842 -0.017065888 -0.024142958 -0.009734378 -0.0058370875 -2.3337603e-05
-0.011374536 -0.010312099 -0.007843381 0.0018171914 -0.011154846 0.0013659255 0.009079834 -0.021199837
0.004261239 -0.023230866 0.0023762726 -0.0007780139 -0.0022623104 0.0069093006 0.006744982 0.00055389403
-0.0034768658 0.018800983 0.01243633 0.015788326 -0.0011621972 0.0147610055 -0.009785883 0.0012360722
0.0014710843 0.031801082 0.00550484 0.013743777 0.004855477 -0.009485825 0.009151038 0.023133948
0.017123165 -0.0013559811 0.019229848 0.013046334 0.015649643 0.01297146 -0.0062054414 0.011776748
0.0064107524 -0.005029227 0.002003192 -0.005276301 -0.004807793 0.0017452885 0.016493835 0.021462116
0.007773605 -0.014140436 -0.001372325 -0.003512761 -0.0062773144 -0.011238835 0.007274751 -0.015097993
-0.016193211 -0.015047713 0.008582162 -0.007973027 -0.0117504755 0.007845598 0.01170086 0.0071684094
-0.0004711625 0.0018009548 -0.004822132 0.0011326516 0.0073504085 -0.005718116 0.0051706005 -0.0053842473
0.008576136 0.019702023 -0.003500036 0.005598186 0.006485275 0.009142215 -0.0057459087 0.010635606
-0.0035252739 0.011516685 -0.008492685 0.006409745 -0.0034014892 0.026304312 0.0010109008 -0.0060829846
00000000: 4f61 993b 08a4 5bbc cd22 b83a 122e 013c
00000010: 3bba e53b e9fd afbb a420 0039 23e1 e93b
00000020: 24aa 19ba bf94 d0bb 88dd ab3c 6531 903c
00000030: 2354 26bb 96f4 2a3c 1427 8bbb 8f43 103a
00000040: 764d 1e3a 2b8f 9f3b ea4d a03c 2c8a 8cbb
00000050: 6d92 c6bb caa5 c23b a3be 09bb d9cf 8d3c
00000060: 7dc1 6b3a 2416 8c3b 6ebb 2b3c 5a8e 133b
00000070: df94 0bbc bdee 2e3a f24f f83b 2c4a 803c
00000080: 6648 e8bc e093 02bc 8ccb 50bc c3cd 8bbc
00000090: 74c7 c5bc f17c 1fbc 0a45 bfbb 1fc5 c3b7
000000a0: 435c 3abc 14f4 28bc 8681 00bc d32e ee3a
000000b0: d1c2 36bc db08 b33a 96c3 143c 48ab adbc
000000c0: dda1 8b3b a84e bebc 3dbb 1b3b a1f3 4bba
000000d0: 4543 14bb 6a67 e23b 0305 dd3b 3333 113a
000000e0: 21dc 63bb 8504 9a3c c0c1 4b3c 8556 813c
000000f0: de54 98ba 25d8 713c f854 20bc b303 a23a
00000100: 66d1 c03a da41 023d f261 b43b 942d 613c
00000110: b11a 9f3b 6f6a 1bbc 3cee 153c 6883 bd3c
00000120: e145 8c3c 2dbb b1ba ea87 9d3c 4ac0 553c
00000130: ae33 803c 3f86 543c 0457 cbbb 43f3 403c
00000140: 4a11 d23b 37cc a4bb fc47 033b d2e4 acbb
00000150: b18a 9dbb 2ac2 e43a 141e 873c 52d1 af3c
00000160: bab9 fe3b 4aad 67bc 96df b3ba 5a36 66bb
00000170: eeb1 cdbb 1723 38bc 0961 ee3b 935d 77bc
00000180: a0a7 84bc af8a 76bc 329c 0c3c 4da1 02bc
00000190: 1185 40bc d38a 003c f7b4 3f3c fae4 ea3b
000001a0: 5c06 f7b9 040e ec3a fa02 9ebb 7b75 943a
000001b0: b2db f03b 095f bbbb 246e a93b 576e b0bb
000001c0: ec82 0c3c 2366 a13c dc60 65bb fd70 b73b
000001d0: 6e82 d43b 3bc9 153c 2d48 bcbb f740 2e3c
000001e0: 4808 67bb 7ab0 3c3c e724 0bbc d708 d23b
000001f0: 85eb 5ebb 247c d73c 3480 843a c653 c7bb

3.conv1.lin_l.weight f4 [16, 4]
0.13629201 -0.014550862 0.020181417 0.07725164 0.06805376 -0.02429474 0.03525984 0.08613392
0.0461553 0.0258408 0.042800516 0.058527313 0.08833012 -0.00010147512 0.010736891 0.025384903
0.08911171 -0.0032853482 0.050157264 0.10301682 0.07186859 -0.00016298145 0.016925443 0.08451339
0.079299174 0.051809955 0.024461484 0.072255485 0.10882698 0.022039756 0.016616806 0.056301802
0.08733559 0.03682973 0.016513074 0.07847531 0.07145833 -0.0017532221 0.047183655 0.07267113
0.056381956 0.00096076506 0.031526636 0.063434646 0.08154747 0.0103161745 0.012101996 0.089294255
0.08546903 0.027197653 -0.0050810175 0.063690074 0.08280962 0.011215091 0.010579015 0.045794673
0.044276647 0.011871696 0.035742413 0.08854172 0.101408236 -0.018503174 0.04000317 0.08425424
00000000: 2290 0b3e bd66 6ebc 8053 a53c 1c36 9e3d
00000010: c55f 8b3d c305 c7bc 9f6c 103d fb66 b03d
00000020: 570d 3d3d 16b0 d33c 984f 2f3d 56ba 6f3d
00000030: 6ce6 b43d 0acf d4b8 c9e9 2f3c 00f4 cf3c
00000040: 3380 b63d ff4e 57bb b471 4d3d 7cfa d23d
00000050: d72f 933d 00e6 2ab9 3aa7 8a3c 5b15 ad3d
00000060: 9b67 a23d ad36 543d 7363 c83c affa 933d
00000070: aee0 de3d b88c b43c f81f 883c b89c 663d
00000080: 00dd b23d c5da 163d 6d46 873c aab7 a03d
00000090: bf58 923d 5fcc e5ba a643 413d 9ad4 943d
000000a0: c4f0 663d dadb 7b3a 1322 013d 06ea 813d
000000b0: 5c02 a73d 2c05 293c 7347 463c e8df b63d
000000c0: 630a af3d 9dcd de3c aa7e a6bb f16f 823d
000000d0: 1798 a93d 80bf 373c 9b53 2d3c 3293 3b3d
000000e0: 6e5b 353d 8181 423c a366 123d 5c55 b53d
000000f0: 1faf cf3d f893 97bc 5dda 233d 7d8d ac3d

3.conv1.lin_l.bias f4 [16]
0.022268152 0.003024236 0.013278156 -0.0067823934 0.030929742 -0.0043743933 0.01313404 0.029875355
0.019450106 0.042855296 0.0036002554 0.009930936 0.013919591 0.057603132 -0.002673247 0.01008003
00000000: b36b b63c 4332 463b 9f8c 593c d73e debb
00000010: 5f60 fd3c 1257 8fbb 2830 573c 29bd f43c
00000020: d455 9f3c 0989 2f3d 43f2 6b3b 5db5 223c
00000030: ff0e 643c 43f1 6b3d a431 2fbb b626 253c

3.conv1.lin_r.weight f4 [16, 4]
0.09107798 0.04586049 0.086681224 0.10747855 0.111067794 0.049445964 0.048436016 0.09681801
0.08152911 0.045741428 0.04301496 0.11356283 0.12773415 0.03965006 0.03550006 0.08529958
0.09478633 0.035292793 0.027557865 0.086044595 0.09932832 0.034658097 0.035121195 0.09325692
0.11279944 0.048833154 0.051325962 0.12221412 0.08120422 0.040715404 0.073160276 0.099458024
0.098342136 0.023045063 -0.000248151 0.08325591 0.12048322 0.032200426 0.057672925 0.10249896
0.1003594 0.037027832 0.034059998 0.09612921 0.10546453 0.05119024 0.041643232 0.10372904
0.086837284 0.026034866 0.020332566 0.08081255 0.08817833 0.043133035 0.029539695 0.106824964
0.045542717 0.040622458 0.031164087 0.084007986 0.09617744 0.020035198 0.028720455 0.10652859
00000000: 1887 ba3d 36d8 3b3d ed85 b13d b71d dc3d
00000010: 8377 e33d da87 4a3d d864 463d 8548 c63d
00000020: bcf8 a63d 5d5b 3b3d 7430 303d a193 e83d
00000030: becc 023e 1a68 223d 8368 113d 8cb1 ae3d
00000040: 561f c23d 2d8f 103d 08c1 e13c 2638 b03d
00000050: a56c cb3d a6f5 0d3d 3edb 0f3d 7cfd be3d
00000060: 6503 e73d 4605 483d 2c3b 523d 664b fa3d
00000070: 664e a63d 32c5 263d 0ed5 953d a6b0 cb3d
00000080: 9a67 c93d 00c9 bc3c 431a 82b9 1382 aa3d
00000090: e8bf f63d 98e4 033d 723a 6c3d faea d13d
000000a0: 3b89 cd3d 7faa 173d 7f82 0b3d 64df c43d
000000b0: cafd d73d dbac 513d 1892 2a3d e46f d43d
000000c0: bfd7 b13d 1247 d53c 7b90 a63c 0d81 a53d
000000d0: d796 b43d 44ac 303d 3bfd f13c 0cc7 da3d
000000e0: 008b 3a3d bc63 263d d44b ff3c 610c ac3d
000000f0: adf8 c43d db20 a43c 2947 eb3c a92b da3d

3.conv2.lin_l.weight f4 [8, 16]
0.0050739474 0.0021531528 -0.008275097 0.0038578375 5.7369172e-05 0.0007082231 0.0014486578 -0.014578573
0.0009480034 -0.01310887 -0.00963759 -0.02551294 -0.017588316 -0.015791627 -0.00050985883 -0.002173456
-0.018507976 -0.013110344 -0.032181814 0.0011563821 -0.009855701 0.0039170966 0.00903029 0.007455066
-0.0028000567 0.022936447 0.0036134738 0.009391986 -0.0007523998 0.00811516 -0.015289874 0.008974006
0.018706188 -0.009902924 -0.0039263926 -0.009614603 -0.00043875337 -0.0086896345 0.009561289 -0.007694341
0.003976899 -0.008311267 -0.011656222 -0.012644972 -0.0024616336 0.010676309 -0.0013473139 -0.00215184
-0.010233173 0.00057713804 -0.0043980908 0.01084198 -0.0070081735 -0.018533982 -0.0054423986 0.0035998626
-0.007196281 -0.007230812 -0.0021724878 -0.0014952496 0.0074544777 -0.016924066 -0.0042660995 0.007165474
0.010467632 0.018720761 0.01277571 0.004263997 0.00067990244 0.015961612 -0.0003569919 -0.017522816
-0.012089589 -0.0071625034 0.008168935 0.0023179145 0.0014235834 -0.013459878 0.001959741 -0.006454042
0.0004066919 0.0019760737 -0.012104351 -0.015824068 0.025676027 -0.008778311 -0.0050578844 0.015214914
-0.008303025 0.001267919 -0.018479438 -0.00636835 0.00486353 0.008094561 -0.00021420069 0.0009981898
0.005374265 0.0037489953 0.011337432 0.019208318 -0.012768932 -0.007285978 -0.0062541477 -0.0009057732
0.00405197 0.016080381 0.014844277 -0.0044879075 -0.004300891 0.014690352 0.008025998 -0.013748637
-0.00020798833 0.0011572371 0.011854244 -0.0033641614 -0.009276373 0.0002324745 0.0036900402 -0.0029879648
0.007564161 -0.0031600762 0.0055179335 0.007668472 0.006507413 -0.003298162 -0.00081519515 0.008636466
00000000: 5b43 a63b e91b 0d3b 4694 07bc c6d3 7c3b
00000010: ae9f 7038 0ca8 393a e4e0 bd3a f8da 6ebc
00000020: 6e83 783a 96c6 56bc fbe6 1dbc 8300 d1bc
00000030: 5f15 90bc 715d 81bc 0ca8 05ba 8a70 0ebb
00000040: 0a9e 97bc c5cc 56bc 14d1 03bd bf91 973a
00000050: ce79 21bc fd5a 803b c8f3 133c a049 f43b
00000060: 2881 37bb 37e5 bb3c 08d0 6c3b d8e0 193c
00000070: b23c 45ba 73f5 043c 6182 7abc b607 133c
00000080: b83d 993c e03f 22bc f8a8 80bb 9186 1dbc
00000090: 7b08 e6b9 f85e 0ebc f4a6 1c3c cf20 fcbb
000000a0: a650 823b fb2b 08bc bdf9 3ebc db2c 4fbc
000000b0: 5c53 21bb afeb 2e3c 5a98 b0ba e205 0dbb
000000c0: 0aa9 27bc 144b 173a dc1d 90bb 8fa2 313c
000000d0: d2a4 e5bb 94d4 97bc 2656 b2bb aceb 6b3b
000000e0: c8ce ebbb 73f0 ecbb 4c60 0ebb 40fc c3ba
000000f0: b144 f43b 57a4 8abc a3ca 8bbb 5acc ea3b
00000100: 6e80 2b3c 485c 993c 3651 513c 00b9 8b3b
00000110: 7b3b 323a edc1 823c a42a bbb9 028c 8fbc
00000120: 6913 46bc 6fb3 eabb ffd6 053c 27e8 173b
00000130: 8897 ba3a d286 5cbc 006f 003b 6e7c d3bb
00000140: 4339 d539 0481 013b 5451 46bc 7aa1 81bc
00000150: 8856 d23c e8d2 0fbc 9cbc a5bb fa47 793c
00000160: 6909 08bc 4d30 a63a 3162 97bc 97ad d0bb
00000170: 3f5e 9f3b 0d9f 043c 0f9b 60b9 b1d5 823a
00000180: 9a1a b03b b4b1 753b a3c0 393c c35a 9d3c
00000190: c834 51bc 37bf eebb 98ef ccbb 6971 6dba
000001a0: 63c6 843b 01bb 833c 6935 733c 4c0f 93bb
000001b0: 7dee 8cbb cdaf 703c 7a7f 033c f741 61bc
000001c0: 7117 5ab9 6fae 973a 4e38 423c 4379 5cbb
000001d0: eefb 17bc 66c4 7339 9ad4 713b bbd1 43bb
000001e0: c8dc f73b 4819 4fbb c8cf b43b ce47 fb3b
000001f0: 233c d53b fa25 58bb d2b2 55ba f77f 0d3c

3.conv2.lin_l.bias f4 [8]
-0.009409781 -0.0015566626 -0.009200163 0.0017828243 -0.0039506466 -0.013900179 0.00054595905 0.0058874465
00000000: 7b2b 1abc ee08 ccba 48bc 16bc a8ad e93a
00000010: 6d74 81bb 94bd 63bc b11e 0f3a 7beb c03b

3.conv2.lin_r.weight f4 [8, 16]
0.0008748265 -0.0043410193 -0.017554427 0.008324815 0.00968124 -0.0038232906 -0.01289536 -0.0022030817
-0.0040026307 -0.006599633 0.008507661 -0.008503289 0.0045173205 -0.011267028 0.010397412 -0.019941807
-0.011994766 0.011767652 -0.0055161472 0.0124177 -0.013701657 0.0059799766 -0.011727171 0.005318296
0.018350339 -0.014587627 0.013542025 -0.014301484 -6.756663e-05 0.015486226 -0.013740574 0.0020368854
-0.01612069 -0.00684786 -0.0034253143 0.008698279 0.0005518475 0.013160144 0.027592912 -0.0049265604
0.023629215 0.0061177053 -0.0013345055 -0.0041805645 -0.020377588 0.0036423772 -0.003824663 0.004829589
-0.009234659 -0.0035623705 0.0009932342 -0.0019567616 -0.024495313 -0.0053418027 0.00091541576 -0.0045095193
-0.0013204935 -0.005320662 -0.0077608163 0.0034347728 0.0029289187 0.023570446 -0.0068510864 -0.012755401
-0.00094911066 0.0016541326 0.0054734037 -0.0024131476 0.0017430063 0.0032127649 0.007741818 -0.0021489493
-0.003509999 0.0035125185 -0.01370507 0.019445948 -0.005734657 0.00071002374 -0.0041129976 0.00984718
0.0015214018 -0.0029056466 -0.0104560265 -0.028091764 -0.0022834425 -0.018210525 -0.006377127 0.0036984205
0.0011940975 0.012340656 -0.0071156 -0.0010679628 0.009693977 -0.015154068 -0.022211032 0.005473086
0.014923394 0.0035610509 -0.00010653868 0.014004065 -1.8315613e-05 0.011479645 -0.0006700372 -0.006468609
0.007204866 0.009309967 0.004614026 -0.011430625 0.0067508435 0.004268663 0.0024009072 0.0018237272
-0.009617376 -0.00034805932 0.0063339244 -0.016090296 0.020360162 0.0060787313 -0.006183203 -0.0016721669
0.019164864 -0.0053931326 0.009097862 2.0006299e-05 0.0037417517 0.011883586 0.006370619 0.0024314665
00000000: 9d54 653a 1c3f 8ebb 4dce 8fbc ce64 083c
00000010: 109e 1e3c 2c90 7abb 0f47 53bc 9461 10bb
00000020: 8028 83bb bc41 d8bb b763 0b3c 6151 0bbc
00000030: 0806 943b 5799 38bc e859 2a3c 005d a3bc
00000040: b285 44bc 1ccd 403c ccc0 b4bb 9c73 4b3c
00000050: ea7c 60bc aef3 c33b 5223 40bc 1a45 ae3b
00000060: 7353 963c f100 6fbc 5fdf 5d3c c650 6abc
00000070: 8fb2 8db8 f1b9 7d3c 2520 61bc 447d 053b
00000080: 8a0f 84bc 0364 e0bb 3d7b 60bb 3a83 0e3c
00000090: dca9 103a a59d 573c 880a e23c fc6e a1bb
000000a0: 0e92 c13c 0877 c83b 93ea aeba 1efd 88bb
000000b0: e6ee a6bc f3b4 6e3b 33a7 7abb 8741 9e3b
000000c0: f84c 17bc a976 69bb 692f 823a 033d 00bb
000000d0: 65aa c8bc 4a0a afbb 83f8 6f3a 97c4 93bb
000000e0: 6914 adba f358 aebb 724e febb ed19 613b
000000f0: 1af3 3f3b cf16 c13c 147f e0bb 08fc 50bc
00000100: bdcd 78ba 7bcf d83a 3d5a b33b e625 1ebb
00000110: 9675 e43a 408d 523b 14af fd3b 63d5 0cbb
00000120: 0308 66bb 4832 663b 3b8b 60bc 1c4d 9f3c
00000130: cae9 bbbb e320 3a3a 53c6 86bb 1156 213c
00000140: c669 c73a a96c 3ebb c14f 2bbc b320 e6bc
00000150: cfa5 15bb 3d2e 95bc 38f7 d0bb 3361 723b
00000160: 4383 9c3a 7630 4a3c fb29 e9bb e3fa 8bba
00000170: 7dd3 1e3c c548 78bc e9f3 b5bc 9357 b33b
00000180: 4081 743c 8560 693b 856d dfb8 4e71 653c
00000190: 7ba4 99b7 1f15 3c3c 6fa5 2fba a0f6 d3bb
000001a0: cc16 ec3b d588 183c 4131 973b 8447 3bbc
000001b0: 2e36 dd3b 24e0 8b3b 8a58 1d3b 210a ef3a
000001c0: 3392 1dbc bb7b b6b9 cf8c cf3b cccf 83bc
000001d0: 5bca a63c 1830 c73b 779c cabb 9c2c dbba
000001e0: a2ff 9c3c e0b8 b0bb 330f 153c 33d3 a737
000001f0: 2d38 753b 5fb3 423c a0c0 d03b 3d59 1f3b

4.conv1.lin_l.weight f4 [16, 4]
0.08649581 0.008228047 -0.01572718 0.00843175 0.1075428 0.02335476 0.050461628 0.023668407
0.06225549 0.008638351 0.012552005 0.0047741425 0.08488581 0.018822562 0.015233709 0.022422226
0.087520115 0.046730656 0.031123739 0.015616094 0.04489601 -0.022863798 0.020514796 0.0038582447
0.06838917 -0.0007104844 0.016858954 0.03525868 0.09867859 -0.014919401 0.031698655 0.045112025
0.060810503 -0.016235119 0.016257003 0.030889966 0.073000625 0.007048004 0.0069923527 0.0039595766
0.07392925 0.010743087 0.0429286 0.025284741 0.08610384 0.041828018 0.020954229 0.025695119
0.10143128 0.033936188 -0.0003211549 0.05368155 0.10670901 0.016606223 0.017466415 0.049300753
0.06888058 -0.021391645 0.0397531 0.039084926 0.09218448 0.011654185 0.018148778 0.038499083
00000000: b724 b13d eece 063c 49d6 80bc 5325 0a3c
00000010: 663f dc3d 7b52 bf3c dab0 4e3d 3fe4 c13c
00000020: 9dff 7e3d df87 0d3c eda6 4d3c 6970 9c3b
00000030: 9dd8 ad3d c631 9a3c ce96 793c d1ae b73c
00000040: bf3d b33d a568 3f3d 36f7 fe3c a5da 7f3c
00000050: e1e4 373d dc4c bbbc a50e a83c 9bda 7c3b
00000060: 9f0f 8c3d cd3f 3aba ca1b 8a3c 686b 103d
00000070: 0018 ca3d 8170 74bc 73d6 013d 63c7 383d
00000080: 6f14 793d 83ff 84bc 682d 853c f40c fd3c
00000090: 5a81 953d f1f2 e63b 1b20 e53b 56bf 813b
000000a0: 3868 973d c603 303c e6d5 2f3d f221 cf3c
000000b0: 3657 b03d db53 2b3d 34a8 ab3c 927e d23c
000000c0: 34bb cf3d ac00 0b3d ae60 a8b9 2fe1 5b3d
000000d0: 418a da3d c609 883c ba15 8f3c 96ef 493d
000000e0: 4311 8d3d 883d afbc 26d4 223d 8417 203d
000000f0: 37cb bc3d 32f1 3e3c bfac 943c 37b1 1d3d

4.conv1.lin_l.bias f4 [16]
-0.0021934814 -4.3079257e-05 0.0011994023 -0.021563709 0.0055780835 0.018332696 0.04072638 0.058076877
0.032505 0.016403574 0.024358314 -0.0004530835 0.0058571245 0.015476834 0.02549919 0.04035584
00000000: 83c0 0fbb 00b0 34b8 4335 9d3a 60a6 b0bc
00000010: 5bc8 b63b 732e 963c b4d0 263d 05e2 6d3d
00000020: f623 053d ca60 863c 168b c73c d78b edb9
00000030: 1fed bf3b 8c92 7d3c ade3 d03c 2a4c 253d

4.conv1.lin_r.weight f4 [16, 4]
0.12188214 0.035088424 0.033292323 0.06211366 0.12155205 0.043000884 0.0478594 0.043101333
0.112394035 0.05166984 0.0480797 0.036763847 0.12039369 0.030521166 0.043921128 0.05526949
0.124243945 0.07688685 0.035334412 0.059232756 0.1269556 0.03814906 0.044593077 0.061676003
0.10849407 0.033566248 0.020608721 0.020007215 0.109553725 0.0359085 0.024492698 0.056915406
0.101571895 0.03187427 0.064953476 0.083787985 0.10018572 0.012416962 0.03478602 0.06911615
0.083067395 0.033554934 0.03904997 0.039236788 0.09675444 0.023441948 0.019723604 0.046973683
0.12613851 0.016987815 0.019836092 0.06975347 0.13528079 0.030468492 0.044694412 0.07362396
0.105053075 0.0148137715 0.049944248 0.038273387 0.10953866 0.047378436 0.010185826 0.050262347
00000000: 589d f93d e1b8 0f3d 885d 083d e56a 7e3d
00000010: 48f0 f83d b221 303d 3808 443d 068b 303d
00000020: d82e e63d c1a3 533d 38ef 443d b095 163d
00000030: f890 f63d 8607 fa3c a4e6 333d 4362 623d
00000040: 9c73 fe3d da76 9d3d d1ba 103d 0c9e 723d
00000050: a600 023e 3042 1c3d 3ba7 363d fa9f 7c3d
00000060: 2432 de3d c37c 093d 9fd3 a83c 2ce6 a33c
00000070: b45d e03d cb14 133d e9a4 c83c 2120 693d
00000080: ed04 d03d 988e 023d 5406 853d 0999 ab3d
00000090: 2c2e cd3d 8370 4b3c c97b 0e3d c58c 8d3d
000000a0: 3d1f aa3d e670 093d ddf2 1f3d c1b6 203d
000000b0: 3127 c63d 5409 c03c 6593 a13c 7a67 403d
000000c0: 742a 013e 082a 8b3c 4d7f a23c e8da 8e3d
000000d0: 0c87 0a3e 0f99 f93c 7d11 373d 29c8 963d
000000e0: 1126 d73d 76b5 723c 5792 4c3d 8ec4 1c3d
000000f0: ce55 e03d e40f 423d 73e2 263c e4df 4d3d

4.conv2.lin_l.weight f4 [8, 16]
-0.0015770919 0.0069089625 0.006808304 -0.0021443036 0.0050357645 -0.0072256834 0.012660915 -0.00086638785
-5.546793e-05 -0.0074133165 0.007630073 0.0069676335 -0.0047167153 -0.0033537264 0.0036284945 0.010240504
0.004910904 -0.0015370408 0.019268597 0.014065946 0.010193774 -0.008591315 -0.0009584898 -0.002542478
0.0020785937 -0.011789083 -0.0023090339 -0.0015420744 0.0020778961 0.002246908 -0.004387027 -0.005442553
0.0001323267 0.0107426755 0.010070628 0.0038276345 0.007780165 -0.0053688204 0.008920484 0.009175257
-0.0019664923 0.019589657 0.027754968 0.0061059464 0.017920092 -0.00346416 0.013898776 0.01200201
-0.0029032337 -0.0028801141 0.013786567 -0.0057474375 -0.003035242 0.012948933 8.718699e-05 -0.004923682
0.0055290763 0.0017533167 -0.0033880838 -0.015753698 0.008389256 0.0068951524 -0.0050592516 -0.021207089
0.01122981 -0.004113295 -0.0018621018 -0.007492766 -0.0040247906 0.013689578 -0.0030442579 0.007753986
0.010286551 0.0071891393 -0.016116846 0.0010076887 -0.0053138947 0.0006790741 0.007207715 -0.016712856
-0.009785569 0.014388897 0.006242987 0.0005681885 0.020180404 0.0037502456 -0.007751246 -0.017907098
-0.00858767 0.0022057134 -0.0016283345 -0.011111742 -0.009499534 0.006498643 0.0015181089 -0.0022758653
-0.0039970456 0.00081597135 0.030491687 0.0045702346 0.019692278 -0.0040303455 -0.0008452791 0.0024448098
-0.0018784794 -0.004850095 0.009671006 0.006437357 -0.0027712232 -0.009162731 0.012141568 0.0063033216
-0.021279048 0.0035356665 0.0098233 -0.013854261 0.002312529 -0.008757805 -0.006251116 -0.0094041005
0.010392964 -0.0070017534 -0.016694823 -0.010344953 -0.006889503 0.018019238 -0.015727043 -0.020243173
00000000: 6cb6 ceba 9464 e23b 3218 df3b 7287 0cbb
00000010: 0e03 a53b 6dc5 ecbb ba6f 4f3c 4e1e 63ba
00000020: 3da6 68b8 68eb f2bb b105 fa3b bf50 e43b
00000030: ad8e 9abb 31ca 5bbb 09cc 6d3b c9c7 273c
00000040: a6eb a03b 8876 c9ba 2dd9 9d3c db74 663c
00000050: c903 273c 96c2 0cbc 2943 7bba b49f 26bb
00000060: 0439 083b ff26 41bc 2953 17bb 6e1f caba
00000070: 502d 083b dc40 133b 0dc1 8fbb 7257 b2bb
00000080: 2ec1 0a39 0c02 303c 46ff 243c 0dd9 7a3b
00000090: c1f0 fe3b eeec afbb 3927 123c d153 163c
000000a0: 44e0 00bb 7d7a a03c 635e e33c 6414 c83b
000000b0: 28cd 923c f606 63bb b1b7 633c 14a4 443c
000000c0: 2e44 3ebb 4cc0 3cbb 0ee1 613c 0055 bcbb
000000d0: e9ea 46bb c327 543c 29d8 b638 d756 a1bb
000000e0: 412d b53b 8ccf e53a 9d0a 5ebb e60d 81bc
000000f0: 1773 093c bbf0 e13b 14c8 a5bb 7dba adbc
00000100: 3dfd 373c d2c8 86bb c511 f4ba e085 f5bb
00000110: 64e2 83bb 404a 603c 2c82 47bb 2615 fe3b
00000120: ec88 283c df92 eb3b 7a07 84bc 6c14 843a
00000130: 2e20 aebb e403 323a b22e ec3b 66e9 88bc
00000140: a753 20bc 69bf 6b3c f891 cc3b 7cf2 143a
00000150: 6051 a53c aec6 753b 2afe fdbb e8b1 92bc
00000160: 4cb3 0cbc bb8d 103b d76d d5ba 060e 36bc
00000170: efa3 1bbc 92f2 d43b 48fb c63a af26 15bb
00000180: a6f9 82bb e9e6 553a b4c9 f93c e8c1 953b
00000190: b351 a13c fd10 84bb b895 5dba 1a39 203b
000001a0: 4f37 f6ba 8ced 9ebb 2473 1e3c 77f0 d23b
000001b0: 699d 35bb 471f 16bc 6ded 463c 188c ce3b
000001c0: 6651 aebc a4b6 673b e8f1 203c fbfc 62bc
000001d0: cc8d 173b e67c 0fbc 29d6 ccbb a813 1abc
000001e0: 4047 2a3c f76e e5bb 95c3 88bc e17d 29bc
000001f0: 57c1 e1bb 159d 933c 00d6 80bc 03d5 a5bc

4.conv2.lin_l.bias f4 [8]
0.0030992266 -0.000509277 0.0101177525 0.00093791005 -0.001545391 -0.0016111311 -0.0061942725 -0.011252382
00000000: 651c 4b3b 0081 05ba eec4 253c 14de 753a
00000010: b88e caba 972c d3ba 53f9 cabb e95b 38bc
