results/agent_Core-Periphery_2k.pth (torch, 36239 bytes, 60 tensors)

0.conv1.lin_l.weight f4 [16, 4]
00000000: 17ea 033e 6af7 7e3b 1570 843d eae8 0e3e
00000010: fad0 003e 5816 b73c 975f 2e3d 8bfe 043e
00000020: 74f5 c83d b46e df3b 8eb0 213d 5c11 dc3d
00000030: 6ff3 df3d 448c 41ba 9092 093d 0d8c e03d
00000040: c182 c53d c579 843c 8149 363d 776e ec3d
00000050: 767f ac3d 8f62 883c 3483 193d ec7d e13d
00000060: a030 d33d 4356 113c cde5 873d 6916 f73d
00000070: 6008 b33d 0f80 bd3b 6a3f 953c ff90 9e3d
00000080: 8197 ae3d 01a4 063c 8674 7d3d 542a bd3d
00000090: 6eae fc3d 8888 993c 821f 193d 7365 cd3d
000000a0: c3b2 a53d 1c8a f33c fde3 1d3d dc20 163e
000000b0: fa22 a83d 3400 073d 3716 7e3d 5040 193e
000000c0: cc56 093e 3fd0 ac3b aaaf 663c 6459 133e
000000d0: 1a22 a33d 1b63 bd3c 1f5e c53c ff90 e83d
000000e0: 56e0 ca3d 8eea 533d d1b2 2b3d 2ffe ed3d
000000f0: aa52 e83d 87a4 213d 1ced 933d 816e c83d
0.12882267 0.0038904794 0.064666905 0.13956037 0.12579718 0.022349522 0.04257163 0.12987725
0.098124415 0.0068186168 0.039475016 0.107454985 0.10935103 -0.0007383267 0.03358704 0.109642126
0.0964408 0.016171345 0.044503693 0.11544507 0.08422749 0.016648559 0.03747864 0.11010346
0.10312009 0.008870664 0.06635628 0.12064821 0.08741832 0.005783088 0.018218715 0.077424996
0.08524991 0.0082178125 0.061878704 0.09236589 0.12337957 0.018741861 0.037383564 0.100291155
0.08090737 0.029728942 0.038547505 0.14660972 0.08209796 0.032959178 0.062032904 0.1496594
0.13412017 0.0052738483 0.0140799675 0.14389569 0.07965489 0.023118546 0.024092732 0.11355781
0.0990607 0.05173736 0.04191858 0.11620747 0.11343892 0.039463546 0.072229594 0.09786702

0.conv1.lin_l.bias f4 [16]
00000000: f1ed ac3d 54c4 653d 493a e13c c38e 6e3d
00000010: da16 873d f7ea 963d bb52 423d 7ac9 9f3d
00000020: 6e1a b53d 19b2 843d a45e 4c3d acc2 ca3d
00000030: 7823 813d 53cc a33d c4f6 a63d ef0a a73d
0.08443821 0.056095436 0.027493613 0.058241617 0.065961555 0.07369035 0.04744218 0.078021005
0.08842932 0.06479282 0.049894944 0.09900412 0.06305593 0.07997956 0.081525356 0.08156382

0.conv1.lin_r.weight f4 [16, 4]
00000000: 247b 113e 5faa 6a3d 6075 573d dfeb 083e
00000010: ab6a 133e ccaa 113d 1211 d23c df20 f63d
00000020: f5d1 193e 0921 f83c a4e1 9c3d e9b3 073e
00000030: d87b 163e 1de3 103d b8fb 533d 77e1 b13d
00000040: dbc4 eb3d 76c2 2e3d 0e77 803d 9a9a af3d
00000050: 5854 0e3e a4fe 883d 8181 c13d 2d7d 0d3e
00000060: 948f df3d aa16 ee3c 355a 983d 4fdb 373e
00000070: e240 1c3e 9444 563d ffa3 6e3d d273 f63d
00000080: 4d7a b43d a011 d53b 52c4 613d b85f c33d
00000090: 7bb2 ce3d ec16 873d 6623 063d 76f7 d23d
000000a0: 9b6f dc3d dc5e 543d 24d6 733d 4ca9 123e
000000b0: 00bc 173e 97bc 623c a541 8b3d d788 f43d
000000c0: 4769 0f3e 78e8 843d e308 783d d688 d53d
000000d0: 9f0d 093e d2eb e03c effb bb3d e94e fe3d
000000e0: 7a76 d93d c0f1 733c f693 823d f3c6 013e
000000f0: 2157 e93d cd20 e1bb 6634 623d 5159 ce3d
0.1420713 0.057291385 0.052602172 0.13371228 0.1439616 0.035563275 0.025642905 0.120179884
0.15021499 0.03028919 0.07660225 0.13252224 0.1469568 0.035372842 0.05175373 0.08685582
0.115121566 0.04266592 0.06272708 0.0857441 0.13899362 0.06689194 0.09448529 0.13817282
0.10916057 0.029063541 0.074390806 0.17954753 0.15259126 0.052311495 0.058261868 0.1203381
0.088123895 0.006502345 0.055118866 0.09539741 0.10092636 0.06596169 0.032748602 0.10301106
0.107634746 0.051848277 0.059530392 0.14322394 0.1481781 0.013838909 0.0679963 0.11940163
0.14005004 0.064896524 0.06055535 0.1042649 0.13384102 0.027456198 0.09178912 0.12417395
0.10618301 0.014889181 0.063758776 0.1267355 0.11393572 -0.0068703652 0.055225752 0.100756295

0.conv2.lin_l.weight f4 [8, 16]
00000000: 1dc7 ffbb c3cd 74bc 5c2f df3c 4f19 2f3b
00000010: efe7 5a3c 7c97 f63a 0e99 d53c caf0 7d3b
00000020: 944a 2d3c 5750 c23b 1c02 8e3c 7a60 9fbb
00000030: c013 b43b 4fa4 82ba 38c8 9c39 cae6 2c3a
00000040: b301 d6b9 0314 91bc 7d30 acbb 4ea8 8f3c
00000050: 2c42 77bb 891c 273c e133 173a dcd5 8b3b
00000060: 981b 013b 9812 2a3c a988 95bb eeee f7ba
00000070: 750c 843b 9cc8 86bb 8478 903c 8418 e93a
00000080: 0caf f13b 89d0 393c aed6 423c 6442 393c
00000090: 7319 583c 5a4e e43c a6b9 643c da87 4e3c
000000a0: 5d34 373c 2f31 20bb 21b6 84bc 0a75 8e3c
000000b0: 71a2 bebb 5735 f6bb 6d3c ae3c 6db4 403b
000000c0: e462 2f3c 934b ce3c a761 883c a94a f53c
000000d0: 48b2 d93c d99d 0a3d e97d 003d c41d 493c
000000e0: bdc8 943c 5473 ec3c 047e e03c 2626 163c
000000f0: 7bba b83c 934e 963c 8fe1 a63a da1a 3e3c
00000100: 9b00 e13a 832b 3ebc 8338 92ba 03d0 27bc
00000110: 29cb 4c3b 0556 f43b 763b e73b 1a53 fdb9
00000120: 0fd8 973b 7451 3abc 48fb b03a 94bd b63b
00000130: bd5b 673b a7b4 23bc f6d9 60bb 980c 833c
00000140: 7f39 05bc 14f0 6d3b cd16 aabb c045 84bc
00000150: 69f1 823b 06d4 50bb 84eb 993c 2560 813b
00000160: 1c9b 72bb 3b44 db3a bd31 703c 5704 d1bb
00000170: fdc0 373b ffdd 03bc a349 2cbc 3741 143c
00000180: 434e 3dbb 78b1 ad3b 4d83 933b f25a 263b
00000190: e942 72bb cbeb 183b f66d 91bb 74ae 533c
000001a0: 4801 89ba 9cf7 a6bb 299f 4a3c 8fbe d8b9
000001b0: 73e2 7cbc 3828 f03c 5bb1 c33b 00ee 4b3c
000001c0: 7105 69bc a15a 95bc 91d0 20bc 3478 ccbc
000001d0: 4c54 00bd ef23 a2ba 786d 81bc 76c4 5abc
000001e0: 20a6 33bc 7c2a a2bb 96ea 44bc d677 9fbc
000001f0: 1a7e b9bb 8803 cabc 41a1 75bc 1fee 9fbb
-0.0078057186 -0.014941636 0.027244262 0.0026717966 0.013360961 0.0018813456 0.026073959 0.0038748258
0.010576863 0.0059299874 0.01733499 -0.004863796 0.0054955184 -0.0009967181 0.00029903813 0.00065956695
-0.00040818527 -0.017709738 -0.0052548037 0.017536309 -0.003772865 0.010199674 0.00057679234 0.0042674374
0.0019700285 0.01038041 -0.0045634103 -0.0018915811 0.0040298053 -0.00411327 0.017635591 0.0017783795
0.0073756035 0.011341223 0.011892004 0.011307333 0.013189661 0.027869392 0.013960278 0.012605632
0.011181918 -0.0024443378 -0.016200127 0.017389793 -0.0058177044 -0.007513683 0.021269048 0.0029404417
0.01070473 0.025182521 0.016648127 0.029942827 0.026574269 0.03384194 0.031370077 0.012275163
0.018162126 0.028863586 0.027403839 0.009164369 0.022549858 0.018348014 0.0012732017 0.011603082
0.0017166318 -0.011607054 -0.0011155758 -0.010242465 0.0031249023 0.0074565434 0.007056649 -0.00048317836
0.0046339105 -0.011371959 0.0013502622 0.0055767987 0.0035302483 -0.009991801 -0.0034309602 0.015997216
-0.008131384 0.0036306428 -0.0051907063 -0.01614654 0.0039960635 -0.0031864657 0.01878906 0.003948229
-0.0037018722 0.0016728708 0.014660296 -0.006378691 0.0028038614 -0.008048533 -0.010515603 0.009048752
-0.002888576 0.005300697 0.0045017363 0.0025383797 -0.003696615 0.0023333903 -0.004438157 0.012920011
-0.0010452652 -0.0050954353 0.012367048 -0.00041340708 -0.015434849 0.029316053 0.00597207 0.01244688
-0.014222489 -0.018231692 -0.009815351 -0.024959661 -0.03133039 -0.0012370328 -0.01579927 -0.013352504
-0.0109649 -0.004948912 -0.01201882 -0.019466322 -0.0056607844 -0.024659887 -0.014992059 -0.004880681

0.conv2.lin_l.bias f4 [8]
00000000: b254 5abc 923f 4d3c ecc3 c43c 2c9b 2e3d
00000010: 26db dd3a 8dce 6cbb 302e 8d3c c53e e7bc
-0.013325857 0.012527363 0.024019204 0.042628452 0.0016926273 -0.0036133856 0.017233938 -0.028228173

0.conv2.lin_r.weight f4 [8, 16]
00000000: 2e43 da3b a90d b43b 1c9d bd3b aadd c1bb
00000010: e697 023c 3dde a6bb f31f 7b3c bcb3 763b
00000020: 2e0d af3c 6c9f aa3c a3f1 bb3b 5a3c cc3b
00000030: c98e 673c 5f91 803c 1454 a13c 43e4 993c
00000040: 68d8 a5bc 5c54 623b d486 0cbc 8d7f 763c
00000050: 4814 ce3b 1abc ea3b 005b ae3a c3ef ee3a
00000060: 43b3 9fbb 54f1 da3c 1608 173c f111 c3bc
00000070: 3f95 51bc e96e 30bb d436 f63c a64b 08bb
00000080: aaa6 373c 8f18 6c3c 89ee a7ba f422 fa3a
00000090: 577d fa3b d43d ee3b 6cf1 39bc 4fcc 033d
000000a0: fb10 273b 6691 03bb 71bb 2f3c cf40 9a3c
000000b0: 1c80 2a3c b112 d23c dd02 9d3c 08f2 4f3b
000000c0: 5cb2 253c a4a5 833c 4fff 003c 6119 0cba
000000d0: 7c29 d43c 64ee b53c c597 523c fc1a e53c
000000e0: 7302 6abc 5564 0d3d bd80 dd3c fa00 ad3c
000000f0: ed69 123d a514 af3c f406 8c3c da4a 813b
00000100: 9a04 8bbb bc22 6b3c fc72 06bc a574 05bc
00000110: c899 013c 0505 603c d701 f03b a9b6 f6bb
00000120: 5252 eb3c 8536 b83b f76f 30bc c875 d73b
00000130: ccc2 0c3b 7af5 c83c c358 dbba e8b1 f23b
00000140: 128d 65bc aadd ccba a4fe 8b3c 491a b53b
00000150: 2d3b 8d3b 6448 a43c 98d6 ed3b 6876 733c
00000160: d47b 05bc 0c21 203a bf29 513c 33fa a6b9
00000170: c3ff 8c3c 9c2b 0cbc 4a59 0abc f037 1f3c
00000180: 1b30 2abb 91fe 02bc bbcf bb3b 4ded 05b9
00000190: 31db bdba b968 843c 046e 003c 0c7a 953b
000001a0: 6d1a d83a 17b7 413c 1a0f 003d 8a5a 76ba
000001b0: 6df1 583c f883 903c 6301 493c d8f6 60ba
000001c0: 7bc1 e4bb 5026 1abd 2741 9bbb 66a7 bebc
000001d0: 12f3 d0bb 2539 d5bb 3810 8cbc e1d4 f0b7
000001e0: 651b 463b 7603 cbbc 2131 a9bc d4f7 b33b
000001f0: 0c01 e8bb 78d7 9cbc 6449 eabc 11fc f4ba
0.0066608405 0.0054947925 0.005786551 -0.005916317 0.007970786 -0.005092411 0.0153274415 0.003764375
0.02136859 0.020827971 0.0057355925 0.0062327804 0.014133164 0.015694318 0.019693412 0.018785601
-0.020244792 0.0034535145 -0.008577067 0.015045059 0.006289039 0.0071635367 0.0013302267 0.0018229414
-0.0048736646 0.026726402 0.009218236 -0.023812266 -0.012791931 -0.0026921576 0.030055441 -0.0020797043
0.011209169 0.014410152 -0.0012812178 0.0019083903 0.007644336 0.007270554 -0.011349063 0.032177266
0.00254923 -0.0020075678 0.010725842 0.018829731 0.01040652 0.025643678 0.019166404 0.0031729955
0.010113325 0.016070195 0.00787337 -0.0005344358 0.025898688 0.0222084 0.0128535675 0.027966969
-0.0142828105 0.034519512 0.027038926 0.02111863 0.03574555 0.021372149 0.01709316 0.0039456906
-0.004242492 0.014351543 -0.008206125 -0.008145486 0.007910199 0.013673072 0.007324438 -0.007529099
0.028725777 0.0056217336 -0.010768882 0.00657532 0.0021478413 0.024531115 -0.0016734827 0.007406462
-0.014010685 -0.0015630026 0.017089196 0.005526815 0.004310033 0.02005405 0.0072582476 0.014859773
-0.008147199 0.000610844 0.012766301 -0.000318484 0.0172118 -0.008555319 -0.00844414 0.009717926
-0.0025968615 -0.007995264 0.0057315505 -0.0001277227 -0.001448488 0.016163217 0.00783873 0.0045616683
0.0016487368 0.011823437 0.031264402 -0.00093976466 0.013241154 0.017641053 0.012268397 -0.00085817045
-0.0069810725 -0.037634194 -0.0047379914 -0.023273181 -0.0063766325 -0.0065070563 -0.017097577 -2.8709359e-05
0.003022873 -0.024781924 -0.02065331 0.00549219 -0.007080203 -0.019145712 -0.028599449 -0.0018690844

1.conv1.lin_l.weight f4 [16, 4]
00000000: 9b55 bc3c 8fd9 113d 69fb 153e 4348 4f3e
00000010: 313c dd3c 6411 323c c373 fa3d d413 213e
00000020: e8e8 c63c cff6 fc3c 334d 1b3e 247f 213e
00000030: 8c1d c63c e983 e33c 1dff 153e 6917 3b3e
00000040: fcc2 6c3c bf86 6b3d 2052 193e 64ca 413e
00000050: d7bf 743c b6ae 223d 2d8c 203e ef2c 3b3e
00000060: d8f1 933c d638 c73c 14d4 223e 31cd 4d3e
00000070: 0b6c 9d3c bba9 4e3d 4d16 313e cd65 473e
00000080: 1cda fc3c 965b 5a3c ce92 123e 638b 633e
00000090: f6ad 543c 8a8a 0a3d 429c 1b3e 1190 2e3e
000000a0: e0fb a23c d8d8 163d ec7d 263e 9ced 413e
000000b0: 728c bb3b 030d 213b 8f1f 1d3e acd3 363e
000000c0: bb13 b43c ad02 1d3d 979b 293e 3b1b 523e
000000d0: 2cc5 a23c 51c6 b03d edd0 363e e9fc 573e
000000e0: dc9a 983c 8ed4 d43c 54ed 4a3e d3b6 3d3e
000000f0: c020 ef3c 52ee 2a3d 2eb0 1e3e 9cba 373e
0.022990039 0.03560787 0.14646687 0.2024241 0.02700624 0.010868404 0.12229111 0.1573022
0.02428098 0.030879406 0.15166168 0.15771157 0.02418401 0.02777286 0.14648099 0.18270649
0.014450785 0.05750155 0.14972734 0.18924862 0.014938316 0.0397174 0.15678473 0.1827886
0.018059656 0.024319094 0.15901214 0.20097806 0.019216558 0.050454836 0.17293663 0.19472428
0.030865721 0.0133275 0.14313814 0.2222114 0.012980929 0.033823527 0.15196326 0.17047144
0.019895494 0.036827892 0.16258973 0.18938297 0.0057235295 0.0024574406 0.1534407 0.17854184
0.021982064 0.03833263 0.16563259 0.205182 0.01986941 0.08631576 0.17853136 0.21092571
0.01862853 0.02598026 0.19817096 0.18526773 0.029190421 0.041731186 0.15496895 0.1794228

1.conv1.lin_l.bias f4 [16]
00000000: 7668 093e 5f73 1a3e 5a63 283e bfc7 133e
00000010: 2c5b 123e 17da 233e 7535 163e 7881 493e
00000020: d3e2 123e d29d 1a3e ca8d 213e 5b0f 1d3e
00000030: 1126 313e e8a1 393e 71c6 353e 1265 273e
0.13418755 0.15083073 0.1644415 0.14431666 0.14292592 0.16001163 0.1466883 0.19678295
0.14344339 0.15099266 0.15776744 0.15337889 0.17299677 0.18128169 0.1775148 0.16347149

1.conv1.lin_r.weight f4 [16, 4]
00000000: 47ec 1b3d eb09 133d 6db4 233e 4f57 643e
00000010: e0d2 403d d1ba 453d 1142 0f3e e42b 423e
00000020: f2ea b33c a5f2 7b3d 280d 183e 5c38 3e3e
00000030: 5d4a 013d 08f9 7e3d 5f33 373e 14a9 343e
00000040: ef5d 363d 7642 4d3d 386c 393e fae2 463e
00000050: 6134 1d3d 00e1 563d 2fe2 373e d1e2 383e
00000060: 1f67 323d c8a0 7e3d 5c44 3f3e 0859 6a3e
00000070: a557 083d dc43 fe3c 4c05 553e 9c74 403e
00000080: c5f5 383d a801 993d 2025 403e 16c6 443e
00000090: 255a 523d 73f7 b43d f627 293e f629 443e
000000a0: a1ab fa3c 778e 513d 4f8b 2f3e 184b 513e
000000b0: 2348 1e3d 2c2e 3c3d 04d0 4a3e 3dfa 453e
000000c0: 2938 443d fa14 633d b2b7 483e 0e87 4e3e
000000d0: 84eb c53c a3f4 883d 3d73 5a3e cf41 583e
000000e0: 1451 1d3d 443a 263d 6570 323e b275 483e
000000f0: 2122 3c3d 5901 1e3d 436c 3f3e c37b 463e
0.03806713 0.03589813 0.15986796 0.2229893 0.047076106 0.048273865 0.13990046 0.18962055
0.021962617 0.0615107 0.14848769 0.18576187 0.03156506 0.062249213 0.1789069 0.17642623
0.044523176 0.05011221 0.18107688 0.19422522 0.03838003 0.05246067 0.17957376 0.18055274
0.043555375 0.06216505 0.18678421 0.22885525 0.03328671 0.031038217 0.20802802 0.18794483
0.04515626 0.07471019 0.18764162 0.19216189 0.0513555 0.0883626 0.1651915 0.19156632
0.030599417 0.051161256 0.17142986 0.20438802 0.038643014 0.04594247 0.19805914 0.1933374
0.04790512 0.055439927 0.19601324 0.20168707 0.024160154 0.06687286 0.21333022 0.21118854
0.0384074 0.04058291 0.17425688 0.19576147 0.045930985 0.038575504 0.18693642 0.19383149

1.conv2.lin_l.weight f4 [8, 16]
00000000: bca6 f6bc 8f96 df39 1105 1bbd 4147 6ebc
00000010: 3708 e1bc 56b6 ec3a 80fe e1bc a975 81bb
00000020: 97ca d2bc 2914 78bc b23c ffbc 29bd 36bd
00000030: 547b a5bc c8f1 eabc 0d49 b8bc 6ee5 d1bc
00000040: 4278 9bbc 5877 f63a 84a3 b5bc d869 a7bb
00000050: f62b dabb 4777 a1bc 2d7e c0bc c56e e2bb
00000060: a48a 86bc ab64 97bc 0feb 9dbb 964c 733b
00000070: bf81 1dbc c8bd 3fbb 8f68 89bc 0d5a b6bc
00000080: a594 db3c 3393 3b37 e19e 58bc 3f0f 5b3c
00000090: aead 323c 5f50 ac3c b462 ae3c 3797 fb3c
000000a0: 111b 843c 2d49 7f3c 8680 6e3c 61a3 143b
000000b0: 036c 833b 0f37 9d3b a4cc 1ebb b1fa 443b
000000c0: b24c 92bc 8a95 42bb 635a 8fbc fec6 84bb
000000d0: bb10 e8bb 3636 07bc 606b c2bc 487b ea3c
000000e0: 8a88 beba 2c62 c53b 9856 9ebc c484 81bc
000000f0: c100 ef3b 5835 81bb 63f4 47bc a156 143b
00000100: 469e 05bd e11b 85bc c1cf b7bc f734 e8bc
00000110: 0871 efbc 56f5 ecbc 009f d5bc 3626 cebc
00000120: 6a45 9ebc c616 bcbc 5b97 dbbc 589c 65bc
00000130: df84 debc 36fc 8dbc 9441 1c3a 14dc 8bbc
00000140: b6db 593b 617a 80bc 6ed2 1b3b c076 eebc
00000150: 85cf 09bc 4e6b 39bc ca61 8b3c f70c 98bc
00000160: a18c b73c f6ca 3f3c 7133 653c 526f 4bbb
00000170: a9e4 68bc 1f61 5fba 6927 f9bc 67ce 013c
00000180: 5f9d 35bd 2cb9 b5bc dad2 08bd e8a5 e3bc
00000190: 52b1 99bc 5a9c fbba 0d19 bfbc 7a36 b1bc
000001a0: a032 8abc a69b 38bd 2a2d 99bc 6581 c8bc
000001b0: 1ff5 09bd 80a7 c0bc a3cb 6c3b a0d8 e8bc
000001c0: 3dcc 273c 4a1d 983b 00fc 133c 7c2e a2bc
000001d0: 2936 64bc 6e39 14bc 9334 a2bc 3d15 203c
000001e0: d247 50bc 03f6 dcbb af2d 983c fda7 f63b
000001f0: 3319 eaba bf07 f7ba 28ca 8abc ace4 86bb
-0.030108802 0.0004264605 -0.03784663 -0.014543355 -0.027469737 0.0018059711 -0.027587175 -0.0039507938
-0.025731368 -0.015141525 -0.031156871 -0.04461399 -0.020200409 -0.028679743 -0.02249577 -0.025622096
-0.018978242 0.0018803878 -0.022172697 -0.005109053 -0.0066580726 -0.019710196 -0.023497665 -0.0069101774
-0.01642353 -0.01848062 -0.004819281 0.0037124506 -0.009613453 -0.0029257406 -0.01677349 -0.022259736
0.026804278 1.1180341e-05 -0.013221473 0.013370334 0.010905666 0.021034418 0.0212873 0.030711753
0.016126188 0.015581411 0.01455701 0.002268039 0.0040106787 0.0047978233 -0.0024230862 0.003005665
-0.017858837 -0.0029691183 -0.017499154 -0.004052042 -0.0070820726 -0.008252671 -0.023732841 0.028623238
-0.0014536541 0.006023666 -0.0193284 -0.015810378 0.007293791 -0.0039431266 -0.012204262 0.0022634643
-0.032621644 -0.016248645 -0.022437932 -0.028345568 -0.029228702 -0.028925579 -0.026076794 -0.025164705
-0.019320209 -0.022960078 -0.02680557 -0.014014326 -0.027162967 -0.017332178 0.00059606996 -0.017072715
0.003324253 -0.015683355 0.002377655 -0.029109359 -0.008411293 -0.011317087 0.017014403 -0.01856087
0.022405924 0.0117061045 0.013989315 -0.0031041694 -0.014214673 -0.0008521247 -0.0304143 0.007922745
-0.044339534 -0.022183023 -0.03340421 -0.027789071 -0.01876131 -0.0019196377 -0.023327375 -0.021632422
-0.016869843 -0.045070313 -0.018698294 -0.024475763 -0.03368103 -0.02351737 0.003613212 -0.028423607
0.010241565 0.0046421634 0.009032249 -0.019797556 -0.013928928 -0.009046895 -0.01980046 0.009770689
-0.012712436 -0.006743194 0.018576471 0.00752735 -0.0017860293 -0.0018846913 -0.016942099 -0.0041166153

1.conv2.lin_l.bias f4 [8]
00000000: 5cf4 0dbd c50e 183c 6f14 0c3c f619 4dbc
00000010: dbfb dfbc fa8b 69bc d965 17bd 6c3c 8dbb
-0.034656867 0.009280865 0.008549794 -0.012518397 -0.027341774 -0.014254564 -0.036962364 -0.0043101814

1.conv2.lin_r.weight f4 [8, 16]
00000000: 0405 e2bc b848 f5ba 36bc ecbc fcd0 c2bc
00000010: d299 9abc 567a c53a f1a3 aabc 4ffe b83c
00000020: b24b 37bc a101 5fbc 9242 d6bc 0567 1dbd
00000030: 1898 27bc 77a6 98bc 68b9 bebc 2576 d0bc
00000040: e64c 08bd a4cf f2bb 0499 24bc 6868 1fbd
00000050: ec39 56bc 525f febc a1d2 14bd 05fe 66bc
00000060: d7df ecbc d1b8 b1bc 8d66 d8bc 683f 07bc
00000070: 6a75 bfbc 1bae 51bc 69fc dbbc 4db9 f1bb
00000080: db05 5e3c dfdd 8e3a d47b 81bb 5d4d 5a3c
00000090: 6808 cd3c d74b 7d3c 7d7c 0d3c 0a15 d93c
000000a0: f2f2 923b 6dc1 393c 12e9 343c 684d 8c3b
000000b0: 0771 903c 0583 bfbc 0103 9a3b ece4 423b
000000c0: da7a 16bc 1c6e f1bb 4b96 1ebd a9f0 ab3b
000000d0: 16da 03bc dcf6 c7bc 086c c4bc 949a 223d
000000e0: 298c 9dbc d2b4 fd3b c63f ed3b 64d8 86bb
000000f0: bf9e 593c 7c13 0a3c 6ef2 213b 9fd6 243c
00000100: 2a18 bebc b16d 0a3b a854 2bbd 8f8d bebc
00000110: 92b5 ebbc 9773 e9bc 9310 2ebd a51d e2bc
00000120: ba7c 01bc 0812 b4bc 920e fcbc dada 91bc
00000130: dc26 8c3b 23f4 7fbc c3c5 ffba d6c4 b8bc
00000140: ee8f 8ebb df81 153c 8f1f 033c c4db 86bc
00000150: 885d 9bbc 662b 51bc bbb3 aa3b b69c a8bc
00000160: cd4f 5e3b 8a91 6cba 0f99 e6ba bb08 04bc
00000170: 7680 77bc cfd3 56bb 6e3b 6fbc 867c bf3b
00000180: f280 2fbd c91d 49bc 2caf 61bc 87dd 0fbc
00000190: 24d2 02bd 11c1 9fbc 266c 12bd 9891 fdbc
000001a0: 3c8c 2dbc 1baf 47bd 2def e8bc 729b bdbc
000001b0: f45b ddbc 884d 6bbc 212b 0bbb cf4d 7dbc
000001c0: a089 833a 0ad4 a03b bc00 8ebb 3f34 f83a
000001d0: 4522 c8bc 84dd 183c a4ad 2ebc d2f3 5e3c
000001e0: fada 7ebc 44bb 333b dcb5 793c 0c1c 373c
000001f0: 4f99 5d3c cd4e 7339 5747 24bc 9365 403b
-0.027590282 -0.0018713688 -0.02889834 -0.023781292 -0.018872175 0.0015066366 -0.020830126 0.022582201
-0.011187481 -0.013611228 -0.02615479 -0.038428325 -0.010229133 -0.018634064 -0.023281768 -0.02544696
-0.03327646 -0.0074100066 -0.010046247 -0.03891793 -0.013075333 -0.031051312 -0.036333684 -0.014098649
-0.028915329 -0.021694573 -0.026416088 -0.008254863 -0.023371417 -0.012797858 -0.026853757 -0.007376826
0.013551201 0.0010899863 -0.003951529 0.013324109 0.025028422 0.015459976 0.008635637 0.02649929
0.0044845277 0.01133762 0.011041896 0.0042816885 0.01763202 -0.023377905 0.004700065 0.00297385
-0.0091845635 -0.0073678624 -0.03871755 0.005247195 -0.008047601 -0.024409704 -0.023977295 0.0396982
-0.019231873 0.0077425027 0.0072402684 -0.0041151512 0.013282477 0.008427497 0.002471115 0.010060935
-0.023204882 0.002112251 -0.04182878 -0.02326086 -0.028773103 -0.0284975 -0.042496275 -0.027602026
-0.007903272 -0.021981254 -0.030768666 -0.017804552 0.0042770933 -0.015622172 -0.0019513894 -0.022554796
-0.004350654 0.009125202 0.00800313 -0.016462214 -0.018965498 -0.012766695 0.005209414 -0.020582538
0.0033922077 -0.00090243726 -0.0017593222 -0.008058722 -0.015106311 -0.0032780056 -0.0146015715 0.005843702
-0.04284758 -0.012275168 -0.013774674 -0.008780844 -0.031938687 -0.01950124 -0.03574767 -0.030953214
-0.0105925165 -0.048750978 -0.02843436 -0.023145411 -0.027021386 -0.014361747 -0.0021235424 -0.015460446
0.0010035522 0.0049080895 -0.0043335836 0.0018936469 -0.024430403 0.009330157 -0.010661516 0.013607936
-0.015555138 0.0027424851 0.015241113 0.0111761205 0.013525321 0.00023203641 -0.010026774 0.0029357418

2.conv1.lin_l.weight f4 [16, 4]
00000000: 8f72 3c3c 2687 983d 72f3 3e3e a60f 383e
00000010: 19b0 0a3d b486 0d3d db91 fc3d bcec 1c3e
00000020: b109 ca3c 7677 9a3c 711a 283e c1a9 453e
00000030: b24b 9b3c 01f3 993c 729b 183e ea0b 4f3e
00000040: fae0 803c 364f 7a3d a80c 1c3e 4635 4b3e
00000050: ae7d bb3c 6b8e 223d 256d 243e 9bc1 203e
00000060: 8698 813c b33d 4b3d ea23 233e 048d 373e
00000070: 37bb 013c 0ddc 043d 16d5 0f3e 246a 203e
00000080: 2f44 843c fb3b 4a3d 1d0d 2a3e 9bb7 4f3e
00000090: edfc c93c e8a9 5c3d 4462 2b3e 91e2 3a3e
000000a0: 4e71 913c aff8 0f3d 6c67 2a3e 262e 2b3e
000000b0: 603b 033d 94ff ee3c 4e3f 213e 257d 4b3e
000000c0: a4df e63c cd76 e73c b532 193e d190 383e
000000d0: b30b e63c e3ab 483c fb15 1f3e fb2d 3b3e
000000e0: 3bdb c03c e447 1b3d 214a 253e f659 5c3e
000000f0: f2c9 9c3c f35e 413d d22b 273e 98b7 503e
0.011501922 0.074476525 0.18647555 0.1797472 0.033859346 0.03455229 0.12332507 0.15324682
0.024662824 0.018855792 0.16416337 0.19303037 0.018956993 0.018792631 0.14903048 0.20219389
0.015732277 0.061110698 0.15239203 0.19844541 0.022887077 0.0396866 0.1605726 0.15698855
0.0158198 0.049619388 0.15931669 0.17924887 0.007918171 0.03243642 0.1404613 0.1566549
0.016145794 0.049373608 0.16606565 0.20284884 0.024656737 0.053872973 0.16736704 0.1825049
0.017754223 0.035149273 0.16641015 0.16716823 0.032039046 0.029174604 0.15746805 0.19871958
0.028182812 0.02825489 0.1496075 0.18023993 0.02808175 0.012248012 0.15535729 0.18279259
0.023542037 0.037910357 0.16141559 0.21518692 0.019139264 0.04720969 0.1632531 0.20382535

2.conv1.lin_l.bias f4 [16]
00000000: 5dac 3b3e a34c 2b3e aaab 1c3e ffb6 233e
00000010: 3488 243e 083e 213e 2c14 543e 2a51 203e
00000020: 4d94 2e3e b319 343e 6329 433e d471 103e
00000030: 0868 133e 5886 3d3e 7258 513e c845 343e
0.1832747 0.16728453 0.1529986 0.15987776 0.16067582 0.1574632 0.2071082 0.15655962
0.1704876 0.17587928 0.19058757 0.14105922 0.14395154 0.1850828 0.20443895 0.17604744

2.conv1.lin_r.weight f4 [16, 4]
00000000: 9c98 2f3d a69b 8f3d b22e 3f3e b38e 593e
00000010: 93e8 033d 4c99 a63d fc24 0b3e 24be 6d3e
00000020: a1aa e33c 852e a33d 234c d23d d136 403e
00000030: 7861 803d 8102 873d 1a52 603e ec5a 523e
00000040: eca5 3c3d c359 773d 62fd 1c3e ac54 3a3e
00000050: ec96 f53c 2363 5f3d aa5b 2f3e 78ab 5f3e
00000060: eeec 283d 94da 823d 86cb 533e 93fd 5b3e
00000070: 48d1 1f3d af5a 273c 21ce 353e 4596 543e
00000080: 7421 1a3d 18b9 a03d e03d 513e 8c93 453e
00000090: 04a3 3f3d f638 603d 261c 423e f7cd 4d3e
000000a0: 0912 083d 0589 b23d a13a 343e 046c 393e
000000b0: 639a 5f3d 4dde 4d3d 8fc1 473e 087f 383e
000000c0: 1600 313d 9307 873d 84e1 0d3e 33dd 673e
000000d0: c51a 533d 96a9 253d 1f99 223e 38cb 4b3e
000000e0: 8888 1d3d 616f 003d 29e4 473e 83d1 473e
000000f0: caa5 de3c acbb 353d 5814 5c3e 6ef0 5e3e
0.04287015 0.070121095 0.18670157 0.21245842 0.032204222 0.08134708 0.13588327 0.23217064
0.027791323 0.07967857 0.10268428 0.18770911 0.06268591 0.065922745 0.2190632 0.20542496
0.046056673 0.060388338 0.15331033 0.18196362 0.029979192 0.054537904 0.17124811 0.21842754
0.04124158 0.06389347 0.20683107 0.2148345 0.039017946 0.010214492 0.17754413 0.20760448
0.03762956 0.07847804 0.2043376 0.19294566 0.046786323 0.054741822 0.1895605 0.200981
0.033220325 0.08717541 0.1760049 0.18107611 0.054590594 0.05026083 0.1950743 0.18017209
0.043212973 0.065932415 0.13855559 0.22642975 0.0515392 0.040444933 0.15878724 0.1990174
0.038460284 0.03135622 0.1952063 0.19513516 0.027178664 0.04436843 0.21492136 0.21771404

2.conv2.lin_l.weight f4 [8, 16]
00000000: 5aa0 b3bc 562e 9abc dcca 8ebc 2de8 65bc
00000010: 3af3 75bc e6b5 95bc 69bf a63c 41bf 18bc
00000020: 9299 ccbc 84d8 f5bc 0e48 d8bc 31ef 01bd
00000030: c673 08bd 3bfd 2dbc 0a60 87bc afed c1bc
00000040: 148d d03a 1662 acbb 5165 88ba bb9c d9bb
00000050: 11eb 12bc 78b6 2f3c 6532 cc3c 1d43 83bc
00000060: 81ab adbb c127 433c 44d4 7a3c 6149 1c3a
00000070: 209d cd3b 287e cebb 665b 903c 243f ca3c
00000080: 733d 89bc a362 2b3b ec43 bc3b e640 f7bc
00000090: c4b1 22bc 16da f43b 2328 413c e64a 963b
000000a0: 63c9 443a 5b9e 75bb 3f70 1c3b dc5c 903c
000000b0: 49c4 ec3c 362f 0bbc 2da3 0ebc a6fe ee3b
000000c0: 5337 0cbd 7320 07bd e96b 45bc b627 4cbc
000000d0: 121c e6bc ec0f c8bc 2a8d b3bc ffa1 11bd
000000e0: 9696 84bd 6e4e 6abd 8144 18bd c601 b0bc
000000f0: b67b b7bb dcda 33bd 8ee3 b3bc dc73 ecbc
00000100: a904 23bc 4cf5 c1bc cc1c f8bc e15a 833a
00000110: 62c6 0cbd 249d 50bc 5fc5 bebc 9de4 1dbd
00000120: 7ce5 d8bb f4c5 a0bc 24bd 39bc 80bf 45bc
00000130: 14d6 4539 7349 413b f609 9cbc 1ba1 6bbc
00000140: 5f93 213c ffcc 803c 8cb4 9d3b b109 dd3b
00000150: fa75 20bc 667f fb3b bb7a e63b 2148 ae3b
00000160: 3a0b 293c 8cfb 0b3c b610 263c f4f4 1b3c
00000170: b8f9 28bc cc4e be3b 13a5 38bc fa49 45bb
00000180: f6ef 38bc 653b 6dbc 1fc4 28bc a58e 5e3c
00000190: 93d1 09bc 3c1b 0dbd 5a41 88bc cd14 c8bc
000001a0: 8435 77bb aeb1 b5bc ad65 97bc 3a34 843c
000001b0: 6dd5 a4bb 2877 03bd 54b6 afba 8e73 34bb
000001c0: 8c95 07bd 9bba afbc 69f9 c0bc 766d fabc
000001d0: f608 0cbc d6a4 90bc 574f a9bc 3de7 c3bc
000001e0: 8a30 8bbc cbec 15bd a860 b4bc 8c8f e0bc
000001f0: 8f75 04bd 3668 c9bc 9f46 2fbd 2a47 62bd
-0.021927048 -0.018820923 -0.017430715 -0.014032406 -0.015011603 -0.018275212 0.020354943 -0.009322942
-0.024975572 -0.03001047 -0.026401546 -0.03172225 -0.033313535 -0.010619457 -0.016525287 -0.023672907
0.0015911185 -0.005260716 -0.0010406171 -0.006640998 -0.008967177 0.010724656 0.024926374 -0.016023213
-0.005299986 0.011911334 0.015309397 0.0005961862 0.0062748343 -0.00630166 0.017621707 0.02468831
-0.016752934 0.0026151321 0.0057454016 -0.030182313 -0.009930078 0.007472287 0.0117893545 0.0045865653
0.00075068156 -0.003747842 0.0023870615 0.017622404 0.02890219 -0.008495143 -0.008705896 0.00729354
-0.03423245 -0.03298993 -0.012049654 -0.01246064 -0.028089557 -0.024421655 -0.021917898 -0.035554882
-0.064740345 -0.057203703 -0.037174705 -0.02148522 -0.0055994643 -0.043909892 -0.021959092 -0.02886384
-0.009949842 -0.023676537 -0.030287169 0.0010021591 -0.03436888 -0.012732778 -0.023287473 -0.0385481
-0.0066191535 -0.019625641 -0.011336599 -0.012069583 0.00018867134 0.0029493242 -0.019047718 -0.014381672
0.009861796 0.01572275 0.0048127826 0.00674554 -0.009793753 0.007675099 0.0070336736 0.005318657
0.010317618 0.00854386 0.01013582 0.009518851 -0.010313444 0.005807733 -0.0112698255 -0.0030103908
-0.01128768 -0.014479493 -0.010300665 0.013583814 -0.008411783 -0.0344498 -0.016632725 -0.024423981
-0.0037721107 -0.02217945 -0.0184811 0.016138185 -0.005030325 -0.032096058 -0.0013405778 -0.0027534696
-0.033101603 -0.021451285 -0.023556428 -0.030569773 -0.008547058 -0.017656725 -0.020667715 -0.023913974
-0.016990919 -0.036602776 -0.022018746 -0.027412198 -0.032338675 -0.024585824 -0.04279196 -0.05524365

2.conv2.lin_l.bias f4 [8]
00000000: d6f9 22bc f41d 1e3c 4c15 153c 889a 67bd
00000010: 8c31 87bc fdbb f63b 9a4a 9b3b 64d8 aabc
-0.009947261 0.009650696 0.009099316 -0.056543857 -0.016503118 0.007529734 0.004739118 -0.020855136

2.conv2.lin_r.weight f4 [8, 16]
00000000: 4df4 6fbc bcdb e2bc fcfc e5bc 778c c1bc
00000010: dd30 c4bc 1f30 f0ba 0914 f0bb 3c8a 03bd
00000020: 1b58 33bc 1a29 17bd 2436 ddbc 33fb 30bd
00000030: 971f c9bc 18b8 87bc 28e6 c3bb 5002 97bc
00000040: 4e6a 30bb c81b 35bc 7d8e 033c 7dfa a13b
00000050: ff29 80bc 0260 993c 8ce0 813c 64e3 eebc
00000060: 8c23 f93b 2374 ee3c 15cd 943c 0634 1ebc
00000070: 9796 60bc 1652 043c 5225 e13c 4616 583c
00000080: e42b 92bc ad17 a0bb 8e05 3a3c 6e5c a4bc
00000090: 072b 9bbc 5c47 14bc ce3b 27bc 5445 d73b
000000a0: 61cd c43c 8f42 933a 2e30 db3a 971f c73c
000000b0: 854f bb38 033b 77bc 2f40 703b 4039 8a3b
000000c0: 038a e4bc 54d1 b1bc 4210 83bc 7b3d 8cbc
000000d0: 0a74 a6bc 4128 f8bc c679 d2bc e680 33bd
000000e0: f7a5 30bd eed2 27bd 7b15 43bd 3009 90bc
000000f0: c651 c8bc 24d2 fdbc 0857 d8bc 4130 16bd
00000100: a41d 14bc 6823 2ebc ec22 21bd 04a5 90bc
00000110: fcb9 9abc bd49 c63b 6675 51bb 89d6 ecbc
00000120: d6ee 51bc fb11 a8bc 1f0d a3ba cf7b c3bc
00000130: ae27 36bc 704a 8dbc db8d a6bc 17f4 97bb
00000140: dfc8 33bc b688 a8bb 08f7 bbbb 4dba ac3b
00000150: efc9 16bc c033 6b3c eeef 0abc 66a8 563b
00000160: 92a7 8e3a c323 5d3a 85b4 02bb 0e73 6f3b
00000170: 29b0 6b39 791c 173c 26c7 74bc 5de8 afbb
00000180: 2c11 04bc c31f ebbb 13ff 023c 1348 1fbc
00000190: ff35 16bd 01cb 18bd cd7e 63bc 69b1 e9bc
000001a0: 3c5e 98bc d6af 02bc db23 e1bc b76f 9d3c
000001b0: 66f5 6f3b 8986 1dbb fb77 4ebb 8c35 96bb
000001c0: 850f 20bd 97fc cabc a1fd e4bc 7a5d eabc
000001d0: 25c3 b2bc bd6b 0dbd f61d 01bd 7fb6 bebc
000001e0: cd8b febc 1cd6 2ebd 3406 ddbc aff9 1fbd
000001f0: 28a6 89bc a07f bcbc 9ae7 41bd 1359 4bbd
-0.014645648 -0.027692668 -0.028074734 -0.02362655 -0.023949081 -0.0018324888 -0.007326607 -0.032114252
-0.010946299 -0.036904432 -0.027003355 -0.043208312 -0.024551196 -0.016567275 -0.0059783645 -0.01843372
-0.0026918831 -0.011053987 0.008029577 0.0049431906 -0.015645025 0.018722538 0.015854143 -0.029161163
0.0076031145 0.029108113 0.018164197 -0.009655958 -0.013707778 0.008076211 0.027483616 0.013188904
-0.017843194 -0.004885635 0.011353863 -0.020063605 -0.018941415 -0.0090502165 -0.01020713 0.006569544
0.024023714 0.0011235046 0.0016722733 0.024307055 8.9316665e-05 -0.015089753 0.003665935 0.0042182505
-0.02789784 -0.02170626 -0.015998963 -0.01711916 -0.020319004 -0.030292632 -0.025692832 -0.0438241
-0.043127026 -0.040972643 -0.047627907 -0.017582506 -0.024453055 -0.030983992 -0.026408687 -0.036667112
-0.00904027 -0.010628559 -0.039339945 -0.01765681 -0.018887512 0.0060512708 -0.0031960844 -0.028910892
-0.012813291 -0.020516386 -0.0012439823 -0.023862747 -0.011117859 -0.017247409 -0.020331314 -0.004637252
-0.010973184 -0.0051432503 -0.0057362355 0.005271232 -0.009203418 0.0143556 -0.008480055 0.0032754182
0.001088368 0.000843581 -0.0019944024 0.0036537084 0.00022476971 0.009223097 -0.014940059 -0.005368276
-0.008060735 -0.007175417 0.007995385 -0.009721774 -0.03667259 -0.037302975 -0.013885212 -0.028526979
-0.018599622 -0.007976493 -0.027482918 0.019218309 0.0036614775 -0.0024036488 -0.003150462 -0.00458402
-0.0390773 -0.024778647 -0.027952971 -0.028609026 -0.021821568 -0.034526575 -0.031522714 -0.02328038
-0.031072522 -0.04268466 -0.026980497 -0.039056476 -0.016802862 -0.023010075 -0.047340013 -0.049645495

3.conv1.lin_l.weight f4 [16, 4]
00000000: 7265 bd3c 6169 143d a3dc 383e afa4 5b3e
00000010: 0349 b33c 89de b33c b9ad 113e 052f 493e
00000020: 96ba 8a3c fe50 14bb 8a39 053e f6c5 323e
00000030: e9cd b13c 8348 983c e750 213e 76f1 3d3e
00000040: 8d04 c43c 3a03 0b3d 0050 3e3e e69d 3d3e
00000050: 0533 b83c 8ff9 0a3d dd99 1c3e 972a 543e
00000060: d7d9 a43c 85e9 dc3c 54b7 193e f2f5 5d3e
00000070: 77c7 893c 13cd f43c 9df0 0e3e 560a 493e
00000080: c420 723c a7c0 173d aabc 223e 8f86 403e
00000090: 561b 053c adf4 803b fb33 1e3e 4f8d 5d3e
000000a0: 54c3 883c 8b29 233d 0649 1b3e 6f33 433e
000000b0: 2af9 893c 04e2 ca3c 91d2 153e d192 5a3e
000000c0: 771a ab3c 26d7 333d 2901 253e 1396 643e
000000d0: a6b0 7c3c f4fc 793c 43d0 343e 6d71 533e
000000e0: b68a 223b 2147 1b3c cf0e 263e 28fa 573e
000000f0: 0c7e e03c dce7 e839 d88a 243e 2f6e 5c3e
0.023119662 0.03623331 0.18052916 0.2144954 0.0218854 0.021956699 0.14226426 0.19646843
0.016934674 -0.0022631283 0.1301023 0.17458329 0.02170463 0.018589264 0.15753518 0.18549141
0.023927951 0.033938624 0.18585205 0.18517265 0.022485266 0.033929404 0.15293069 0.20719372
0.020123405 0.02696682 0.1501134 0.21675852 0.016818745 0.029882943 0.13958974 0.19632849
0.01477832 0.037048962 0.15892282 0.1880133 0.008124193 0.0039354176 0.15449516 0.21635936
0.016694702 0.03983454 0.15164575 0.19062589 0.016842443 0.024765976 0.14631106 0.21345069
0.020886643 0.043906353 0.16113724 0.22322874 0.015422976 0.015258063 0.1765757 0.20648737
0.0024801916 0.009477408 0.16216587 0.21091521 0.027403854 0.00044423237 0.1606859 0.21526407

3.conv1.lin_l.bias f4 [16]
00000000: 5682 233e 76e2 2c3e e882 193e 7166 553e
00000010: 0cd8 313e 68fd 073e c10b 763e c563 0b3e
00000020: 14ee f93d 4d23 143e ec26 0d3e 831e 123e
00000030: 8c63 2d3e 0ea0 153e 28c6 3a3e db31 0a3e
0.15967688 0.16883263 0.14991343 0.2083986 0.17367572 0.1328026 0.24027921 0.13612278
0.12203613 0.14466591 0.13784379 0.14269452 0.16932505 0.14611837 0.18239653 0.13495581

3.conv1.lin_r.weight f4 [16, 4]
00000000: 851d da3c 8ff7 373d 40d7 5a3e ddce 5a3e
00000010: 2f97 1f3d 5c35 613d 0e47 383e fb1c 503e
00000020: 74ee 113d ac90 9d3d 9a21 1d3e b22f 3c3e
00000030: 5626 0e3d 0f8a 823d 3a99 433e 61ad 463e
00000040: 5f4a 3e3d eefe 183d e355 1f3e e9d6 603e
00000050: 53cc 4e3d 7696 113d 458c 133e 669c 353e
00000060: 520e 383d 042c 223c 5880 1a3e 7840 593e
00000070: 7b81 c83c ce4d 303d 12ba 193e 8c56 4b3e
00000080: 9a08 373d 9b5d 6e3d 0151 363e e6cb 323e
00000090: 9f8f 6e3d fa0a fc3c 16af 113e 9c8c 3b3e
000000a0: b166 2e3d 9466 f63c e8a7 0e3e 733c 2f3e
000000b0: 5a12 263d 4a1f a73d 74b8 1e3e 8a99 583e
000000c0: 9aa1 213d b5dc 143d 00fd 593e ff1e 5a3e
000000d0: d834 0c3d 9b45 de3c 43d5 173e 3666 3a3e
000000e0: 39c7 013d 082f 1a3d cf44 503e c4f2 393e
000000f0: 7ad7 e93c 06ad 233d 11fd 233e bacc 6f3e
0.026625404 0.044913825 0.21371174 0.21367975 0.03896254 0.054982528 0.17995855 0.20323555
0.035627797 0.076936096 0.15344849 0.1837757 0.03470453 0.06373989 0.1910142 0.19402076
0.046457645 0.037352495 0.15560107 0.21956982 0.050487828 0.03554388 0.14408977 0.17735443
0.044935532 0.009898189 0.15088022 0.21215999 0.024475804 0.04304295 0.15012386 0.19857234
0.044685937 0.058194738 0.17804338 0.17460594 0.058242436 0.030766953 0.14226946 0.18315357
0.042578403 0.03007821 0.13931239 0.17112903 0.040544845 0.08160265 0.15500051 0.2115232
0.039460756 0.036343295 0.21287918 0.21300887 0.034230083 0.0271328 0.14827447 0.18203053
0.031684134 0.03764251 0.20338748 0.18159014 0.02854513 0.03995993 0.16014506 0.2341794

3.conv2.lin_l.weight f4 [8, 16]
00000000: 64c9 133c beaa 813c 69ca d93c 40b9 383c
00000010: 1cb9 abbb 92b3 813c 9a36 193a 1771 193b
00000020: 7d03 43bb 3b65 a43c 85b7 9ebb 97e7 85ba
00000030: 16f0 a33c cfd2 2fbc f280 803c 851a 453c
00000040: 9821 65bd 1c84 99bc c84c 08bd 3f3d e7bc
00000050: 17cc 3cbd 1623 9fbc a937 34bd 1cfd 34bd
00000060: f755 1dbd face 29bd 6c8e 1dbd dca8 01bc
00000070: 3382 09bd f316 f0bc cfcd 39bd 3778 36bd
00000080: b856 b8b8 c3d5 40bc a3a9 57bc f6d1 0ebd
00000090: ce20 203c 5159 14bd a344 883c 8361 bebc
000000a0: bda3 cdbc c978 9bbb 749a 23bc d2dc 61bc
000000b0: 2ee6 68bc 5d1f 6dbc 41f9 eebb 89bd 0fbc
000000c0: 2cbb e1ba 1d50 0f3c 6e5b 3a3c 9b37 95ba
000000d0: 9307 8a3c 2e06 a4bb ff79 6b3c 944a 01bc
000000e0: c16c e0ba b1d0 8c3b 7ab8 e93b 5471 9a3c
000000f0: 2608 063b cd20 7cba 69ad 583c 92d7 603c
00000100: a636 47bc 22c1 973c a02d 5fbb f3de dabb
00000110: 2d83 b83c ec14 343c 260d 8fbb 05bd 20ba
00000120: 9f8b 73ba 66ff 9fbb bc41 f93c 90db 86bb
00000130: caa6 d7ba 7480 91bc 5f46 3dbc 9651 a33c
00000140: f378 4dbc f8ba 2e3c ceca cd3b ca4c 9839
00000150: 17ab 3e3b c36e 18bc d4ce 27bc 5d54 b7bc
00000160: 5691 b43c c55a 043c 74d0 07bd d267 543a
00000170: f1a9 04bc 89c3 abbc 8746 94bc 27b5 a03c
00000180: 0d06 1c3b 010b 923c fb36 353b 267d 76bb
00000190: dad5 feba caca 743c 0d3e 363a cd6b 9a3c
000001a0: 452d 91bb f1f6 4a3c 17b3 fbbb 642c 943c
000001b0: e0b4 3a3b d8db fdbb da8b 583c 683a b13b
000001c0: 6dcc 1fbc d60f 05bb 7d99 9b3c 26e2 0b3c
000001d0: a680 d8bc 1d64 81bc 742a b43b 9131 52bc
000001e0: 976f 6abb f853 b83c 2fae 0dbc 4d74 30bc
000001f0: 41c9 02bc bf0b a33b c429 adbb 5d7f 24bb
0.009020183 0.015828487 0.026585774 0.011274636 -0.0052405726 0.015832696 0.0005844623 0.0023413354
-0.0029756718 0.020067802 -0.0048436546 -0.0010216114 0.020011943 -0.010731413 0.015686486 0.0120302485
-0.05594024 -0.018739752 -0.03327635 -0.028227447 -0.046093073 -0.01942591 -0.043998394 -0.044186696
-0.03841206 -0.041457154 -0.038465902 -0.007913794 -0.033571433 -0.029307818 -0.04536229 -0.04454824
-8.789956e-05 -0.011769715 -0.013163003 -0.034868203 0.009773446 -0.03621799 0.016634291 -0.023239857
-0.02510249 -0.0047446233 -0.009985555 -0.013785558 -0.014215035 -0.01447281 -0.007292897 -0.008773216
-0.0017221919 0.008747128 0.011374338 -0.001138437 0.016849315 -0.0050056195 0.014372348 -0.007891316
-0.0017122255 0.004297339 0.007132587 0.018852867 0.0020451634 -0.0009617925 0.013224938 0.013723271
-0.012159025 0.01852471 -0.0034054294 -0.0066794096 0.022523487 0.010991316 -0.004365581 -0.0006131682
-0.00092905195 -0.004882741 0.030426852 -0.0041155294 -0.0016452905 -0.017761447 -0.011552422 0.019936364
-0.012541044 0.010664694 0.0062802797 0.00029048912 0.0029093677 -0.009303751 -0.010242183 -0.022379095
0.022041958 0.008078282 -0.03315778 0.00081026286 -0.008097158 -0.020967262 -0.018100036 0.01961763
0.0023807317 0.017827513 0.002765118 -0.0037611215 -0.0019442395 0.014940927 0.00069519953 0.018850232
-0.0044304454 0.012387977 -0.0076812613 0.018087573 0.0028489158 -0.0077471547 0.013216937 0.005408574
-0.009753329 -0.0020303628 0.018994087 0.008537805 -0.026428532 -0.015794808 0.005498225 -0.0128292
-0.003577208 0.022500977 -0.008647486 -0.010769916 -0.007982553 0.0049757655 -0.00528452 -0.0025100328

3.conv2.lin_l.bias f4 [8]
00000000: bc36 b03c 8d8b ffbc 24d1 bbbc 2ead 39bc
00000010: 7c10 833b d4c4 a4bb 94f8 a9ba c4fa 21bc
0.021510474 -0.031194473 -0.022926874 -0.011332793 0.003999768 -0.0050283466 -0.0012967759 -0.009886447

3.conv2.lin_r.weight f4 [8, 16]
00000000: 348a 873c afca 623c 625b 013d 12d8 893c
00000010: 2fd9 91bc d38b c13c 6dfa b1bb 514e 153c
00000020: 6f92 053c d69e 073d 0add 14ba 3f77 49bc
00000030: 73d2 533c c950 1b3c f680 853c 9193 b63b
00000040: 2c03 25bd 0ba0 09bd 488a 48bd a513 b9bc
00000050: 0b1d 06bd d183 e5bc 9f99 1fbd 2614 39bd
00000060: 5300 f4bc 1a55 40bd f18e acbc 49e4 96bb
00000070: 71bf bcbc c406 48bd c36d 39bd bf81 cebc
00000080: d45d 27bc 9e90 a2bb 11b7 02bd 9c01 85bc
00000090: b390 903c 388b a2bc 0a97 e23b 8084 adbc
000000a0: df41 14bd ed06 afbb f67c 15bc f708 3fbc
000000b0: 5340 b7bc bba5 bebb d8a9 9d3b 7f72 bebc
000000c0: 7b7c 823c 3fca 113c 025f 0c3d e6d4 60bb
000000d0: 940d 873a dc14 29ba b2cc 9c3c 947c cc3b
000000e0: 06b3 303c f645 5b3c 22c3 9e3c c82c 503c
000000f0: 8461 94bb 0976 2c3c df9b 6c3b 9ff7 cebb
00000100: cd0b 153a 3b03 f73b 1c6f 0cbb f8ff ccba
00000110: c318 2fbb 4de1 36bc 0e47 6f3c 3d75 2fbc
00000120: 1c8e a6bb 8180 9cbb 3f9b b93c a13e 2fbc
00000130: 83cf e73a 3409 8fbc 7183 5e3c 858d b939
00000140: cf4c 763b 7b94 b0ba 14fa 273c b637 963a
00000150: f378 613c b30d dc3b e41c 83bc 815a fcba
00000160: 0424 1a3b 49df 8ebb 921b 84bc 98bd 18bc
00000170: 18f4 b53b 4da8 d1bc f1af f6bc adb7 aa3c
00000180: 717c 833b 5310 dc3c c84d d9bb ae99 433b
00000190: 5999 8fbc 046f 803c ae8a 7f3c 3185 f93b
000001a0: d8d7 26bc 1a9c b2bb c025 453b bc75 573b
000001b0: 1465 1cba eb50 1f3b bb18 51bc ca0e 923c
000001c0: 45d8 3a3c a43f 6cbb 8d03 003c 2064 38bc
000001d0: b153 22bc 31de e9bb affc 9b3c b83e b4bb
000001e0: eee0 553c d343 8d3c fad3 a5bc 4330 8d3c
000001f0: da8d 763b 3b3d a9bc 4517 d5bc 8126 953c
0.016545393 0.013842269 0.03158129 0.016826663 -0.017803757 0.023626244 -0.0054314644 0.00911291
0.008152588 0.033110462 -0.00056786893 -0.012296497 0.012928593 0.00947971 0.016296845 0.0055717905
-0.040286228 -0.033599894 -0.04896 -0.022592375 -0.03274254 -0.028016957 -0.038964864 -0.04518523
-0.02978531 -0.04695616 -0.021064254 -0.0046048504 -0.023040505 -0.048834577 -0.045270693 -0.025208352
-0.010215241 -0.0049610874 -0.031912867 -0.016236119 0.017647123 -0.019841775 0.006914978 -0.021181345
-0.036195632 -0.005341402 -0.009124031 -0.011659852 -0.02236954 -0.0058180965 0.0048115067 -0.023247955
0.015928498 0.008898317 0.034270294 -0.0034306585 0.0010303729 -0.00064499467 0.019140575 0.006240437
0.01078487 0.013383379 0.019380156 0.012705989 -0.0045282263 0.010526189 0.0036103649 -0.00631614
0.00056856574 0.007538227 -0.002142853 -0.001564025 -0.002671764 -0.011162114 0.014604343 -0.010709104
-0.0050828587 -0.004776061 0.022657035 -0.010696084 0.0017685745 -0.017460443 0.013581143 0.0003539139
0.0037582403 -0.0013471985 0.010252494 0.0011460695 0.013761747 0.0067155003 -0.016004987 -0.0019253046
0.0023520002 -0.0043601138 -0.016126428 -0.009322546 0.00555278 -0.025592947 -0.030113192 0.020839537
0.0040126373 0.026863253 -0.0066315867 0.002984624 -0.017529177 0.015677936 0.015597029 0.0076147546
-0.010183297 -0.0054507377 0.0030082315 0.0032876572 -0.00059659895 0.0024309705 -0.012762244 0.017829318
0.011404102 -0.0036048675 0.007813347 -0.01125434 -0.009907649 -0.007137083 0.019041387 -0.0055006407
0.013054116 0.017244255 -0.02024268 0.017234927 0.0037621171 -0.02065908 -0.026012072 0.018206837

4.conv1.lin_l.weight f4 [16, 4]
00000000: 3394 8b3c 8677 a93c 2cb1 1c3e 8968 243e
00000010: 21ef a33c f36b d43c aef5 203e 52e2 333e
00000020: 6ec8 c53c 9f22 ab3c 9114 043e 535e 4a3e
00000030: c952 a93c 86f8 9a3c 966c 333e f3f2 4a3e
00000040: 81cc 3c3c 8ebc a73b 6458 263e 2a20 523e
00000050: 7c2a b13c 4afd 9e3d 0806 3c3e db0c 323e
00000060: 7755 c63a 93db 4c3d 9c7c 2e3e d72c 3b3e
00000070: 8385 143c b086 0e3d a262 103e 8795 203e
00000080: 217a d33c 1715 123d 9d44 583e a889 633e
00000090: 002e 9b3c 4af6 083d f49f 253e 146b 333e
000000a0: f7b5 a53c 4712 1e3d 11a7 593e b1be 453e
000000b0: f8f6 243c 5a8d aa3c 7c6c 063e 89c5 253e
000000c0: 1c0d a93c d33b 8c3b 6133 1c3e a874 653e
000000d0: 4aac 7c3c da03 b93c 261a 0a3e e4a9 473e
000000e0: ac03 dc3c 7401 2d3d f348 273e dd7b 313e
000000f0: 5a3a 9e3c a40a 2e3d a76a 123e 2e4f 3c3e
0.01703844 0.020686876 0.1530196 0.16055502 0.020011486 0.02593038 0.1571872 0.17566803
0.024143424 0.020890532 0.1289847 0.19762544 0.020669358 0.018917333 0.17521891 0.1981924
0.011523367 0.005118913 0.16244656 0.20520082 0.021626703 0.07763155 0.18361676 0.17387716
0.0015131672 0.05001409 0.17039722 0.18278824 0.009065035 0.034796417 0.14100125 0.1568204
0.025815072 0.035664644 0.21119924 0.2222048 0.018942833 0.033438005 0.16174299 0.17521316
0.02022837 0.03859165 0.21255137 0.19311024 0.010068648 0.020819355 0.13127321 0.16188635
0.020636134 0.0042795925 0.15253974 0.22407782 0.015421936 0.022584844 0.13486537 0.19498402
0.02685722 0.042237714 0.16336422 0.17332406 0.019314934 0.042490616 0.14298497 0.1838958

4.conv1.lin_l.bias f4 [16]
00000000: 91ed 103e 2f40 2f3e b36a 133e a09e 313e
00000010: b73c 2f3e b6d6 493e d0a9 023e 5cde 023e
00000020: c034 393e 9245 183e f1a1 513e 96ba 193e
00000030: d78d 443e 34df 333e cc2e 253e 80f7 d23d
0.14153124 0.17114328 0.14396171 0.17345667 0.17113005 0.19710812 0.12760091 0.12780136
0.18086529 0.14870289 0.20471932 0.15012583 0.19194733 0.17565614 0.16131133 0.10301113

4.conv1.lin_r.weight f4 [16, 4]
00000000: e9e4 263d aa24 7b3d af1b 413e ed26 313e
00000010: 168e 3c3d 7805 413d 413b 333e ff1c 493e
00000020: 8499 433d d1a4 493d 60fa 4f3e 7253 333e
00000030: 3713 103d 4f17 3f3d e5ad 353e 71ac 373e
00000040: 1ce4 113d d3e6 b13d 66c2 6a3e a104 7b3e
00000050: 4531 1f3d f48f a33d 050e 493e dd5e 6f3e
00000060: 7448 203d 160b 763d bc0e 3c3e e514 2a3e
00000070: 7aa9 203d 8164 2d3d a9a8 193e 9af7 5a3e
00000080: 20a2 f43c c098 003d ad37 523e ea91 4a3e
00000090: 3894 643d 7f5f 1a3d defb 193e c46d 4a3e
000000a0: 1bdc 0e3d 2ca2 2d3d 0114 423e 06ea 663e
000000b0: af3b 6a3d bd98 5b3d d823 363e d20c 573e
000000c0: 7b00 393d c97d 553d a488 3a3e 8aa7 523e
000000d0: 865e 9e3c d11a 9d3d ecff 2c3e 9353 423e
000000e0: c4e0 0e3d 9825 5a3d a587 403e 06df 313e
000000f0: dba5 ec3c 253b 803d 3ac5 1f3e 1a18 603e
0.04074565 0.061314262 0.18858217 0.17300005 0.04603394 0.047124356 0.17503072 0.19639967
0.047753826 0.049229447 0.20310354 0.175123 0.035174575 0.04665309 0.17742117 0.17936875
0.035617933 0.08686604 0.2292572 0.24513485 0.038865346 0.07986441 0.19634254 0.23376031
0.039131597 0.060069166 0.18364996 0.16609533 0.039224125 0.042332176 0.15005745 0.21383515
0.029862463 0.031395674 0.20529051 0.19782224 0.055805415 0.03768873 0.15037486 0.19768435
0.034877878 0.042390987 0.18952943 0.2255021 0.057185825 0.05361246 0.17787111 0.21000984
0.045166474 0.05212191 0.18216187 0.20571724 0.019332182 0.076711304 0.16894501 0.18977194
0.034882322 0.05325851 0.18801744 0.17370233 0.02888768 0.06261281 0.1560258 0.21884194

4.conv2.lin_l.weight f4 [8, 16]
00000000: 2479 63bc 738c 46bc 86cb 45bb 9c2f 953b
00000010: 0ea7 3fbc f6cc 42bc 7bde a7bc 45eb 2cbc
00000020: 2c73 3fbc 4389 e3bc 753c 9ebc 7ad4 0ebc
00000030: 5c4b adbb 63b7 d5bc 5225 2ebc 2aa2 18bd
00000040: 0335 253b 439e 813c 8aaa b739 68b6 d13b
00000050: bdbe 1ebd cd2b 533b 16d2 12bc d29f 32ba
00000060: 61ae ddba e864 b6bb 6556 c7bc 5ce9 3d3a
00000070: 9adb 8fb9 c32c 2bbc 64f6 68bc e43d a33b
00000080: 17b7 2abc 91f0 6e3b 5747 b53c 1189 363b
00000090: b8c6 acbc 38b0 4f3c d49f 71bc 6d9c 2fbc
000000a0: ea88 3d3c cdaf de3b 7127 f3b8 e98d 573b
000000b0: af34 ff3b 049c 8fbb 9553 0c3c c5a2 403b
000000c0: d76c 5ebc 6a12 12bd 5a6f 48bd e35c 01bd
000000d0: 0d4a e0bc 4f54 ed3b 5711 fbbc e6d2 c6bc
000000e0: 9e46 19bd 1d2a f8bc 9155 febc 0504 adbc
000000f0: 6eae 38bd bd8f 32bc 8527 58ba 38d2 34bd
00000100: 96ff b33c 1801 bd3c 7b57 e23c a4fd c43c
00000110: 2a76 9a3c 2820 c43c e19d 913b bb58 413d
00000120: 6fcf 023d f1b1 283d 8e02 5c3c f630 c13a
00000130: d636 cc3c 74be a53c 699e 383c 5493 e93c
00000140: 21be 32bc ee32 57bc 21e3 ad3c 7dfd 353c
00000150: b8b7 b83c 4095 73bc cd56 bfbb 1424 2bb9
00000160: ec5a 7bbc 9ab1 edba e8cb 6ebc 9ad4 173a
00000170: 2e4f 66bb 78ec 4e3c c63d 9ebb 2454 e43b
00000180: da20 c5bb 292b efbc 1223 80bc 17fa 65bb
00000190: 47db 16bc 7429 f8bc a8da 0bbd d674 15bc
000001a0: 1a4e 30bc 99c0 9dbc 5f50 1bbd 04a9 d5bc
000001b0: 0a64 cebc 0026 963b 90ac 95bc 8186 bcbc
000001c0: 7708 0fbd 6c57 0a3c 1193 ee3b 0c74 55bc
000001d0: ae7e b7bc cd87 d1bc a46b 753c 3fb8 a7bc
000001e0: 24fc 1ebd e614 e2bc ba53 bdbc 5421 77bc
000001f0: cc37 a8bc a809 9fbc 38a0 2f3c bae8 7abc
-0.013883863 -0.012118447 -0.0030181124 0.0045527946 -0.011697544 -0.011889687 -0.02049183 -0.0105541395
-0.011685174 -0.027775412 -0.019315938 -0.008717651 -0.0052885246 -0.026088422 -0.010629015 -0.037264027
0.00252086 0.015822535 0.00035031541 0.0063999183 -0.03875612 0.0032222152 -0.008961221 -0.0006813976
-0.0016912931 -0.005566228 -0.024333188 0.0007244551 -0.000274387 -0.010447684 -0.0142189 0.004981743
-0.010419629 0.0036459307 0.022128744 0.0027852694 -0.02109085 0.012676291 -0.014747579 -0.010718447
0.011568287 0.0067958594 -0.000115944895 0.0032890982 0.007788263 -0.004382612 0.008564849 0.0029393893
-0.013575754 -0.035662092 -0.048934318 -0.031582724 -0.02737906 0.0072427164 -0.030647917 -0.024270486
-0.03742086 -0.030293519 -0.03104666 -0.02112008 -0.045088224 -0.010898528 -0.0008245635 -0.044145793
0.021972459 0.02307181 0.027629605 0.024046727 0.018855173 0.023941115 0.0044438695 0.04720376
0.031936105 0.041185323 0.013428343 0.0014739323 0.024928492 0.020232417 0.011268237 0.028512634
-0.010909588 -0.013134701 0.021226468 0.0111078 0.022548541 -0.014867127 -0.005839205 -0.00016321271
-0.015341502 -0.0018134594 -0.014574982 0.0005791873 -0.003514241 0.012629621 -0.0048291413 0.006968038
-0.006015879 -0.029195385 -0.015641723 -0.0035091692 -0.009207553 -0.030293204 -0.034144074 -0.009122094
-0.010760808 -0.019256877 -0.037918445 -0.02608157 -0.025194187 0.0045821667 -0.01827076 -0.023013355
-0.034920182 0.008443695 0.0072807153 -0.013028156 -0.022399273 -0.02557745 0.014979277 -0.020473598
-0.03881468 -0.027597856 -0.023111213 -0.01508363 -0.020534419 -0.019413784 0.0107193515 -0.015314275

4.conv2.lin_l.bias f4 [8]
00000000: 3d26 9dbc ee28 a9bc 131a 113b b89a 25bd
00000010: 4081 d33c 1852 89bb 1bbc b6bc f13c 13bc
-0.019183272 -0.0206494 0.0022140786 -0.040430754 0.025818467 -0.0041906945 -0.022306493 -0.0089866975
