oldres/results/agent_Heterogeneous_5k.pth (torch, 30101 bytes, 50 tensors)

0.conv1.lin_l.weight f4 [16, 4]
00000000: 9039 8a3d 7798 6e3c ae56 473d 99fb 123e
00000010: 2fe3 843d 9412 653c ddb7 bc3c c064 323e
00000020: 4c10 923d 7a99 7e3d fd7a 493d a9d0 043e
00000030: 5a79 9a3d cde4 79ba b225 5f3d 9e94 1a3e
00000040: 3cca a63d 78f4 cb3c 1834 9c3d d346 153e
00000050: ec67 993d fa28 523c 5f34 933c c638 4c3e
00000060: e5a8 a73d ad97 073d 48ab 733d 2aa8 e23d
00000070: 842b 793d 40fc 713c ede3 5f3d bd0b 073e
00000080: 724b 6a3d 6639 943c d5d6 913d 216d 123e
00000090: 4aa2 8f3d c48a b63c 0968 563d 11f5 163e
000000a0: 4828 cf3d 06c2 ea3c a6ee f63c b7fc fa3d
000000b0: fae9 a63d bbb4 a13a 33ec f43c 417f 2c3e
000000c0: 7ca4 8e3d 8527 2d3d 81bc 393d 2f3e 313e
000000d0: 0f0c 863d d18a 373d fb7a c93c 8f46 133e
000000e0: 5341 833d e69a 723d 187e 8e3d c0c7 2b3e
000000f0: 3a94 043d 4099 293d d821 803d a3c4 3b3e
0.067492604 0.014562718 0.04866665 0.1435379 0.06488644 0.01398148 0.023036892 0.17421246
0.07132015 0.062158085 0.049189556 0.12970223 0.07542677 -0.000953269 0.05447931 0.15095755
0.08144042 0.024896845 0.076271236 0.14577799 0.07490525 0.012827152 0.017969308 0.19943532
0.08186511 0.033103634 0.05948952 0.11067231 0.060832515 0.014769614 0.054660726 0.13188072
0.057200857 0.018093776 0.07121054 0.14299442 0.07013376 0.022282965 0.05234531 0.14741923
0.10115105 0.02865697 0.030143093 0.12255233 0.08150096 0.0012337187 0.029897785 0.16845419
0.06964967 0.042274017 0.045345787 0.17308877 0.06545269 0.04481012 0.024594774 0.14382385
0.06408944 0.059229754 0.06957644 0.16775417 0.032367922 0.041405916 0.06256455 0.1833673

0.conv1.lin_l.bias f4 [16]
00000000: ea95 2d3d 4f2d b23d 3c93 1f3d f607 413d
00000010: 38b8 093d cde3 333d cda3 6f3d 1c3b e73c
00000020: 64df 893d 6614 783d b197 a23b 2474 383d
00000030: 1a1d b63d ce83 693d 7bef 653d 08f8 403d
0.042379297 0.08700048 0.038958773 0.047126733 0.03362295 0.04391842 0.058505822 0.028226428
0.067320615 0.06056633 0.0049619307 0.045032635 0.088922694 0.057010464 0.05613659 0.04711154

0.conv1.lin_r.weight f4 [16, 4]
00000000: 03a4 c43d 9350 513d 1318 c43d d18d 483e
00000010: 29b9 aa3d e464 353d 1a89 a93d a805 093e
00000020: 144a e03d e4e2 423d f8f7 3d3d d2b5 163e
00000030: 133d d33d 6370 ed3c 1018 863d a46c 383e
00000040: fa00 af3d 7394 a83c 3d4d 9a3d 4c77 5f3e
00000050: 9868 ac3d 5cb1 6c3d 73c9 bc3d 6f1c 273e
00000060: e823 923d 2812 c63c 8ebf 373d 1c8e 143e
00000070: 013f df3d 985b 3e3c ddb1 4f3d 848d 333e
00000080: fc95 933d 4a9b fe3c 8141 3c3d dcc9 2a3e
00000090: 7380 bf3d 1782 ec3c 2ea4 713d 21bb 123e
000000a0: d70e dd3d 2922 ff3c 7792 3d3d 4672 0d3e
000000b0: 9cda 863d af4a 043d 1b78 743d 37c1 123e
000000c0: b619 b53d d629 133d 8ab7 a43d 2e65 333e
000000d0: b4dc 993d a5f1 5a3d e529 cf3d c994 053e
000000e0: 4961 b43d efc0 e73c 17b5 913d a4f3 303e
000000f0: 83ef d83d db61 2b3d 8a78 a73d 9f7b 563e
0.09601595 0.051102232 0.09574904 0.19585349 0.08336098 0.04428567 0.08278103 0.13381064
0.10951629 0.04757966 0.04637906 0.14717796 0.10314383 0.028984254 0.06547558 0.18010193
0.08545108 0.020578599 0.07534263 0.21822852 0.08418387 0.05778633 0.09218111 0.1631944
0.07135755 0.02417858 0.044860415 0.14507335 0.10900689 0.011618517 0.050706733 0.17534453
0.072063416 0.031079907 0.045960907 0.16678566 0.093506716 0.028870625 0.058994465 0.14329197
0.10793846 0.031144219 0.046282258 0.13813123 0.06584665 0.032297786 0.059684854 0.14331518
0.088427946 0.03592857 0.0804282 0.17519066 0.07512799 0.053453106 0.101154126 0.13045038
0.08807618 0.02829024 0.07114618 0.17280442 0.10592558 0.04184137 0.08177288 0.20945595

0.conv2.lin_l.weight f4 [8, 16]
00000000: ee6f 6b3c 8612 293c fafc 013c b829 32bc
00000010: bb41 6b3c 2f7a 5bbc 0e5d 2ebc b1ce 063c
00000020: ee51 e7bb aa6e 813a b868 9bb8 9d70 793b
00000030: d637 463b 40b0 8a3b dfa4 223b d77b 0cb9
00000040: 0f89 f13b abf6 9cbc a008 f6bb ad91 4c3c
00000050: 9cbb 86ba 8a65 563c d20f 9939 c1f6 af3c
00000060: e574 893c 29ef b1bb 06e3 333c 5c5e b439
00000070: 4428 81bc 7bbc dab7 48c6 2abb 7475 5bbb
00000080: 7622 8c3b 6f45 8b3c b630 d63c 6653 033d
00000090: d80c d63c ed97 843c afc7 c03c 4fd3 b13c
000000a0: 34d3 903c af80 f23c dff8 1a3d d1dd 6c3c
000000b0: d87c 9c3c 41f5 943c a669 0c3c 03f1 5b3c
000000c0: 2915 a2ba ee44 dabb 2a07 4a3c 4d01 54b9
000000d0: 5db8 0bbc d81b a03c c668 873a ed6b 053b
000000e0: 0e5c 42bc 4ba2 013c 4976 b83c 963b 06bb
000000f0: 9f5b b33c 57bd 63bb 01a9 68bb 0848 bc3b
00000100: e6b1 b13b 7d55 0bbb 6fd3 0cbb 7b66 9f3c
00000110: 4a6e 9c3c c0e3 893c 7a2d e1bc 31a3 37bc
00000120: ef77 e9bb f896 0a3c d123 f7ba 88a0 48bc
00000130: 5fb7 1a3b 03c4 683b c6e2 60bb 546c 8e3c
00000140: 1fef 9cb9 d40d eabb 6912 12bb d77b 7c3c
00000150: 5f8a 49bc 652e aeba 3bda 5b3c 462f 613a
00000160: a0d6 953c 0c70 0b3c 21a4 25bc b8cb 4bbc
00000170: cd4d f6bb 022e 843c cdd0 debb d368 8fbb
00000180: 0a70 153c 93ae 7cbc 6cad fdbb cc26 173c
00000190: 1ad8 c03b f277 d23b 98ac aeba cfa4 a6ba
000001a0: 00ba 45ba 72cd 193c 6b29 173c c08f 173a
000001b0: 6df4 dc3b 09ae 9d3b 0268 833b 8c6f ab3c
000001c0: cd60 22bd 91d1 9dbc 8486 cbbc b38e 40bc
000001d0: 6ac4 14bd ceab 53bc 834e 6abc ea63 fabc
000001e0: e0ed 793b 223c 0fbc 099c b5bc 7bec d33b
000001f0: 2e27 efbc 7a1b 73bc 9849 93bb 14e6 2738
0.014369948 0.010319358 0.0079338495 -0.010874204 0.014358933 -0.01339583 -0.010642303 0.00822799
-0.0070593273 0.0009874899 -7.410481e-05 0.0038061508 0.0030245683 0.0042324364 0.002481751 -0.00013397574
0.007371075 -0.01916059 -0.0075083524 0.012485904 -0.0010279301 0.013085732 0.0002919422 0.021479966
0.016779372 -0.0054301214 0.01097942 0.0003440258 -0.01576627 -2.6075393e-05 -0.0026058126 -0.0033486756
0.004276569 0.017000882 0.026146274 0.032061957 0.026129171 0.016185725 0.023532717 0.021707205
0.017678834 0.029602377 0.037835 0.014457182 0.019102499 0.018183352 0.00857011 0.013424161
-0.0012365925 -0.006661049 0.01233081 -0.0002021838 -0.008527842 0.019544527 0.0010330908 0.0020358518
-0.011862768 0.007912229 0.02251734 -0.0020482293 0.021894274 -0.0034750307 -0.0035501125 0.0057458915
0.0054228185 -0.0021260672 -0.002148833 0.019458046 0.019095559 0.016832232 -0.027487505 -0.011208341
-0.007124893 0.008458845 -0.0018855279 -0.012245305 0.0023607833 0.0035517223 -0.0034314855 0.01738564
-0.00029932798 -0.0071427617 -0.0022288805 0.015410385 -0.012301057 -0.0013288973 0.013418729 0.0008590113
0.018290818 0.008510601 -0.010109932 -0.012438707 -0.007516599 0.01613522 -0.0067997933 -0.0043765097
0.0091209505 -0.015422481 -0.0077416208 0.0092255585 0.0058851363 0.00642299 -0.0013326583 -0.0012713912
-0.000754267 0.009387361 0.009226183 0.0005781613 0.006743005 0.0048120064 0.0040102014 0.020927213
-0.039643098 -0.019264968 -0.024844415 -0.011752772 -0.036320128 -0.012919379 -0.014300945 -0.03056522
0.003813617 -0.008742364 -0.02216913 0.0064673997 -0.029193487 -0.014838094 -0.004494857 4.003018e-05

0.conv2.lin_l.bias f4 [8]
00000000: e526 933c 5c2f d4b8 e8f3 243d 9713 c13c
00000010: e665 ef3b a4e3 c3ba 485d a83b ac51 aebc
0.017962882 -0.00010117769 0.04027167 0.023568911 0.0073058484 -0.0014945162 0.005138073 -0.021279179

0.conv2.lin_r.weight f4 [8, 16]
00000000: bdfb 39bc 0c01 083c 4e07 673c 3431 92bb
00000010: c083 b7bb 9a9c 9a3b 12c3 553c 389e e03b
00000020: 3889 443a 4369 a03c 4a95 533b f492 833c
00000030: 001b 723b b11d afb9 ed1a de3b 018f b23c
00000040: 452f 6bbc 0567 4e3a fb97 f9bc 4fb9 3a3c
00000050: 9d45 bcba 244e 77bb 242d 2abc 1c8a 8bbb
00000060: 2e80 6c3b 4a0a cebb b30f 35bc e659 8cbb
00000070: cc9f 20bc c888 43bc 077b 19bc 9a90 3abb
00000080: 3d22 283c 4ef7 583c 2dc4 873c 54dc 223c
00000090: 2ce2 a33c e17a c83c b33d aa3b da73 033d
000000a0: 0db3 2f3b 2fe6 87bb 09f6 853c a61a 0cbc
000000b0: 3cdc 113d 69ba ea3c 5672 933b cf80 0f3d
000000c0: bb1b 16bc 619c 983a c676 963b fc4f b8bb
000000d0: 1198 60bc b86e 88b8 a865 823c e980 e53a
000000e0: 4567 1b3c c9ee b33c bb45 5e3b 03fb b9bb
000000f0: 18e3 903c 6044 293c 4ff2 513c 170b 3b3c
00000100: 49f4 4e3c a515 fbbb ae2d dabb a1d1 f23b
00000110: be1f 1fbc 4831 76b9 ad0e 1dbb 3d7d 9abc
00000120: 8e4b fd3b ae90 4d3c c25b 17bc 80b9 72bc
00000130: 7aa1 2cbc ca3b a8bb 807f 0f3a e6b6 eebb
00000140: 540f e13b a858 55bc 6881 643c c3d9 eeb8
00000150: 3ca1 1c3c 8f4f cdbb 8a59 0bbc d7d7 2c3b
00000160: 21b0 c2bb bd57 7c3b 188e c6bb 0c5c 1d3c
00000170: 6fa8 1dbc 8836 683c ada9 f53b 5767 543b
00000180: 163e 6d3c 1490 893b aa6b 5abc 5898 873c
00000190: a982 5c3c c5c4 ca3c 3dbe 3bbb 3f51 9fbc
000001a0: a466 9fba cd34 3bb8 52c2 663b c8fd ee3b
000001b0: 1f6e 103d 6878 773c c5c6 b93c 5212 573a
000001c0: 8378 b7bc 3dc9 c7bc 1a2d 4cbc 43f1 48bb
000001d0: 4a5b 30bc bbed d53b 3717 e9bc 0976 f2bc
000001e0: 66dc c7bc 1d06 1abc c17f c93b f872 82bc
000001f0: 31cf 1bbc dc9a 43bc 43b2 4fbc 4f9b 2cbc
-0.011351523 0.008301031 0.014100863 -0.004461432 -0.0056004226 0.0047183754 0.013046997 0.0068547986
0.0007497254 0.019581443 0.0032285028 0.016061284 0.0036942363 -0.00033400723 0.006778112 0.021796705
-0.014354532 0.00078736275 -0.030467978 0.01139672 -0.0014364008 -0.0037735784 -0.010386739 -0.0042584073
0.0036087143 -0.0062878476 -0.011051106 -0.0042831777 -0.009803724 -0.011934467 -0.009367711 -0.0028467537
0.010262069 0.013242556 0.016573036 0.009940226 0.020005308 0.024472656 0.0051953434 0.032092907
0.0026809603 -0.004147313 0.01635267 -0.008551275 0.035610422 0.02865334 0.004499714 0.03503495
-0.009161885 0.0011643284 0.0045917956 -0.0056247693 -0.01370813 -6.505608e-05 0.015917614 0.0017509732
0.009485071 0.021964448 0.0033916074 -0.005675675 0.017686412 0.010331243 0.0128141185 0.011416218
0.012631484 -0.0076624923 -0.0066582775 0.0074102436 -0.009712158 -0.00023478747 -0.0023965046 -0.018858546
0.007729954 0.012546701 -0.009238185 -0.014814734 -0.010536546 -0.0051340805 0.0005474016 -0.007284987
0.0068682823 -0.013021626 0.0139468685 -0.00011389286 0.009559926 -0.0062655876 -0.0085052345 0.0026373768
-0.0059414064 0.0038504445 -0.0060594194 0.009604465 -0.009622677 0.0141731575 0.0074970336 0.0032410228
0.0144801345 0.0041980837 -0.013331333 0.016552135 0.013458886 0.02475203 -0.0028647326 -0.01944792
-0.0012161327 -4.463345e-05 0.0035211039 0.0072934367 0.03526127 0.015104391 0.022677789 0.0008204329
-0.022396332 -0.02438795 -0.012461925 -0.0030661381 -0.0107639525 0.006528584 -0.028453453 -0.0295973
-0.024397086 -0.009400872 0.0061492627 -0.015923962 -0.0095098475 -0.011938777 -0.012676778 -0.010535075

1.conv1.lin_l.weight f4 [16, 4]
00000000: 730d bb3d 892e 4b3d fcab 0abc 5c88 8c3d
00000010: 4639 c03d 5804 c43c d46d 8d3c 48cb 123c
00000020: 0a30 ba3d 2812 033d 06af 8e3c 0d14 3b3d
00000030: 364d d33d 0c17 773c 3d4c 123d 9d1d 4a3d
00000040: bbe7 cc3d 5df4 883c 09a9 e13c e1e1 4f3d
00000050: 99b8 a13d 58e0 f3bb dddb 9e3d fc5d 043d
00000060: 7b1f b83d 4ed7 ca3c 8f34 9f3c f776 a43c
00000070: b442 ce3d e474 303d 8559 d23c dc5e 2d3d
00000080: 9fe8 ce3d cde2 363c bdf9 a63c 66da 393d
00000090: 0174 c73d 1b5e 673c b668 0cbc 85ab 6c3d
000000a0: 0802 c63d e377 623c 54bc e83c 58b7 763d
000000b0: 6504 ae3d 33e8 033c 8f87 33bb c04d c73d
000000c0: cad5 073e 6ec7 463c 5f39 253c 3767 533d
000000d0: b970 913d 8a68 ddbc 5d8f 963c e5e0 583d
000000e0: efa5 cd3d a9d4 193d 2d4c 943c e814 433d
000000f0: be08 9a3d a073 853c 11ec 2f3d 4940 d53c
0.091334246 0.049604926 -0.008463856 0.06861946 0.09385924 0.023927853 0.017264284 0.008959599
0.09091194 0.031999737 0.017417442 0.04567342 0.10317461 0.015081178 0.035717238 0.049344648
0.100051366 0.016718084 0.027546423 0.050752524 0.07896537 -0.0074425153 0.07756779 0.032316193
0.089903794 0.024760868 0.019434242 0.020076258 0.10071316 0.043080226 0.025677452 0.042326793
0.10102963 0.011162472 0.020382756 0.045374297 0.09738923 0.014121558 -0.008569887 0.05778076
0.09668356 0.0138225285 0.028410114 0.060233444 0.08496932 0.008050966 -0.0027394032 0.097316265
0.13265148 0.012132509 0.010084479 0.051612105 0.07101578 -0.027027387 0.018378908 0.05294885
0.10041415 0.037556324 0.01810273 0.04762736 0.07521199 0.016290486 0.04294974 0.02603163

1.conv1.lin_l.bias f4 [16]
00000000: 8ab0 e33c 4c53 943c d7f1 543c 64c1 e63c
00000010: bf14 363d ae10 72ba d1d5 433d ecb2 de3c
00000020: 6f1d 463c 34a4 853c 3716 603c 8d27 8c3c
00000030: 6156 083d b426 763c 58db 863c 8adf 413c
0.027794141 0.018106125 0.012997112 0.028168388 0.04445338 -0.0009234053 0.047811333 0.027184926
0.012091978 0.01631365 0.013677171 0.017108703 0.033285502 0.015023876 0.016462013 0.011833081

1.conv1.lin_r.weight f4 [16, 4]
00000000: cd6d f83d a252 a33d fdcd 553d 2c5d b53d
00000010: 2fa3 fa3d 23f4 113d 1f1e 853d f822 553d
00000020: 25bb d63d 183c 033d eabf 833d cf03 933d
00000030: 6a51 e33d 0db2 343d 788b 963d bc3d 793d
00000040: e80f d03d 0a31 1f3d 319c da3c 515f e43d
00000050: f8ab fe3d 447c 813d dc48 8c3d 2854 9c3d
00000060: e740 003e 6dfc 273d 7fb5 333d 5d26 ea3d
00000070: 8157 123e 1569 a33c 18f0 5b3d 18d8 853d
00000080: 40eb 0f3e 0460 4e3d a884 0d3d 6e03 c53d
00000090: 6540 e03d 2e7f bc3c 97db 1e3d a1a0 533d
000000a0: 48d7 f33d 1740 d83c 935e 343d 3d6d 833d
000000b0: 6d66 d23d 3374 a43c 96ae 763d 4e4d 7e3d
000000c0: 80ac ec3d 009c 1c3d 1286 453d 5b7f ab3d
000000d0: 2038 243e 56fd 763d a4b1 4a3d 4f8d 7d3d
000000e0: 5e41 1a3e 7420 343d 36ab 7d3d 9813 b73d
000000f0: 61d6 eb3d 4320 823d aad0 493c 8d42 8b3d
0.12130318 0.07974745 0.0521984 0.08855662 0.12238156 0.035633218 0.06499886 0.052035302
0.10484914 0.03203973 0.06433089 0.07178461 0.11099513 0.044115115 0.0735082 0.06084989
0.10159284 0.038865127 0.026685806 0.11150993 0.12435144 0.0632253 0.06849834 0.07633239
0.12524758 0.041012216 0.04387426 0.114330985 0.14291193 0.019947568 0.053695768 0.06535357
0.14054585 0.050384536 0.03455034 0.09619795 0.10949782 0.023009863 0.038783636 0.05166686
0.11906296 0.026397748 0.044035506 0.0641732 0.102734424 0.02007494 0.060225092 0.062085442
0.11556339 0.03823471 0.048223563 0.083739005 0.16037035 0.060300194 0.049485818 0.06190234
0.15063998 0.043976262 0.061930858 0.08939284 0.11515499 0.0635381 0.012317816 0.06799803

1.conv2.lin_l.weight f4 [8, 16]
00000000: 9127 d639 531d 983b 65db 0bbc d494 ad3b
00000010: e58e 54bb d8dc 7cbb 11b2 ceba 0e8d c63b
00000020: ecd6 8dbb 6ce3 b93a d8da 233c c449 eeb9
00000030: 1fde c83b affe 3ebb ec6f 9139 e075 903b
00000040: cf2a 003c d21d fd3b d2c2 2a3c 0fe6 5f3c
00000050: fde3 433c 1679 4ebb a93b bcbb 5f0a 3abc
00000060: 9ca7 6bbc ec19 ed3a ddae 203c 9aee d9bb
00000070: db7b 563c 9f30 3abc e1b2 3f3c 1228 a93c
00000080: d241 303c 187b 153c aa3a 3bbc 5d42 273c
00000090: 4d8b b33b 9878 1d3b a3f1 b1bb cced 26bc
000000a0: 8c81 c43b ae3f aeba 7bef f03b 4a86 45bc
000000b0: 7d9b 26bb 9a9d 18bc d8a8 d1bc 6ab1 6cbc
000000c0: 549d 40bc 3c77 643b 2c81 cabb 6151 0bbc
000000d0: 119a 1d3c 9737 363b f889 2ebc 2c59 a23a
000000e0: 9cc3 d4bb 3fc6 22bb 76eb 0f3b 3767 49ba
000000f0: 540f 0d3c 4827 813c 6653 483c 0394 44bb
00000100: 8972 6cbc 6ea5 0d3b df69 6ebb ec7d 893c
00000110: d362 2e3c 0805 873a b38c 7abc 519d 623c
00000120: 3747 8f3b b372 dd3b 52b1 30bb 88be 8d3b
00000130: 1e77 903c 5743 adbb 4d63 a5bb b738 f43b
00000140: c4bf 993b 35b0 9c3c 41fc 1b3c f30f d13c
00000150: 2311 a7bc b17a 90bb d802 b83a d7d9 6d3b
00000160: 7804 fd3b c40a 3cbb 11d6 733c aed0 cd3c
00000170: 2aa6 cfba adce dfbb d63f 103c 58f6 763b
00000180: 17a7 773b ab6f 89bb 56f5 35bb 005c 9d38
00000190: f624 253c 1dfb 453c e8b3 f83b 1c3e d03b
000001a0: 74c2 8fba 00a8 a03b ad87 8b3b fd5c bf3b
000001b0: 2e73 ddb9 2458 9e3c c9b5 f53b f18c 693b
000001c0: 98a6 2e3c b2ef edbb f84c 023b 1688 493c
000001d0: ae95 ca3b b3aa 6cbb 94ba 08bc c62d 8a3b
000001e0: 26a1 82bc cd49 76ba 1498 5ebc aa51 8e3b
000001f0: ee1f fe3b 5652 c7bb 21aa 16bc 2043 0cbc
0.0004084674 0.0046421676 -0.008536194 0.0052972827 -0.0032433805 -0.0038583782 -0.0015769621 0.0060592955
-0.004328599 0.0014182157 0.010000907 -0.00045449857 0.0061299945 -0.0029143502 0.00027739943 0.004408583
0.007822706 0.007724502 0.010422425 0.01366569 0.011956212 -0.0031505278 -0.0057444167 -0.011355012
-0.014383223 0.001808939 0.009807316 -0.006650758 0.013091053 -0.011364131 0.011700363 0.02064899
0.01075788 0.009123586 -0.011427561 0.010208693 0.0054792524 0.0024028178 -0.0054304167 -0.010188531
0.0059968885 -0.0013294125 0.007352767 -0.012055943 -0.0025422268 -0.009314919 -0.025593206 -0.014446596
-0.01175626 0.0034861108 -0.0061799493 -0.008503289 0.009619252 0.002780413 -0.0106530115 0.0012386194
-0.006493045 -0.0024837402 0.0021960414 -0.0007682922 0.008609612 0.015765801 0.012226915 -0.0029995448
-0.014431604 0.0021613496 -0.0036379022 0.016783677 0.010643679 0.0010301182 -0.015292334 0.0138314525
0.004372503 0.006758058 -0.002696116 0.0043256916 0.017634925 -0.0052875686 -0.005047238 0.00745305
0.0046920497 0.01912699 0.009520591 0.0255203 -0.020393914 -0.004409157 0.0014038933 0.0036293173
0.00772148 -0.002869294 0.01488258 0.02512392 -0.0015842367 -0.0068300576 0.008804282 0.0037683453
0.0037788802 -0.00419422 -0.002776464 7.50348e-05 0.010079613 0.012083796 0.007589806 0.0063550603
-0.0010967986 0.0049028397 0.004258117 0.0058399425 -0.0004223822 0.019329138 0.007498477 0.0035636986
0.010659836 -0.00726124 0.0019882303 0.012300512 0.006182394 -0.0036112487 -0.008345265 0.0042168824
-0.015945982 -0.00093951524 -0.013586063 0.004343231 0.007755271 -0.0060828133 -0.009195835 -0.008560926

1.conv2.lin_l.bias f4 [8]
00000000: f379 b23c a62b 45bc 5487 263a 3416 533c
00000010: 0fb8 243c ac3e 07bb 7461 fa3b 58c8 64bc
0.021786666 -0.012034332 0.0006352563 0.012883712 0.010053649 -0.002063672 0.007641012 -0.013963781

1.conv2.lin_r.weight f4 [8, 16]
00000000: e1a9 fcbb f6fc 86ba f46a 6dbc 2904 333b
00000010: c8d6 193c 1294 d3ba 25dd efba 88eb a93a
00000020: 4db9 5a3c 572a 3d3c 0343 1b3c 3192 dc3a
00000030: a87c 8bbb 61d0 b93a 5d9e 37bb 04c9 213c
00000040: 6115 d03c e538 bfba 06f9 243c c167 c73b
00000050: 56b5 85bb 2e50 393c a61a a5bb ee07 523c
00000060: c1e4 8cbb f1a7 11bb 5c1c 3d3c 6c60 b2bc
00000070: f651 48bc 4d66 3abc 12b5 1dba dac5 b4bb
00000080: 912e 9a3b 3dca 1eba 4c9d c33b 48e3 9f3b
00000090: 932d 27bb aee0 f539 980e 65bc 2d9b 38bc
000000a0: 31eb 8c3a cf70 c53b 6e93 d3bb cd12 08b9
000000b0: 8f10 6c39 968a 6dbc 0361 bb3b aa67 8b3b
000000c0: 6658 4ebc 530b 153c a41b ef3b 0541 983a
000000d0: 6815 283c c88e 9a3b 9cf5 abbb cc54 853b
000000e0: 4f94 0dbb 0e11 de3c 2e5d 38bc 7cdd c03b
000000f0: 6fa2 fe3a b3c0 a9bb 8f91 abba dd2a e63b
00000100: ea3e f0bb 88ab b3bc 1f03 acb8 1f69 f03b
00000110: 202d f13b 5da4 c63b a171 423c b616 273c
00000120: b2ef 31bc 5c52 58bb 3d49 50bc cd10 91b9
00000130: 4c6f 8a3b 941b b3bc b327 e239 8508 823b
00000140: 2ffa 683c 84e1 4b3c 9f2d b13b ceac 533c
00000150: e177 f23a 86b2 a0bc 4167 0cbc 9acb 6c3c
00000160: 2689 00bb ecce debb c548 693c d139 863c
00000170: aed3 e03c 8635 37bc fba6 37bc cab1 a03a
00000180: d4a5 353c f4e4 87bb 1d7b 123c 8ac5 a93b
00000190: 6c53 19bc 3313 1c3c 8068 4a3a 542d 25bc
000001a0: 1f40 c13b f552 0e3b 65ac e0bb ba1d 8f3b
000001b0: 7a55 223c 1ccf 8b3b 067f b63c 9259 263b
000001c0: 740f ccbb 7386 5c3b 8df3 923c e4b2 4c3c
000001d0: 6044 d3bb ce37 053c 8ff9 27ba 4127 85bb
000001e0: 8acb d9bb 8f2b 7cbc 8de2 1dbc 7131 07bd
000001f0: f7ba 22bc da33 82bb fbd0 8a3b 0fa5 9d3a
-0.007710681 -0.0010298777 -0.014490832 0.0027315712 0.009389587 -0.0016142151 -0.0018300159 0.001296387
0.013349843 0.011545739 0.009476426 0.0016828236 -0.0042568035 0.0014176482 -0.0028017976 0.009874586
0.02540082 -0.00145891 0.010069137 0.0060853665 -0.004080455 0.01131062 -0.005038577 0.012819273
-0.0042997305 -0.0022225345 0.011542406 -0.021774493 -0.012226572 -0.0113769295 -0.0006016056 -0.00551675
0.004705258 -0.00060573575 0.005969679 0.004879389 -0.0025509342 0.0004689744 -0.01398053 -0.011267466
0.0010751245 0.0060254107 -0.006456784 -0.00012976975 0.00022512882 -0.0144983735 0.005718352 0.004254301
-0.012594318 0.009096938 0.007296996 0.0011616057 0.01025901 0.004716728 -0.005247785 0.0040689465
-0.0021603291 0.027107742 -0.0112526845 0.005885778 0.0019427071 -0.0051804422 -0.0013089644 0.0070241527
-0.0073317187 -0.021932378 -8.2021805e-05 0.00733675 0.0073601156 0.006062074 0.011867912 0.010198286
-0.0108603705 -0.0033008074 -0.012712774 -0.00027669073 0.0042246934 -0.021863736 0.00043135657 0.0039683008
0.014219805 0.012443904 0.00540705 0.012919618 0.0018498861 -0.019616377 -0.0085695395 0.014452839
-0.0019612997 -0.0067995694 0.014238541 0.01638499 0.027444687 -0.011182195 -0.011209245 0.0012260017
0.0110869 -0.0041471664 0.008940485 0.005181019 -0.009358268 0.009526062 0.000772126 -0.010081608
0.0058975364 0.0021716927 -0.0068564885 0.0043675574 0.0099080745 0.0042666327 0.022277366 0.0025382978
-0.006227428 0.0033649474 0.0179384 0.012493823 -0.00644736 0.008130981 -0.00064077316 -0.0040635173
-0.006646578 -0.015391245 -0.009636533 -0.033006135 -0.009932271 -0.0039734663 0.004236338 0.0012027341

2.conv1.lin_l.weight f4 [16, 4]
00000000: 7b0c c23d 8a43 603c 96bc 843d 0fb7 973d
00000010: 3f90 a03d 057e cd3c 7cb6 e13c e92a af3d
00000020: 25fc 873d 760a 9f3b baf2 793c aaad b83d
00000030: 67e5 8e3d 5bf6 ac3a 6a42 c63b eed1 923d
00000040: 2c88 aa3d 94f3 d03c b321 d43c 7c66 e33d
00000050: eca6 8e3d 7d0f f23c ed9a f23c 9f4c ca3d
00000060: aeeb c13d d29f 0dba 8922 ca3c cd1b e13d
00000070: 0812 9c3d 14c7 8abc 4f87 993c 316f 003e
00000080: 46c0 823d f683 40bc f88a 2d3d bdf2 aa3d
00000090: 6a2c a73d 3151 233d 5d27 163d 78bd 023e
000000a0: c913 aa3d ec72 20bc c567 323c ef22 aa3d
000000b0: 8aa2 f53d f12b e0ba c501 723c 5620 c03d
000000c0: 98cc d03d 0ce7 063c bd9c 853c 965b de3d
000000d0: 2e5f 5a3d 744c d73c ba1a 103d 9105 8e3d
000000e0: 4ef4 d23d a128 183d b340 713d f7a0 b23d
000000f0: 2a06 8b3d 01cf 873d de24 083d 8c04 ea3d
0.09475037 0.013687978 0.064812824 0.074079625 0.07840013 0.025084505 0.027552836 0.08553106
0.0663989 0.004853542 0.015255624 0.09017499 0.06977349 0.0013195978 0.0060503976 0.07168947
0.08326754 0.025506772 0.025894975 0.11103532 0.069654316 0.029548401 0.02961489 0.098778956
0.094687805 -0.0005402538 0.02467467 0.10991631 0.07620627 -0.016940631 0.018741278 0.12542416
0.063843295 -0.011750212 0.04236886 0.0834708 0.08162768 0.039872352 0.036658634 0.12767589
0.08304555 -0.0097930245 0.010888998 0.08307444 0.119938925 -0.0017102939 0.01477093 0.093811676
0.10195273 0.008233797 0.01631009 0.108573124 0.053313427 0.026281573 0.03518174 0.069346555
0.10300504 0.03714812 0.058899593 0.08722108 0.06788285 0.0663128 0.033238284 0.114266485

2.conv1.lin_l.bias f4 [16]
00000000: 05ab 8c3c 18c8 8e3d ef19 dd3c 22b3 8a3c
00000010: ea27 f93c e1c5 0a3d 3325 243b fded 1a3d
00000020: f304 c83c 52e8 4f3d d2cd 3a3d 5d72 a23c
00000030: 9f37 2c3d 288b ad3c 0384 d13c 1c88 623d
0.017171392 0.069717586 0.026989905 0.01693112 0.03041454 0.03388012 0.0025046587 0.03782462
0.024416422 0.050758667 0.04560644 0.019829923 0.042045232 0.021184519 0.025575643 0.055305585

2.conv1.lin_r.weight f4 [16, 4]
00000000: 4e0c d13d 3dd5 633d ee42 493d df87 d53d
00000010: 2018 e23d ae07 623c 8df8 cb3b ec54 d73d
00000020: afc4 f03d 6465 b83c 4957 423d f144 923d
00000030: 7230 ec3d 7b79 323d 144b 993d dd73 da3d
00000040: 64bf 013e c39a 823d 1f9c 503c 3c64 943d
00000050: aa19 ee3d 6f2c 553c c3b2 563d e1b8 f63d
00000060: f664 153e f2a6 323d 017b a73c 046a e83d
00000070: 562d 023e 6729 863c 9c31 563c ba8a 1a3e
00000080: 989a ba3d 924d 7e3d 0bfd 1f3c ef33 a83d
00000090: 0c19 c13d bd66 653d 233d f43c 861b 063e
000000a0: 6d89 fb3d 5fdb e93c ce69 ec3c ea59 da3d
000000b0: a916 033e bfdb 3c3d 2047 623d c494 003e
000000c0: a528 b33d dcd5 d53c 3b37 e53c c4c9 a23d
000000d0: 49ad c33d 435b 913d 413b e63c 04c2 cd3d
000000e0: 966a f13d 03df 4c3d ffff aa3d 6ce1 053e
000000f0: b0b4 833d e7b9 1c3d 06c9 303d 1696 b53d
0.10207425 0.05562328 0.049136095 0.10426306 0.11039758 0.013795776 0.006224698 0.105142444
0.117562644 0.022509284 0.047446523 0.07142056 0.11532678 0.043572884 0.07485023 0.106666304
0.12670666 0.06377175 0.012732535 0.07245681 0.11625989 0.013011082 0.052416574 0.120469816
0.14589295 0.043616243 0.020444395 0.11348346 0.12712607 0.016377164 0.013073351 0.15091982
0.09111518 0.062085696 0.00976492 0.082130305 0.094286054 0.056006182 0.029814309 0.13096437
0.12282071 0.028546987 0.028859045 0.10661681 0.12801613 0.046108004 0.05524361 0.1255675
0.08747987 0.026102953 0.027980438 0.0794864 0.09554536 0.07097485 0.028104426 0.10046771
0.11787908 0.050017368 0.08349609 0.13074273 0.06430948 0.038263228 0.04316046 0.08866517

2.conv2.lin_l.weight f4 [8, 16]
00000000: 0588 f73a c8cc 81bb cf32 e1bb ca34 63bc
00000010: 2c82 aaba ee12 d3bb 7f20 a83b 815e 723c
00000020: 03a1 863c cf98 a33c 4098 f73b 6828 1d3c
00000030: f130 0e3c 8fca fbb8 d1bb 383b a47d 68bb
00000040: a9c0 d33b f123 443c ea94 3a3c f8a4 2c3c
00000050: fa91 803c 49f9 d13b 6232 a13b 4dd0 8d3b
00000060: eafc 9a3c 5744 113b 018c b3bc d487 bdba
00000070: aed3 aa3b 0a2f a0b8 8dac 4e3c e695 393b
00000080: 635c a4ba 3649 b33c cf23 963b 66c8 1739
00000090: 646d 0a3c c626 753b 3249 7d3b 6f0e 0a3c
000000a0: 98b9 1a3c 2c38 af3b 181e 6f3c e3b4 02bc
000000b0: dc17 56bb f346 963c 9205 6e3c c3f4 df3b
000000c0: 1c21 8c3b b6f1 413c 6951 633b 6482 cb3b
000000d0: 08f3 46bb e9b4 8e3c 5d09 133c 661c e93a
000000e0: 1271 543c ecf1 1fbb 3fe1 623c 3fd8 2b3c
000000f0: a327 be3b 804c cc3c 2cdb 303c 3623 933c
00000100: 430f ec3b 6130 433c cf9b b73c 1de7 edba
00000110: 58ed 5fbc c162 833c 0fa2 ba3c 6da4 9c3c
00000120: d8bc 0b3d 6c55 803c 5c85 693c aa3c d43c
00000130: cd62 c93c c650 963c 13cc b63b fc76 7c3c
00000140: 0360 fc3b 5c1d 803c cf61 32bb 7db0 e03a
00000150: 8680 df3b 00b5 47bb a096 1f3c 0cd2 48bb
00000160: ad59 183c 28d1 0a3c a1f9 2cbc 7287 b73b
00000170: 3da9 a2ba 8f45 b33b 6431 09ba 16aa 313c
00000180: 583d 873c 0362 933c c36c b53b 66f0 b63c
00000190: d35b 863c b333 efba 4eb8 4b3c 88b7 8e3c
000001a0: 34f4 ad3c cf48 113c 9415 8c3b f480 273c
000001b0: 3abc 3a3c cd08 c13b 24b2 b53a 14a4 203b
000001c0: 773d a03b 1ffa eab9 e6f0 b8bb 2474 60bc
000001d0: 104c 0d3c d450 fd3b 17de a3bc 38f6 253c
000001e0: 5aa5 b0bc 4e53 aabc 43fa 5dba 24c2 423c
000001f0: 3d8d 943c 381a 043b 66f7 c83b 48b5 c3bc
0.0018885141 -0.0039611794 -0.006872512 -0.013867566 -0.0013008765 -0.0064414656 0.005130827 0.014793039
0.016434198 0.019970326 0.0075559914 0.009592153 0.008678661 -0.00012006342 0.002818812 -0.0035475278
0.006462176 0.01197146 0.011388043 0.0105373785 0.015694607 0.006407891 0.004919336 0.00432781
0.018919427 0.0022165978 -0.021917345 -0.0014460036 0.0052132225 -7.638156e-05 0.0126143815 0.0028318106
-0.001253974 0.021885496 0.0045819054 0.00014475136 0.008448932 0.0037407144 0.0038648364 0.008426293
0.009443663 0.0053472724 0.014594577 -0.007977697 -0.003266803 0.018344378 0.014527695 0.006834598
0.004276408 0.011837414 0.0034685975 0.006210612 -0.003035726 0.017420249 0.0089744 0.0017784953
0.012966411 -0.0024405671 0.013847648 0.010488569 0.005803065 0.024938822 0.010794442 0.017961126
0.007203968 0.01191339 0.022413163 -0.0018150542 -0.013667427 0.0160383 0.022782354 0.019121373
0.034115642 0.015665732 0.014252987 0.025907833 0.024583245 0.018349063 0.0055785268 0.015409227
0.007701875 0.015639 -0.0027218943 0.0017142441 0.006820741 -0.0030472875 0.009740502 -0.0030642776
0.009298724 0.008472718 -0.010557563 0.005600863 -0.0012410056 0.0054709385 -0.0005233495 0.010843774
0.016508743 0.017991072 0.005536647 0.022331428 0.016401207 -0.001824966 0.012434078 0.017421499
0.02123461 0.008867457 0.0042750333 0.010223616 0.011397416 0.0058909417 0.0013862294 0.002451186
0.0048901397 -0.00044818313 -0.0056439517 -0.013699565 0.008624092 0.0077305827 -0.020003362 0.010129504
-0.02156322 -0.020791676 -0.0008467773 0.011887107 0.018133754 0.002015723 0.006133008 -0.023890153

2.conv2.lin_l.bias f4 [8]
00000000: 29f8 5e3c 083e ff3b dcd8 32ba 4a09 663c
00000010: f4ad 423c a171 2e3b 21f4 993c 0ff2 01ba
0.013608971 0.007789377 -0.00068224757 0.014040301 0.011882294 0.002661802 0.018793168 -0.0004957029

2.conv2.lin_r.weight f4 [8, 16]
00000000: 9467 d23c 9f9d 28bb 7136 ab3b 5740 30ba
00000010: 4d08 2a3c 492d c13a 4e15 c73b baf2 833c
00000020: e81d e23b bfa5 dd3c 2d49 023c a18c 34bb
00000030: 1a76 b33b 6591 213c 4a8b e7ba d1fe 0e3c
00000040: 0942 c63c 9c60 363c df18 aabb 8fb2 2c3c
00000050: 6f38 14bc 6a00 93bc f422 a13c 0109 803c
00000060: 6a5a 443c 1dc5 b2bb cae8 5cbc 4ab5 283c
00000070: d2b9 dc3b a84b 37bc 6cab f5bb 291f b03b
00000080: 9c21 0a3c 0860 b43c 12d7 bb3b b823 613c
00000090: cd7a df3c 2a50 d63c a64e 083c c16c 923c
000000a0: 9c91 f63b ac52 9dbc 13fe aa3c 7665 883b
000000b0: 4d30 b13c 045f 043c ef1c 983c 627d 913b
000000c0: 1704 773c a53c 2a3d 969f 7cbb 9c59 053c
000000d0: f7bc 59bc 2f72 853b 81bd 923c e160 e13b
000000e0: 0154 833a bf5d d7bb ffa8 c33c 73d5 c13b
000000f0: 23e4 e33b 787e 803c 49ec 963c 181e 373c
00000100: 587d 1b3d 78b4 9db9 b9dc 9c3c 6e8c 24bc
00000110: a6bb 4f3a 6122 313c 3306 6e39 89db 413c
00000120: 822f 913c e69b c33c 29fa a33c 8a2a a63c
00000130: 0fe7 9e3c 7dd4 f23c 5499 d53c 560c 313c
00000140: d76a 39ba 0757 0a3b 56cd 9fbc 2c4c 493c
00000150: 742a ff3b 01ee a93c 11ab 863c fd04 583b
00000160: 5cce e23a 487f fbba 7ae4 b6bb 4e58 bf3c
00000170: 66c5 ce3b 80ec fe3b 718b adbb aec2 caba
00000180: a9a7 69bc 5266 e83b 0e43 fd3b 92ec ad3b
00000190: 126f a83b 21d7 8abb c7b7 843c daab 2abc
000001a0: df0a 453c 7b49 acbc 7ce9 693c 0f85 b73c
000001b0: 6dfa b13c b873 bcba 266e df3b 8a56 16bc
000001c0: 6101 fb3b f77c 97bc 7190 60bc 03b8 60ba
000001d0: 5160 443c d18e 9c3b 6d2c acbb 8af8 c6bb
000001e0: 2fd1 353b 334c ba39 f195 9f39 7264 3b3c
000001f0: 6a5e 0fbc 1f8d a9bc 81db 023c f67f 8a3b
0.025684156 -0.0025728715 0.005224996 -0.00067234546 0.010377956 0.0014738227 0.0060755378 0.016106952
0.0069005378 0.027056573 0.007952017 -0.0027549642 0.0054767253 0.009861325 -0.0017665413 0.008727745
0.02420141 0.011131432 -0.005190953 0.010540619 -0.009046658 -0.017944533 0.019669987 0.015629293
0.011984447 -0.0054556266 -0.013483236 0.010297129 0.0067360187 -0.011187471 -0.0074972417 0.0053748083
0.008430865 0.022018448 0.0057324255 0.013741426 0.027280236 0.026161272 0.0083195325 0.017874124
0.007524682 -0.01920446 0.020873105 0.0041624857 0.021629477 0.008079294 0.018568484 0.0044399956
0.015076659 0.04156174 -0.003854727 0.00813904 -0.013289682 0.0040724496 0.017912628 0.006878004
0.0010019542 -0.0065724547 0.023884295 0.0059153377 0.0069546863 0.015685305 0.018423216 0.0111766085
0.037961334 -0.00030079833 0.019148218 -0.010043247 0.0007924385 0.010811419 0.00022699758 0.011832126
0.017722849 0.02387805 0.020016747 0.020283956 0.019397287 0.029642338 0.02607409 0.010806164
-0.00070731103 0.0021109001 -0.019507091 0.012286227 0.007787043 0.020743372 0.016438993 0.0032961958
0.0017303932 -0.0019187713 -0.0055814357 0.023357537 0.006310153 0.007779658 -0.0052961637 -0.0015469396
-0.014261165 0.0070922757 0.007728941 0.0053077424 0.0051401937 -0.004237071 0.016200913 -0.010416949
0.012026518 -0.021031132 0.014276858 0.022402314 0.021725858 -0.0014377749 0.0068185506 -0.009175906
0.0076600765 -0.018492205 -0.0137063125 -0.0008572342 0.011985854 0.004777767 -0.0052543194 -0.0060721086
0.0027743091 0.00035533457 0.00030438558 0.011437522 -0.008750537 -0.020697175 0.007986904 0.00422668

3.conv1.lin_l.weight f4 [16, 4]
00000000: cc1a b83d fccb e7bc 5436 ce3c 2e42 d33d
00000010: dbad ac3d 6cb3 da3a ba1d 803c a3d3 dc3d
00000020: 9708 a03d 9b59 5bbc a064 533c 6d6d fb3d
00000030: 1a4c cb3d 8cee 733c 37f2 213d 8af7 e23d
00000040: 7b60 9e3d aa9b c43c 4607 a73d 1833 333e
00000050: 541f c23d b37d a9ba 5640 923c 8608 183e
00000060: 2547 ab3d 4af3 5c3d 86ec 203d 214b 033e
00000070: 2e0b d13d c464 ea3c dd96 143d 7618 ca3d
00000080: f0c0 973d e48b dd3c f1b9 4e3d 94f3 ea3d
00000090: 0182 803d 5a96 993b 26e2 8f3d 6de7 f63d
000000a0: 5fd8 9e3d 5737 a83c 4674 bb3c 643a d63d
000000b0: 8f73 e03d 5f84 ee3a a02f 1a3d 83bd fe3d
000000c0: 8d35 293d 4ee1 00bc 211f 5b3d 1a56 e33d
000000d0: ca24 c03d 1a81 a53c 4c57 0a3d 76f7 d83d
000000e0: aaef 813d 9fa3 573c 04e6 433d 2476 083e
000000f0: 4c55 c83d d81a 883c 333c 833d ad0d d63d
0.08989486 -0.02829551 0.02517239 0.10315357 0.08431598 0.0016685552 0.015639175 0.10782554
0.078141384 -0.013388063 0.012902409 0.12276731 0.099266246 0.014888417 0.039537635 0.110823706
0.07733246 0.024000008 0.08155684 0.1749996 0.094786316 -0.0012931138 0.017852943 0.14847001
0.08363179 0.053942956 0.039288066 0.12821628 0.102072105 0.028612502 0.036276687 0.09867947
0.07409847 0.027044244 0.050470296 0.1147224 0.06274796 0.0046871128 0.07025556 0.1205586
0.07756113 0.0205342 0.022882592 0.10460356 0.10959541 0.0018197409 0.037643075 0.1243849
0.041310836 -0.007866217 0.053496484 0.11100407 0.09382017 0.020203162 0.03377466 0.105940744
0.063445404 0.013161569 0.047826782 0.13326317 0.09781894 0.016614363 0.064079665 0.10451827

3.conv1.lin_l.bias f4 [16]
00000000: c464 4f3d fd6d 533d e1cc 653d f1ee 763c
00000010: 7681 ae3d 2416 4d3d cdd3 553d d4a2 693d
00000020: cc9b 8c3d f6d9 2b3d cd0a bd3c c505 fd3c
00000030: c415 ea3c bd2e 813d 4f42 a43d 8e46 3e3c
0.050633207 0.051618565 0.05610359 0.0150716165 0.085207865 0.050069943 0.052203942 0.05704005
0.068656534 0.04195591 0.02307644 0.03088654 0.028574832 0.06307743 0.0802046 0.011613501

3.conv1.lin_r.weight f4 [16, 4]
00000000: ad55 bd3d 7d42 e23c 6e9e 763d c3a2 ef3d
00000010: af68 b73d 71bb 723d ca06 123d bab7 d73d
00000020: 26d9 a13d 26d4 983c 1a4e 873d f13e f83d
00000030: 7bf1 0a3e 637e fb3c dad3 0e3d 96f0 0a3e
00000040: 5d8d 0e3e 384d d73c 54e8 563d 8c83 143e
00000050: c073 da3d a8c3 1b3d 1d82 b13d 8d99 f93d
00000060: 36ac dd3d d2a2 b03c 4d7a b33d 1cc3 2a3e
00000070: 31f6 e73d 20de 1a3c 6dc2 633d 45eb ed3d
00000080: 5a5a e63d ee8f 3a3d fbf4 bb3d 32aa e33d
00000090: ba6a e23d 3f62 1f3d b184 883d bae7 073e
000000a0: 448d ba3d fa12 eb3c 491e ab3d fdf6 dc3d
000000b0: d195 c23d 2998 d13c 793b 8a3d 8df0 f33d
000000c0: bcdb ef3d 1cce a33c 9e7e 183d 94c2 033e
000000d0: c188 9e3d fb71 c6bb 17bf 293d 8fc0 ad3d
000000e0: 0636 0e3e 3331 cc3c d743 863d f826 0b3e
000000f0: 6519 d23d 1a46 2e3d 9b8c 5b3d 7620 db3d
0.09244857 0.027619595 0.060209684 0.11700966 0.08955514 0.05926079 0.035651006 0.1053309
0.07902746 0.018655848 0.066066936 0.1212138 0.1356868 0.030699914 0.034870006 0.13568339
0.13921113 0.026281938 0.05246766 0.14503306 0.10666609 0.03802839 0.08667395 0.121874906
0.10823862 0.021562014 0.087635614 0.16675991 0.11326254 0.009452373 0.05560534 0.1161714
0.11247702 0.04554742 0.09177586 0.111164466 0.11055513 0.038912054 0.06665934 0.1327199
0.091089755 0.028695572 0.08355386 0.10789297 0.095012315 0.02558525 0.06749625 0.11911116
0.11711833 0.019995742 0.037230127 0.12867194 0.077409275 -0.006056068 0.041442003 0.08483993
0.13887796 0.024925804 0.06555908 0.13589084 0.1025875 0.042547323 0.05360089 0.10699551

3.conv2.lin_l.weight f4 [8, 16]
00000000: 04d9 95bc d6cb 06bc 9398 9a3a 8fdc f7bb
00000010: 1f7d 7fbc c57c 843c 1ffa 87bb 8fc0 1c3b
00000020: 41b7 05bc f365 b5bc 14c3 3abc f914 81bb
00000030: dd67 e7bb 437e 80bc 4ae8 ffbc 4307 0fbc
00000040: c59d 83ba c8f9 96bc 3196 a53b 8116 50bc
00000050: 9a17 f53a 60d6 9bbc 44dd d4bb e932 7bbc
00000060: 69a6 ffbb 526a 0fbc ef49 913c 7fbe 9d3b
00000070: 7621 0abb c183 03bc 216b e13a 7d54 a4bb
00000080: 069b 83bc eeed 1cbb 8a8e 85bc 25a2 28bc
00000090: 36eb 83bc 2c0a 74bc a826 73bc a9b2 bc3b
000000a0: 57b8 efbc 8523 5dbc 2f26 453b ac41 20bc
000000b0: 58d8 eaba 1f6b f0bb 78c2 1fbc f3d3 003c
000000c0: 5291 bf3b 3876 7cbc 4dcb 9ebc 9ae9 c63a
000000d0: c48f 143c 019f b83c cbfa 8bbc 89ce a9bc
000000e0: ee39 3ebc 7b52 243c 23c8 ac3b cd32 823c
000000f0: 7be8 2abc 0ab7 093b 88a4 b5bb 71f4 f5bb
00000100: 8ef2 f83c 696b 0a3c 52a0 803b b373 e23c
00000110: e3ff 783c dd84 6f3c e61c 10bc 0b50 14bc
00000120: 379f 8c3c 05ef 633c d882 e33b 2d14 a83c
00000130: 2083 203c b8e1 c23c a63c 3c3c 6cb0 b03b
00000140: 2d84 dfbb fb0f 783a 1f7f 983c f6c0 a73a
00000150: 9703 c63b 21f0 1e3c 8d6f 2e3b 2e5c 3f3c
00000160: d6e2 91bb 78ca 913b ecd3 13b9 49dc a3bb
00000170: 2f9b 803c fc0a 773b e9e6 45bc 5a75 bbba
00000180: d613 ab3c 2793 82bb 6cc0 853c 0599 a7bb
00000190: 49f2 8f3c 9a10 413c 8877 2f3c 47c2 953c
000001a0: 52fd 6cba 6881 d1bc 3cb6 ed3c 5b14 273c
000001b0: ba72 88ba f171 3e3a df75 8b3c 4dd8 7a3c
000001c0: 2180 c83c d698 923c a3f5 af3c 29a6 1c3a
000001d0: cae1 143c 9b9d 483c c315 313b 0d0a bb3c
000001e0: 3310 b13b ad6e d53b ef25 d43c 8f85 a63c
000001f0: 40d0 f33b 2321 fc3c 039d 3a3b fced 743c
-0.018291958 -0.008227309 0.0011794738 -0.0075641344 -0.015593796 0.016172776 -0.00414969 0.0023918485
-0.008161367 -0.02214334 -0.011399049 -0.0039392677 -0.007061942 -0.015685206 -0.031238694 -0.008729759
-0.0010041526 -0.018429652 0.0050533046 -0.012700678 0.001869905 -0.01902312 -0.0064961035 -0.015331962
-0.00780182 -0.008753376 0.01773545 0.0048139687 -0.0021077073 -0.008027018 0.0017198065 -0.0050149546
-0.016065132 -0.0023945528 -0.01630332 -0.0102925645 -0.016103368 -0.014895003 -0.014840759 0.0057586026
-0.029262705 -0.013497238 0.0030082574 -0.009781282 -0.0017917259 -0.0073369886 -0.009750955 0.007863033
0.005846181 -0.015409045 -0.01938405 0.001517582 0.0090674795 0.022536756 -0.01708736 -0.020728366
-0.011610491 0.0100294305 0.0052728816 0.015893364 -0.010431404 0.002101364 -0.0055432953 -0.0075059463
0.030389097 0.00844846 0.0039253617 0.02764306 0.015197727 0.014619079 -0.008795952 -0.009052287
0.017165763 0.013911967 0.006943088 0.020517433 0.009796888 0.023789272 0.011489069 0.005392125
-0.0068211765 0.00094628305 0.018615304 0.0012798596 0.0060429084 0.009700806 0.0026616782 0.011679692
-0.00445209 0.004449185 -0.0001409796 -0.0050006253 0.015698997 0.0037695756 -0.012078979 -0.0014301941
0.020883482 -0.003984827 0.016327105 -0.005114677 0.017571585 0.011783743 0.010709651 0.018281115
-0.0009040433 -0.025574401 0.02901756 0.010197724 -0.0010410168 0.00072649034 0.017023979 0.015310359
0.02447516 0.017895143 0.021479433 0.00059756875 0.009087035 0.012244607 0.0027021028 0.022831941
0.0054035424 0.0065134377 0.025896994 0.020327358 0.007440597 0.03077752 0.0028474934 0.014949318

3.conv2.lin_l.bias f4 [8]
00000000: b743 26bc 7b57 70bb 0af9 c4bc 84a0 96bc
00000010: 9fc5 ef3c 533c bebb ebed 943c 1fde 333c
-0.01014798 -0.0036673236 -0.024044532 -0.018387087 0.029269038 -0.005805531 0.018179854 0.010978251

3.conv2.lin_r.weight f4 [8, 16]
00000000: 7acd 68bc 7414 a0bc bb80 b33a d815 4ebc
00000010: 1b93 a4bc 8a71 7abb 4eca b8bb f84f f13b
00000020: 84f6 423a 23f9 2fbc d46d 80bc 9789 2a3c
00000030: b88a 2bbc 80dd fabc 7214 a0bc 321b 673a
00000040: a586 593c 8fb6 65bc 5763 173c dbc9 6cbb
00000050: 3480 2dbb 2092 2f3c d717 4cbb 5d94 113b
00000060: 8954 acbb e691 59ba d707 7339 adea 9fbc
00000070: d45e b83c fa2e 8d3c 3327 a4b9 e74d 8a3b
00000080: 2655 12bc 1a71 bb3b e9c2 20bc d6c5 f33b
00000090: a0ee 36bc b419 0b3b 77d0 b2bb b187 29bb
000000a0: b3d1 b6bb b174 7abc 1398 01bc a028 c4bc
000000b0: 116b 63bc 0a35 873b dc5b b53b 4ce7 9c3b
000000c0: e09c 89bc 5576 86bc 8d94 123b de21 87bc
000000d0: 8412 d9bb 51be 0b3b 445a cbbc 6292 0cbc
000000e0: 8085 103c 6816 02bc 13ec babb b319 2fbc
000000f0: 7a83 803b 161f 84bc 0641 0cbb ddec 4c3b
00000100: b82d 853c 58ac 993c 1d1c 9d3c 6e08 593c
00000110: fe1a 233c 1c34 523c 83f4 c4b9 74da d43c
00000120: 2950 ad38 40e0 663c 0472 bc3c 13f6 d53c
00000130: dda8 233c e0dc f63c dc09 f63a 2a91 973b
00000140: daf7 093c c173 e0bc a53b d73c 0166 053c
00000150: f7fb 913c 6cbe 933b eded d13b 9225 69bb
00000160: bdff dc3b 2f5d 863c 34b0 99bc 8c32 dcbc
00000170: 1aeb f7ba 23e6 213c 6151 e239 6176 7bbc
00000180: 5683 493c 04a5 423c f480 6a3b 7c97 a8ba
00000190: 8c57 0d3d 6d74 2c3d 74b6 86ba 9cc4 043c
000001a0: 43f5 8e3b 5aa9 2dbc d665 5b3b 4897 e83c
000001b0: 3db1 29bb 9303 623c a51d 4c3c 8fe2 19b7
000001c0: 33e2 6b3c 4cbb 003b d4e7 2e3c 5bcb 933b
000001d0: 7b58 773c 78ab 84bb c41b 1f3c 125a c13b
000001e0: 2163 59ba 364c 493c e4bf 36bb 9f65 a63a
000001f0: 769a 92bb 6957 5e3c 71b3 253b 7bd9 f7bb
-0.014209146 -0.019541003 0.0013694981 -0.01257845 -0.020089677 -0.0038214647 -0.005639351 0.0073642693
0.00074372464 -0.010740551 -0.01567737 0.010408781 -0.010470085 -0.030623198 -0.019541 0.0008816003
0.013276731 -0.014020576 0.009239993 -0.0036131057 -0.002647412 0.010715991 -0.003114214 0.0022213676
-0.005259101 -0.00082996336 0.00023177206 -0.019521082 0.022506155 0.017234314 -0.00031309723 0.0042207125
-0.008931434 0.00572027 -0.009812095 0.0074393554 -0.011165291 0.0021225037 -0.00545698 -0.0025868232
-0.0055791973 -0.01528661 -0.0079097925 -0.023945153 -0.013880507 0.004126196 0.005534632 0.004788315
-0.016798437 -0.016413847 0.0022366375 -0.016495641 -0.0066245217 0.0021323154 -0.024823315 -0.008579822
0.008820891 -0.007939912 -0.005704412 -0.0106872795 0.003921923 -0.016128104 -0.0021401062 0.0031269111
0.016257152 0.018758938 0.019178445 0.013246639 0.009955166 0.012829807 -0.0003756621 0.025983073
8.264214e-05 0.014091551 0.023003586 0.026118314 0.009988991 0.030134618 0.0018771249 0.004625459
0.008420909 -0.027398946 0.026273558 0.008141995 0.017820342 0.004508784 0.006406537 -0.0035575372
0.0067443536 0.016401855 -0.018760778 -0.026879571 -0.001891467 0.009881529 0.0004316671 -0.015348048
0.012299379 0.011880163 0.0035782428 -0.0012862529 0.03450732 0.04210322 -0.0010277764 0.008103516
0.0043627336 -0.010599459 0.0033477447 0.028392449 -0.0025892996 0.0137947975 0.01245824 -9.17226e-06
0.014397192 0.0019642888 0.010675389 0.004510326 0.015096779 -0.004048761 0.00971121 0.00590063
-0.00082926644 0.0122862365 -0.0027885372 0.001269508 -0.0044739796 0.013570645 0.0025283957 -0.0075637675

4.conv1.lin_l.weight f4 [16, 4]
00000000: d784 c63d a46b 113d 6094 5e3d 33e6 d03d
00000010: 244a a33d 94b4 213d aa32 183d b19c 383d
00000020: 102c 8e3d 44d7 213d 5fcc e53c dd69 a93d
00000030: 0cda d43d 5fdd fb3c 368d 9a3d 8f79 ea3d
00000040: 7b02 c73d 05f7 e33a d25b 3d3b a1e0 913d
00000050: 6e9b d13d f45a c53a 5d54 353c aa85 bd3d
00000060: 64c3 713d 8494 913b ced6 083d 3715 bd3d
00000070: 5dbf 963d 4430 dabc 93d6 913c 86f3 a33d
00000080: 208d 953d a9e9 77bc 3225 aa3b 4908 473d
00000090: 093e b73d cc53 a93c 9677 823d f291 d33d
000000a0: 16f5 ca3d 2cb0 d13c 7f11 1a3b 2ded 9e3d
000000b0: 9f0b 2e3d ac36 be3c 97ab e63c 183a 853d
000000c0: 1604 9c3d ff14 ae3c 3aa0 7f3c 7a94 bc3d
000000d0: 17e5 a93d 430d e63b 73a8 503d 8c21 8e3d
000000e0: 5495 ac3d 2fb4 253d b1e0 443d c369 b73d
000000f0: 5fc2 f53c 4c8f 2e3c c0e3 a5bb a9e0 b03d
0.09693306 0.035503045 0.05434072 0.10200157 0.079731256 0.039478853 0.037157692 0.045071308
0.06941998 0.039511934 0.028051553 0.08272145 0.10393152 0.030745206 0.07546465 0.11448967
0.0971727 0.0017392343 0.002889384 0.07122923 0.10234724 0.0015057013 0.011067477 0.0925401
0.05902423 0.0044427533 0.03340798 0.09232562 0.073607184 -0.026634343 0.017802512 0.08005433
0.07302308 -0.0151313925 0.0051924223 0.048591886 0.08947379 0.02066984 0.063704655 0.10330571
0.09910028 0.0255967 0.0023508964 0.077600814 0.04249155 0.023219429 0.028157992 0.06505221
0.07617967 0.021250246 0.015602166 0.09208007 0.082956485 0.007020624 0.050941896 0.06939992
0.084269196 0.04045504 0.048065845 0.08955719 0.02999991 0.010654282 -0.0050625503 0.086366005

4.conv1.lin_l.bias f4 [16]
00000000: 38e5 653b 816d 1f3d bf89 143d e60c a13d
00000010: cdc2 82bb 54e9 613d 86d8 8b3c c56f 053d
00000020: 92f0 da3c 45ba 443c 0f4d 1c3d 3cb6 aa3c
00000030: c2ba 013d c4f5 933d d222 203d 1878 893c
0.0035079252 0.03892279 0.036264177 0.07863788 -0.003990507 0.05515416 0.01707102 0.032577295
0.026726041 0.012007301 0.038159426 0.02083885 0.031672247 0.072246104 0.039095707 0.016780898

4.conv1.lin_r.weight f4 [16, 4]
00000000: 8410 e23d d44c 513d c5c5 273d 86db f73d
00000010: 4d08 eb3d 4fc3 2a3d efb1 6b3d 2436 cc3d
00000020: fd1a f13d 84df 563d e8af b93d f348 d63d
00000030: f385 d33d a4c4 703d d4d1 833d e10f c03d
00000040: 1679 1f3e 9ecd 9b3d a342 2f3d 9359 013e
00000050: e445 e83d c88c 863d ccf4 8e3c a662 ee3d
00000060: fc39 b93d 805e 4d3d bd65 9c3d 64a2 f43d
00000070: a606 053e df75 1f3d 12f4 f13c 90c8 003e
00000080: 11d2 ca3d bc79 603d 988b 1c3d 2cb1 c43d
00000090: 5fb9 c03d c8db 553d 822e 063d 6043 db3d
000000a0: 538c 103e 9a7e 0b3d 51dc a23d 9f00 b33d
000000b0: ceea 033e f199 f53c e00b 393d 2328 cc3d
000000c0: 31a9 d03d f871 da3c fdfb a63d fd1a da3d
000000d0: ed41 a83d d27a 603d c434 273d e95f c53d
000000e0: 44ce 1b3e 5f8f 6f3d 2407 bd3d 62e3 913d
000000f0: 0eb4 c63d 1f44 2e3d 94d0 3e3d 9f6f a43d
0.11038306 0.05109866 0.040960092 0.12102418 0.114761926 0.041690167 0.057542738 0.09971264
0.11772726 0.052459255 0.090667546 0.10463133 0.10328283 0.05878128 0.06436506 0.09378029
0.15573534 0.07607578 0.04278816 0.12631826 0.113414556 0.06569821 0.017450713 0.116399094
0.09044263 0.05013895 0.076365925 0.11945036 0.12990817 0.03893077 0.029535327 0.12576509
0.09903348 0.054803595 0.038219064 0.09604105 0.09410357 0.052211553 0.032759197 0.1070621
0.1411603 0.034056284 0.07952178 0.08740353 0.1288254 0.029980632 0.04517734 0.09968593
0.10188521 0.026665673 0.08153532 0.10649679 0.08215699 0.05480463 0.040821806 0.09637434
0.15215403 0.05848634 0.092298776 0.07123448 0.097023115 0.042545434 0.046585634 0.080291025

4.conv2.lin_l.weight f4 [8, 16]
00000000: ad79 80bb 4621 70bb 2958 eabc ea4e 98bc
00000010: cc60 8c3c ecea 8ebb 2d94 63bb 8a95 b0ba
00000020: 163b cebb 0ddd b6ba b8ca 983b 9222 f1bb
00000030: 8a73 2fbc 8ea4 2c3b ea5f 05bc 00d0 4437
00000040: 0045 e8bb e187 00bc 57d5 d0b9 8b20 a2bb
00000050: c323 80bb b31e 86bb 5f26 a33b 1fe5 88bc
00000060: e366 b13b ae60 5a39 dac8 bebb f366 7bbc
00000070: 4306 333b 7272 9a3c 9d5e 5a3b f97d 233b
00000080: 7b91 4dbb aaaa 24bc 002e c33a cc4b 373b
00000090: a639 f8bb 5571 1f3c 59ee 8cbb 9844 c33b
000000a0: 85cb e2bc f86d ab3b 9cd8 903b 6679 723c
000000b0: 2949 de3b b41d 61bc bda6 063c 5b47 7d3c
000000c0: 6aaa 9d3b c6a2 1bbb d76b 243b d384 95bc
000000d0: 03ce b1bb 3ba7 e83b 7dcb e8bc 53e2 1abc
000000e0: a913 56bb b8a9 0bbc 86dc 2cbc e680 22bc
000000f0: f10f 06bc 7181 8fbc 7b08 f4ba 8696 d23c
00000100: 963f 483c f131 de3b 38ad 943b 5660 e83b
00000110: 78f9 443a fa8c 5e3c dfdd b0bb faf2 93bb
00000120: ff0d 35bc 2524 03bc 8d71 25ba a605 123c
00000130: dc97 c13b b957 8a3b bdf9 423b ced8 90bb
00000140: 6402 c6bc 3cbb 9cbc e466 d4bc 2662 c9bc
00000150: 5d1c efbb dd61 93bc 88c1 04bb 4a9a 03bd
00000160: 779c 27bd f365 cdbc a89c aabc fb9e 2dbb
00000170: b8d6 2fbc e1d4 71bc cf3a c9bc db47 a3bb
00000180: 8d23 1ebb d8b7 2c3c 6337 233c 41d6 de3b
00000190: ad1c e3bb 1762 c73c 44da fc3b ddcd b63b
000001a0: 3e0e a33c 4e25 433c 724b e03b 5aad bdbc
000001b0: f3a1 033b da8c 8e3b c3c6 a83b ba4f b03b
000001c0: d2f4 30bc 5df8 31bc 1d33 18bc a640 a1bc
000001d0: 5b92 b1bc 61db 8dba 2f9c 22bb 5dd3 debb
000001e0: a4bf 543c ceb3 cdbb a059 c0bc 3d95 37bc
000001f0: 45c1 4bbc 6c1f b1bb cf0a cbbc 2413 713b
-0.003920755 -0.0036640926 -0.028606491 -0.018592317 0.017136 -0.004361501 -0.003472577 -0.00134723
-0.0062936647 -0.0013951376 0.004662838 -0.0073588574 -0.010708699 0.00263432 -0.0081405435 1.1730939e-05
-0.0070883036 -0.007844896 -0.00039831802 -0.004947727 -0.003910513 -0.004093015 0.0049789394 -0.016710816
0.0054138764 0.00020826116 -0.005822283 -0.015344369 0.0027316965 0.0188534 0.0033320554 0.0024946912
-0.003136723 -0.010050455 0.0014891028 0.0027968762 -0.0075752316 0.00973161 -0.004300874 0.0059591047
-0.027684936 0.005231615 0.004420353 0.014799451 0.0067836237 -0.013739992 0.008218464 0.015458907
0.0048115747 -0.0023748144 0.0025088692 -0.018251812 -0.00542617 0.0071000136 -0.028417343 -0.009453374
-0.0032665527 -0.008524351 -0.010550624 -0.009918427 -0.008182512 -0.017517777 -0.001861825 0.02570654
0.012222191 0.006780856 0.004537251 0.0070915623 0.00075139804 0.013583416 -0.005397543 -0.004515049
-0.0110507 -0.008004223 -0.0006311171 0.0089124795 0.0059079956 0.004221883 0.0029750906 -0.0044203764
-0.024171062 -0.019132249 -0.025927968 -0.024582934 -0.0072970823 -0.017991 -0.0020256955 -0.032129563
-0.0409207 -0.025073027 -0.020826653 -0.0026492465 -0.010732345 -0.014760227 -0.024564175 -0.004982931
-0.0024130077 0.010541879 0.009961936 0.0068004434 -0.0069309087 0.024338765 0.007716449 0.00557874
0.019904252 0.01191075 0.0068449313 -0.02315395 0.0020085543 0.004350287 0.0051506474 0.005380598
-0.010800557 -0.010862437 -0.00928953 -0.019684147 -0.021676233 -0.0010822826 -0.002481233 -0.006800099
0.012985144 -0.006277538 -0.023480237 -0.011205015 -0.012436216 -0.005405357 -0.024785427 0.003678509

4.conv2.lin_l.bias f4 [8]
00000000: 9381 293c 9a2c cd3b 4edd 093c 77b2 b6bc
00000010: 453c 2dbc 97b5 b7bc 7121 50bc 72b2 47bc
0.010345834 0.0062614204 0.00841458 -0.022301896 -0.010573451 -0.022425456 -0.012703286 -0.012188541
