oldres/results/agent_SBM_5k_Max_Modularity.pth (torch, 30381 bytes, 50 tensors)

0.conv1.lin_l.weight f4 [16, 4]
0	0xba99c841	-0.0011732654
1	0x3e118b3f	0.14213274
2	0x3e38f3f2	0.18061808
3	0x3e4c40fd	0.19946666
4	0xb962f878	-0.00021645601
5	0x3def267a	0.11677261
6	0x3e3995cd	0.1812355
7	0x3e660a44	0.22464854
8	0x3b1fd612	0.002438907
9	0x3e065d50	0.13121533
10	0x3e470c5b	0.19438307
11	0x3e357801	0.17721559
12	0x3b944463	0.004524754
13	0x3dfe895f	0.12428545
14	0x3e365a33	0.17807846
15	0x3e368bd7	0.17826782
16	0x3b4d8e49	0.0031365326
17	0x3dedf318	0.11618632
18	0x3e400944	0.18753535
19	0x3e4ba01a	0.19885293
20	0x3aa8abb3	0.0012868553
21	0x3e08fb62	0.13377145
22	0x3e331c01	0.17491151
23	0x3e58a8b3	0.21158104
24	0xb990bba6	-0.0002760563
25	0x3e05c11e	0.1306195
26	0x3e3ac7d8	0.18240297
27	0x3e2f8c8a	0.17143455
28	0x3ab83e9b	0.0014056744
29	0x3de4b494	0.11167255
30	0x3e5a76df	0.21334408
31	0x3e5a5105	0.21319969
32	0xbb2b7e5a	-0.002616784
33	0x3e12692d	0.14297934
34	0x3e614b9b	0.22001497
35	0x3e6ea83c	0.23306364
36	0x3a6b705f	0.0008981283
37	0x3e0175db	0.12642615
38	0x3e426e49	0.18987383
39	0x3e43173f	0.19051836
40	0xbaf88476	-0.0018960375
41	0x3e15e26d	0.14637156
42	0x3e4e1f25	0.20129068
43	0x3e2aabdf	0.16667126
44	0xbb8cc10c	-0.004295474
45	0x3de03408	0.10947424
46	0x3e5acb2c	0.21366566
47	0x3e4affa0	0.19824076
48	0x3aa061e8	0.001223621
49	0x3e10f27e	0.14155003
50	0x3e5bd308	0.21467221
51	0x3e49b903	0.19699483
52	0x3a6d9bd8	0.0009064055
53	0x3e1b4883	0.1516438
54	0x3e5108ad	0.20413466
55	0x3e481c77	0.19542108
56	0x3a126aa4	0.00055853487
57	0x3e0ccde3	0.13750415
58	0x3e4ee785	0.20205505
59	0x3e6280d2	0.22119454
60	0xbad9aec4	-0.001660787
61	0x3e0537d6	0.13009581
62	0x3e4d5ddd	0.20055337
63	0x3e4098e8	0.18808329

0.conv1.lin_l.bias f4 [16]
0	0x3e44ff76	0.19238076
1	0x3e409ed3	0.18810587
2	0x3e6fb897	0.23410259
3	0x3e541a43	0.20713143
4	0x3e65c826	0.22439632
5	0x3e51fc81	0.20506479
6	0x3e44596a	0.19174734
7	0x3e755c2e	0.23960945
8	0x3e5b9b49	0.21445955
9	0x3e64d4f3	0.22346859
10	0x3e69a8b4	0.22818261
11	0x3e5dda81	0.21665384
12	0x3e40538f	0.18781875
13	0x3e54eb1a	0.20792809
14	0x3e67b81f	0.2262883
15	0x3e65dec5	0.22448261

0.conv1.lin_r.weight f4 [16, 4]
0	0xbb2be181	-0.002622694
1	0x3e0c1c6a	0.13682714
2	0x3e46b009	0.1940309
3	0x3e5967c4	0.2123099
4	0x38cd6588	9.7940734e-05
5	0x3e03d4c5	0.12874134
6	0x3e4fa5e6	0.20278129
7	0x3e50f3e0	0.20405531
8	0x3a88b1c9	0.0010428961
9	0x3e1eaf1d	0.15496488
10	0x3e3a97a8	0.18221915
11	0x3e57e9cd	0.21085282
12	0x3b606284	0.0034238407
13	0x3e1261ff	0.14295195
14	0x3e38e856	0.18057379
15	0x3e2c80e5	0.16846044
16	0x3abd68a5	0.0014450742
17	0x3e2245d3	0.15846948
18	0x3e4512e1	0.19245483
19	0x3e34f674	0.1767214
20	0x37ba9dd7	2.2246428e-05
21	0x3e0ea643	0.13930611
22	0x3e4b2ac4	0.19840533
23	0x3e374a00	0.17899323
24	0x3b6713a1	0.0035259502
25	0x3e19e858	0.15030038
26	0x3e43d06e	0.19122478
27	0x3e455cd8	0.19273698
28	0x3b380194	0.0028077113
29	0x3e256bad	0.16154356
30	0x3e6fa32c	0.23402089
31	0x3e4abebc	0.19799322
32	0x3abb0845	0.0014269432
33	0x3e0aec68	0.13566744
34	0x3e4e6bd1	0.20158316
35	0x3e530f96	0.20611414
36	0x398585a1	0.00025467298
37	0x3e2f3441	0.17109777
38	0x3e46fd97	0.19432674
39	0x3e2b9413	0.16755705
40	0x3b3bcfcd	0.0028657794
41	0x3e25180d	0.16122456
42	0x3e427128	0.18988478
43	0x3e5e0284	0.21680647
44	0x384924bb	4.7956342e-05
45	0x3e1b8a8d	0.15189572
46	0x3e52850c	0.20558566
47	0x3e4d1831	0.2002876
48	0x3b4113ee	0.0029461342
49	0x3e17f6f3	0.14840297
50	0x3e4d1b2c	0.20029896
51	0x3e3bc7ef	0.18337987
52	0xb98a51c1	-0.00026382323
53	0x3e1f327c	0.15546602
54	0x3e5dc50a	0.21657196
55	0x3e5de9ca	0.21671215
56	0x3b7ee3ae	0.0038893032
57	0x3e1e9c52	0.15489319
58	0x3e56fb20	0.20994234
59	0x3e360d64	0.17778546
60	0x3b1ef575	0.002425519
61	0x3e20f76e	0.15719387
62	0x3e54a537	0.2076615
63	0x3e452569	0.19252552

0.conv2.lin_l.weight f4 [8, 16]
0	0xbb5d224e	-0.003374237
1	0x3c4c0789	0.012452968
2	0x3c08d94a	0.008352587
3	0xbbc6f6f3	-0.006071919
4	0xbbc15a78	-0.0059006773
5	0x3ccb84d1	0.024843605
6	0xbbb3c5b2	-0.0054862136
7	0xbc38c145	-0.011276548
8	0x3bfbfc77	0.0076900083
9	0x3b5df2ee	0.0033866721
10	0xbc2bcd88	-0.010486014
11	0xbc4382c0	-0.011933029
12	0xbb2148ee	-0.002461012
13	0xbb9ff658	-0.0048816614
14	0xbcbdad52	-0.023153935
15	0xbbf324bd	-0.007420151
16	0x3b5d3b4a	0.0033757263
17	0x3c90b9c3	0.017666703
18	0xbb65588e	-0.003499541
19	0x3b9c3b43	0.0047678067
20	0xbb57a4d2	-0.0032904637
21	0x3b3cac33	0.0028789162
22	0x3c13577e	0.008993028
23	0xbb4a836f	-0.0030901094
24	0xbbcf372f	-0.006323717
25	0xbbc5351d	-0.0060182945
26	0xbb4bcd93	-0.0031097874
27	0x3c4f516c	0.01265369
28	0x3aa4804d	0.0012550444
29	0xbafd28ac	-0.0019314489
30	0x39fb2473	0.00047901607
31	0xbcb4e528	-0.022081926
32	0x3b95cef6	0.004571791
33	0x3d0c92cc	0.034319684
34	0x3ce31dc6	0.027724158
35	0x3c976346	0.018479954
36	0x3c34394d	0.01099999
37	0x3d0dac37	0.034588065
38	0x3c2b00c8	0.010437198
39	0x3d01962d	0.03163736
40	0x3cf12c5f	0.029440103
41	0x3cbde083	0.023178345
42	0x3bfc0a44	0.0076916534
43	0x3cc83fc9	0.024444478
44	0x3cdca449	0.026933806
45	0x3bcb22b2	0.0061992044
46	0x3b34876d	0.002754654
47	0x3ba8fa3b	0.005156783
48	0xbc994a61	-0.018712224
49	0xbc8b6c1b	-0.017019322
50	0xbca073c6	-0.019586455
51	0xbbd3308e	-0.006444997
52	0x3b2962bd	0.0025846206
53	0xbc236b4d	-0.009974313
54	0xbc83b398	-0.016076848
55	0xbc082de2	-0.008311721
56	0xbc9fedc6	-0.019522559
57	0x3b0ede33	0.0021799922
58	0xbca26ee1	-0.019828262
59	0xbcfdedff	-0.030997274
60	0xbd04d068	-0.032425314
61	0xbc9def7a	-0.01927923
62	0xbc43b938	-0.011946015
63	0xbc622148	-0.01380188
64	0xbb2d7d00	-0.002647221
65	0xbbd61303	-0.006533028
66	0xbc590ec9	-0.013248154
67	0xbbc5f5cf	-0.0060412656
68	0x3bf9c152	0.0076219225
69	0xbb4f521b	-0.0031634632
70	0xbc42244e	-0.011849476
71	0xbb16a70f	-0.0022987758
72	0x3a7716ec	0.0009425718
73	0x3befd9cd	0.007319665
74	0xbb1df497	-0.0024102086
75	0x3afcbd8e	0.0019282566
76	0xbc135656	-0.008992752
77	0x3c1b4ff0	0.009479508
78	0xbc25e111	-0.010124461
79	0xbb2a12b1	-0.0025951082
80	0xbcb9e696	-0.02269296
81	0xbcb2778d	-0.021785522
82	0xbc21d6f7	-0.009877912
83	0xbb5dd9d2	-0.0033851755
84	0xbbaa2b4a	-0.0051931487
85	0x3b64f545	0.003493623
86	0xbbfb2a3b	-0.0076649464
87	0x3c16c896	0.009203097
88	0xbb625106	-0.0034533157
89	0xbb9da29d	-0.004810645
90	0x3b6a1ba1	0.0035722035
91	0xbca1ff54	-0.01977507
92	0xbb4e9314	-0.003152077
93	0x3bbc2a49	0.0057423455
94	0x3bc89be6	0.0061221
95	0xbb931eaf	-0.0044897418
96	0x3d506f86	0.050887607
97	0x3c9ca443	0.019121295
98	0x3c978586	0.018496286
99	0x3d4fbc13	0.05071647
100	0x3cf0e900	0.029407978
101	0x3d53e613	0.051733088
102	0xba8933c9	-0.0010467704
103	0x3d28d26d	0.041216303
104	0x3d2493ca	0.040180005
105	0x3ca50a9c	0.02014666
106	0x3cc1f76a	0.023677547
107	0x3cae8886	0.021305334
108	0x3d5d14db	0.053974967
109	0x3cf13854	0.029445805
110	0x3d20498d	0.039132643
111	0x3d0cef0a	0.034407653
112	0x3c87ab6a	0.016561229
113	0x3d332d3b	0.043744307
114	0x3cefaa04	0.029255874
115	0x3d003416	0.031299673
116	0x3d399144	0.04530455
117	0x3cc16213	0.023606336
118	0x3d3dfeb4	0.046385482
119	0x3d310a64	0.0432228
120	0x3c98e177	0.018662198
121	0x3cb2b17b	0.021813145
122	0x3c649c84	0.013953332
123	0x3ca6fe6d	0.020384992
124	0x3c93890f	0.01800969
125	0x3c63ea1c	0.0139107965
126	0x3d195953	0.0374387
127	0x3c9c72f3	0.01909778

0.conv2.lin_l.bias f4 [8]
0	0xbc88e1d2	-0.016709242
1	0x3b657924	0.0035014832
2	0x3d2816a4	0.041037217
3	0xbabba573	-0.0014316275
4	0x3c1e5768	0.009664394
5	0xbc6560dc	-0.014000144
6	0x3d1920b6	0.03738471
7	0x3d3daa13	0.046304774

0.conv2.lin_r.weight f4 [8, 16]
0	0xbc7e10d4	-0.015506942
1	0x3ca8e2f8	0.02061604
2	0xbc737bdd	-0.014861074
3	0xbb7de292	-0.0038739783
4	0x3c46c753	0.012132484
5	0x3c7e6531	0.015527056
6	0x3c26aed4	0.010173518
7	0xbcace337	-0.021104438
8	0x3a7c452e	0.00096233457
9	0xbb9743c6	-0.0046162335
10	0xbb6636e6	-0.0035127937
11	0xbcf1c1b1	-0.029511305
12	0x3c317eaf	0.010833426
13	0xbcf60a26	-0.030034136
14	0xbcf8cad6	-0.030370157
15	0xbc99efb8	-0.018791065
16	0x3b220b49	0.0024725965
17	0x3cbd07ac	0.023074947
18	0xbc4e438f	-0.012589349
19	0x3bf10c32	0.00735619
20	0xba040a71	-0.0005036956
21	0xbc3e634e	-0.011620356
22	0x3c8740a4	0.016510315
23	0x3c141856	0.009039005
24	0x3b049210	0.0020228662
25	0xbc2bfeed	-0.010497791
26	0x3b61dcd7	0.0034463906
27	0x3c028d59	0.00796827
28	0xbbd56c4c	-0.006513154
29	0xbbfa0eb6	-0.007631148
30	0x39a90ab8	0.00032242178
31	0xbc288bfd	-0.010287282
32	0x3c1a5181	0.009418846
33	0x3cdc7b7a	0.026914347
34	0x3c2da231	0.0105977515
35	0x3ccc105a	0.02491014
36	0x3d2b3968	0.041802794
37	0x3c8e8e0a	0.017401714
38	0x3c993a73	0.018704629
39	0x3ce77c4a	0.028257508
40	0x3c3ee088	0.011650212
41	0x3d0208e3	0.031746756
42	0x3d017995	0.03161009
43	0x3ca52d68	0.020163253
44	0x3cde4f43	0.027137404
45	0x3c615d4f	0.013755157
46	0xbbebb4da	-0.00719319
47	0x3cb80093	0.022461211
48	0xbc6c432c	-0.014420312
49	0xbc857326	-0.016290259
50	0xbcacce1d	-0.021094376
51	0xbc8b8c11	-0.017034562
52	0x3c110cf3	0.008853185
53	0xbc91cfc5	-0.017799268
54	0xbc884d63	-0.016638463
55	0xbc1cd71d	-0.009572771
56	0xbc98ba44	-0.018643506
57	0x3c15614e	0.0091174375
58	0xbca023c6	-0.019548308
59	0xbc1db466	-0.00962553
60	0xbc920b0f	-0.017827539
61	0xbc9d89f8	-0.019230828
62	0xbcd3ceb1	-0.025855394
63	0xbcc2c488	-0.023775354
64	0x3b8616f8	0.0040920936
65	0xbc980eef	-0.018561808
66	0xbc76ce25	-0.015063797
67	0x3c4c738d	0.012478721
68	0xbab046ec	-0.0013448871
69	0xbbe97112	-0.0071240747
70	0xbbb59a65	-0.005542087
71	0xbc3e65bb	-0.011620934
72	0x3bbb77fd	0.005721091
73	0xbc326fc9	-0.0108909095
74	0x3c9f36bc	0.01943528
75	0x3b9ff27d	0.004881202
76	0xbc1739e9	-0.009230115
77	0xbb64843b	-0.0034868855
78	0x3c6f72dc	0.014614787
79	0x3be03403	0.006842138
80	0xbc95bd51	-0.01827875
81	0xbc9af947	-0.018917693
82	0x3b5f9f92	0.003412221
83	0x3c10b993	0.008833307
84	0xbbe70fd8	-0.0070514493
85	0xbc0837ed	-0.008314115
86	0xbcac7b71	-0.021054955
87	0xbbac3f5d	-0.005256577
88	0x3af9ffee	0.0019073465
89	0xba89226c	-0.0010462529
90	0xbc0dacc5	-0.0086471485
91	0xbc689ff6	-0.014198294
92	0xbca0d163	-0.019631093
93	0xbc96e5cb	-0.01842012
94	0xbc32cd61	-0.010913224
95	0x38b6831f	8.7028595e-05
96	0x3d81c826	0.063370034
97	0x3ca44e33	0.02005682
98	0x3cbf340d	0.02334025
99	0x3d4601f8	0.04834172
100	0x3d16fd08	0.036862403
101	0x3d13989a	0.036034204
102	0x3c9a7ea3	0.018859213
103	0x3d20aca1	0.03922713
104	0x3d3962d1	0.045260254
105	0x3d0b17cf	0.033958253
106	0x3d23e7c4	0.04001595
107	0x3d52a452	0.05142624
108	0x3d4eeea4	0.050520554
109	0x3d2b17e3	0.041770827
110	0x3d15ade0	0.036542773
111	0x3d26a121	0.04068101
112	0x3c8d0a0a	0.017216701
113	0x3d17a025	0.03701796
114	0x3d02de99	0.031950567
115	0x3d2a3c5d	0.041561473
116	0x3ce97298	0.028497025
117	0x3d05a480	0.032627583
118	0x3cf71d18	0.03016524
119	0x3d2421fa	0.040071465
120	0x3c9f7268	0.019463733
121	0x3d261a1f	0.040552255
122	0x3c8b6284	0.01701475
123	0x3d1a24a7	0.03763261
124	0x3ca53afa	0.020169724
125	0x3d07b27e	0.033129208
126	0x3d14433e	0.03619694
127	0x3d09dc89	0.033657584

1.conv1.lin_l.weight f4 [16, 4]
0	0x3de45936	0.11149828
1	0x3d15c2fd	0.03656291
2	0x3d3e9b6d	0.046534944
3	0x3de6a7af	0.11262452
4	0x3dd059f3	0.101734065
5	0xbb2dec6f	-0.002653863
6	0x3d345677	0.04402777
7	0x3df22606	0.11823659
8	0x3da46a3b	0.08028074
9	0x3cca4a0c	0.024693511
10	0x3d835d81	0.06414319
11	0x3ddffe8c	0.10937223
12	0x3d9ed098	0.0775463
13	0x3d0a27a0	0.033729196
14	0x3be5f6f6	0.0070179654
15	0x3dd83189	0.10556323
16	0x3db9145d	0.09037087
17	0x3cc1139f	0.023568926
18	0x3d82c4d0	0.06385195
19	0x3e062aaa	0.13102213
20	0x3e057e1a	0.13036385
21	0x3d1a8483	0.03772403
22	0x3d7c16a6	0.061545037
23	0x3db81f14	0.08990303
24	0x3e064196	0.13110957
25	0x3cb609e8	0.02222152
26	0x3d4e5baf	0.050380405
27	0x3d959797	0.07304304
28	0x3de1076d	0.109877445
29	0x3d79a085	0.0609441
30	0x3cbca0c5	0.02302588
31	0x3dae5a5b	0.08513328
32	0x3deded17	0.11617487
33	0x3c2a028f	0.010376587
34	0x3d1cbdda	0.038266994
35	0x3dc04124	0.093874246
36	0x3dcad549	0.09903962
37	0x3c2ae966	0.010431623
38	0x3d37e0ae	0.044892006
39	0x3dd5a336	0.10431521
40	0x3db82113	0.089906834
41	0x3c97199a	0.018444825
42	0x3d65917c	0.056046948
43	0x3df7e6f8	0.12104601
44	0x3d9fe31a	0.07806988
45	0x3d82cde2	0.06386925
46	0x3c34ed26	0.011042869
47	0x3dd62fa1	0.10458303
48	0x3df70208	0.12060934
49	0x3d03fe2f	0.03222483
50	0x3d63011c	0.05542098
51	0x3de4fbfc	0.11180875
52	0x3da3de9c	0.08001444
53	0x3d29b438	0.041431636
54	0x3d564af6	0.052317582
55	0x3dd22a23	0.10261943
56	0x3de2f35f	0.110815756
57	0x3d263d8c	0.04058604
58	0x3cba846e	0.022768226
59	0x3de5c62a	0.112194374
60	0x3e0f028f	0.1396582
61	0x37a94800	2.0179898e-05
62	0x3cd1b0e1	0.025597038
63	0x3dc8ea3f	0.09810304

1.conv1.lin_l.bias f4 [16]
0	0x3cebcd2a	0.028784353
1	0x3d8a3c0c	0.06749734
2	0x3d425413	0.04744346
3	0x3cefe4b8	0.029283866
4	0x3d9f0f9c	0.07766649
5	0x3d4b5e58	0.04965052
6	0x3cec2dd6	0.02883045
7	0x3d66efa1	0.05638087
8	0x3d0c3eea	0.034239687
9	0x3d5709ef	0.052499708
10	0x3cb50d04	0.022100933
11	0x3d1c9679	0.03822944
12	0x3d9b6124	0.075868875
13	0x3ceab797	0.028651996
14	0x3d687c57	0.056759205
15	0x3d5ede44	0.054411188

1.conv1.lin_r.weight f4 [16, 4]
0	0x3e13beb8	0.14428222
1	0x3d14376e	0.036185674
2	0x3d2364e1	0.039891127
3	0x3e109007	0.14117442
4	0x3e2933fa	0.16523734
5	0x3cf773a3	0.030206507
6	0x3d0cb421	0.03435147
7	0x3de9259b	0.11384126
8	0x3e19b3bf	0.15009974
9	0x3d449aa8	0.047999054
10	0x3d4409a0	0.04786074
11	0x3dfa90c5	0.12234644
12	0x3e0e9d54	0.13927203
13	0x3cb8c6da	0.022555757
14	0x3d825344	0.06363538
15	0x3df22314	0.11823097
16	0x3e139f91	0.14416339
17	0x3cfcf5f1	0.030878993
18	0x3d8e6b53	0.06954064
19	0x3dcd6e0a	0.10030754
20	0x3e041c1f	0.12901352
21	0x3cc27fb2	0.02374253
22	0x3d76baa1	0.060236577
23	0x3dcea683	0.10090353
24	0x3e01cc87	0.12675677
25	0x3ced71b2	0.028984878
26	0x3d7b2363	0.061313044
27	0x3dbccaad	0.09218345
28	0x3e094dd4	0.13408595
29	0x3dadd5d4	0.0848805
30	0x3d2912c9	0.04127768
31	0x3e03bb52	0.12864426
32	0x3de62ca0	0.1123898
33	0x3bb39d3c	0.0054813903
34	0x3d928361	0.07153965
35	0x3e006ab6	0.12540707
36	0x3e1be77a	0.1522502
37	0x3cdb14a5	0.026743243
38	0x3d0995c6	0.0335901
39	0x3df6a811	0.12043775
40	0x3dddc217	0.10828035
41	0x3d2ceb44	0.042216554
42	0x3d3bbd6e	0.04583495
43	0x3e201018	0.1563114
44	0x3dfa0a91	0.12209047
45	0x3cee78dc	0.029110365
46	0x3d10ef76	0.035384618
47	0x3debe7cd	0.11518822
48	0x3e086589	0.13319983
49	0x3d512ba0	0.051066995
50	0x3d84ee93	0.06490817
51	0x3dd10252	0.10205521
52	0x3def0bb2	0.116721526
53	0x3d4ffb73	0.05077691
54	0x3ce67698	0.028132722
55	0x3ded3f8f	0.115843885
56	0x3e27c453	0.16383485
57	0x3d5edfad	0.054412533
58	0x3d5f946d	0.05458491
59	0x3daa1463	0.0830467
60	0x3e0f1c21	0.13975574
61	0x3d0f6bc9	0.0350149
62	0x3d794c1f	0.06086361
63	0x3e1e354e	0.15450022

1.conv2.lin_l.weight f4 [8, 16]
0	0x3bde5694	0.0067852233
1	0x3c15d6ed	0.009145481
2	0x3bb11e94	0.0054052565
3	0x3c49ce2f	0.012317224
4	0x3bdb8958	0.0066997223
5	0x3bbe57c0	0.0058088005
6	0x3c6e5644	0.0145469345
7	0x3c6bdbe6	0.01439569
8	0x3c6b7440	0.014370978
9	0x3bfc72ca	0.0077041136
10	0x3c37f098	0.011226796
11	0x3ccdc72c	0.025119387
12	0x3c85fa7b	0.01635479
13	0x3b439edf	0.0029849333
14	0x3c364c85	0.011126642
15	0x3c910274	0.017701365
16	0xbc3df4fd	-0.011594054
17	0x3b98c7f3	0.0046625077
18	0x3c0697ed	0.008214933
19	0x3aaa5cb4	0.0012997598
20	0xba643e8d	-0.00087068306
21	0xbc1bad25	-0.00950173
22	0xbbf84321	-0.0075763618
23	0x3b25fe1f	0.002532847
24	0xbbad110e	-0.005281574
25	0x3bba5df1	0.005687468
26	0x3c020b6e	0.007937295
27	0xbc56d8da	-0.013113225
28	0x3c7bc3e6	0.01536653
29	0xbc53de38	-0.012931399
30	0xbc1496e4	-0.009069178
31	0xbbd4d852	-0.006495514
32	0xbc5d0c8d	-0.013491762
33	0x3a93a780	0.0011265129
34	0xbbcc257b	-0.006230054
35	0xbc3682d7	-0.011139593
36	0x3c994d47	0.018713607
37	0xbb717e32	-0.00368489
38	0x3ca36dd6	0.019949835
39	0x3c734261	0.014847369
40	0xbadf9b8f	-0.001705991
41	0x3c31f713	0.01086213
42	0xbbf7fff6	-0.0075683547
43	0xbbd7a652	-0.006581106
44	0xbc909018	-0.017646834
45	0xbc11d5cc	-0.008901071
46	0xba983e05	-0.0011615163
47	0x3c826584	0.015917547
48	0x3b80cbef	0.003930561
49	0xbb21a8dc	-0.0024667298
50	0xbc8a641f	-0.016893445
51	0x3ca3dc43	0.02000249
52	0xbbd1c4af	-0.0064016203
53	0xbafebadf	-0.0019434354
54	0xbc272caa	-0.01020352
55	0xba3069b3	-0.00067296176
56	0x3cb890d4	0.022529997
57	0xbbd8c116	-0.0066148145
58	0x3b74ab83	0.0037333674
59	0x3baa6524	0.005200045
60	0xbc056d04	-0.008143667
61	0x3c0494ca	0.008092115
62	0x3c677e31	0.0141292075
63	0xbbf03713	-0.007330784
64	0xbc91d798	-0.017802998
65	0x3c7399aa	0.014868179
66	0x3c310a2c	0.010805648
67	0x3c692317	0.0142295575
68	0xbb9a50f1	-0.004709356
69	0x3b741073	0.003724125
70	0x3c89d2fa	0.016824234
71	0xbaea00a9	-0.001785298
72	0x3bce6933	0.006299162
73	0x3c8213ba	0.015878547
74	0x3b9adfb3	0.004726374
75	0x3bd0fb91	0.0063776453
76	0x3bee396e	0.0072700297
77	0xbc847920	-0.016171038
78	0xbc0c8349	-0.008576223
79	0xbce4ca8f	-0.027928619
80	0xbc3e70fd	-0.011623618
81	0x3c101db4	0.008796144
82	0xbbedb4f3	-0.007254237
83	0x3c1bcbed	0.009509069
84	0x3a0d6fec	0.0005395401
85	0xbbadb7a9	-0.005301435
86	0xbc79942c	-0.015233081
87	0x3be78d53	0.0070664077
88	0x3c930463	0.017946428
89	0x3a9b6452	0.0011855459
90	0x3c7f2a9f	0.0155741265
91	0xbc25d248	-0.010120936
92	0x3ae6c88a	0.0017607373
93	0x3bb44f06	0.0055025844
94	0x3cbd4bb7	0.023107393
95	0x3bc4ec2e	0.0060096
96	0x3b01b43e	0.001979127
97	0xbb83cb58	-0.004022043
98	0xbb63d2c5	-0.003476308
99	0x3c8c25d7	0.017107887
100	0x3cb45734	0.022014238
101	0x3bd499d4	0.0064880643
102	0x3c4830a4	0.012218628
103	0x3c870450	0.016481549
104	0x3caf2b1d	0.021382863
105	0x3c2e0c9a	0.010623122
106	0x3cd1f914	0.025631465
107	0xbc4f6997	-0.012659452
108	0x3c824b69	0.015905099
109	0x3b91ebdd	0.004453166
110	0xbbcc2c9c	-0.006230904
111	0xbb2a7094	-0.0026007043
112	0xba8a1434	-0.0010534585
113	0x3c1d54b7	0.009602717
114	0xbc10453d	-0.00880557
115	0xbb82b176	-0.00398844
116	0x3c39d953	0.011343318
117	0x3b1ea664	0.0024208063
118	0x3cabe8d2	0.02098504
119	0xbc9d815c	-0.019226722
120	0xbacd8576	-0.0015680033
121	0xbc5ed111	-0.01359965
122	0xbbe37994	-0.0069419835
123	0x3903a63d	0.00012555062
124	0xbc43fa45	-0.011961524
125	0xbbdeffe9	-0.006805409
126	0x3a2b79d7	0.0006541288
127	0xbc5b6056	-0.0133896675

1.conv2.lin_l.bias f4 [8]
0	0x3cfa0d5c	0.030523948
1	0xbc26fe92	-0.01019253
2	0xbbc3ea03	-0.005978824
3	0xbc8ae6fb	-0.016955843
4	0xbbdcf292	-0.006742784
5	0x3c32659f	0.010888486
6	0x3c93c39d	0.018037612
7	0xbbcc0c1f	-0.006227031

1.conv2.lin_r.weight f4 [8, 16]
0	0xbb5f3f17	-0.0034064704
1	0x3bcf3277	0.0063231546
2	0x3bde7677	0.0067890245
3	0x3bb7034f	0.005585111
4	0x3cfc30c8	0.03078498
5	0x3c858e3d	0.016303176
6	0x3cb8eb63	0.022573179
7	0x3c01cbe3	0.007922146
8	0x3c20caed	0.009814006
9	0x3c20d4d7	0.00981637
10	0xb9ac22c0	-0.00032832287
11	0x3cfcdead	0.030867899
12	0x3c992a9d	0.018697077
13	0x3c260cea	0.010134915
14	0x3c053978	0.008131377
15	0x3ca52754	0.020160355
16	0x3698099a	4.5310708e-06
17	0x3c6e0c71	0.014529333
18	0x3b4cd585	0.0031255197
19	0xbb7e4551	-0.003879864
20	0xbb83da92	-0.0040238583
21	0xbadcc11d	-0.001684222
22	0x3a81569a	0.0009867728
23	0x3bd5cf0e	0.006524927
24	0xbb22217a	-0.0024739192
25	0xbb5130bb	-0.0031919915
26	0x3c90c9e1	0.017674388
27	0xbbf4d8ca	-0.0074721323
28	0x3bc114cd	0.005892372
29	0xbbd67b43	-0.0065454557
30	0xbcbd3b4a	-0.02309956
31	0x3c96e64c	0.018420361
32	0xb937b061	-0.00017517946
33	0xbbe4c91a	-0.006981981
34	0xbb493f7f	-0.0030708013
35	0xbc26f9cf	-0.010191395
36	0x3938107b	0.00017553747
37	0xbc860bbd	-0.01636302
38	0x3bb9a8bc	0.0056658667
39	0x3c3a73bb	0.011380131
40	0x3b9af5ec	0.004729023
41	0x3a83cef3	0.0010056183
42	0xbbe6aa57	-0.007039349
43	0xbbf0bd78	-0.007346805
44	0xbc790960	-0.015199989
45	0x3beca0e5	0.0072213286
46	0xbc212109	-0.009834536
47	0x3c40e844	0.011774126
48	0x3af51371	0.0018697811
49	0x3b49890c	0.0030751852
50	0xbc9a49a5	-0.018833945
51	0xbc12ba9a	-0.008955622
52	0xbc0fcdaa	-0.0087770615
53	0x3bc8a7e6	0.0061235307
54	0xbc383078	-0.011242025
55	0x3c5cb780	0.013471484
56	0x3b2ecc5a	0.0026672096
57	0x3b7a74a8	0.0038216505
58	0x3a96a5af	0.0011493469
59	0x3c506ed1	0.012721733
60	0xbcd6f440	-0.026239514
61	0x39e51b92	0.00043698825
62	0x3c3d493c	0.011553105
63	0xbc91aafb	-0.017781725
64	0x3bb372dd	0.0054763393
65	0x3c86897f	0.016422985
66	0xbc44319c	-0.011974718
67	0xbc888828	-0.016666487
68	0xbc91078c	-0.017703794
69	0x3cc1f6ad	0.023677194
70	0x3cb06db3	0.021536684
71	0xbc31d357	-0.01085361
72	0xbbb2714a	-0.005445634
73	0xba3d6638	-0.00072250096
74	0x3bf93361	0.007605002
75	0x3c997cc8	0.018736258
76	0x3c373f9a	0.011184597
77	0x3c0a12d7	0.008427343
78	0xbc8161f9	-0.015793787
79	0xbb4e90fb	-0.003151952
80	0x3cc0bfc4	0.023528941
81	0x3c5be90c	0.013422262
82	0xbbd641ee	-0.006538621
83	0xbc0915b5	-0.008366992
84	0x3c0f4838	0.008745246
85	0x3b0235e8	0.0019868556
86	0xbca4dab7	-0.020123823
87	0x3b7a8eef	0.0038232168
88	0x3b2887b4	0.002571565
89	0x3c24c256	0.010056099
90	0x3c8cc9a9	0.017186003
91	0x3b8c521e	0.00428225
92	0xba25c812	-0.0006324063
93	0x3c8de431	0.017320724
94	0x3cc57b5b	0.024106672
95	0x3b8e4c3f	0.0043425853
96	0xbbf23052	-0.007391014
97	0x3c782e56	0.015147766
98	0x3c841674	0.016123988
99	0x3b4452ed	0.0029956654
100	0x3bc09a76	0.005877788
101	0x3bd7a648	0.0065811016
102	0xbc4a0897	-0.01233115
103	0xbb165ef8	-0.002294479
104	0xbb236852	-0.0024934006
105	0x3c634589	0.013871559
106	0x3c34f417	0.011044524
107	0xbad273ac	-0.0016056201
108	0xbb7e3eb3	-0.0038794696
109	0xbb360fee	-0.002778049
110	0xbb7a69f2	-0.003821012
111	0xbbf2f9b3	-0.0074150204
112	0xbbc3344d	-0.0059571625
113	0xbbd09a6d	-0.0063660652
114	0xbcdadfb4	-0.026717998
115	0x3bed5472	0.0072427327
116	0xbb5304e1	-0.0032198953
117	0xbc087def	-0.008330806
118	0x3c14a792	0.009073155
119	0x3c395f43	0.011314216
120	0xbca697d2	-0.020336065
121	0xbc6099a4	-0.013708506
122	0xbb053333	-0.0020324707
123	0x3c26febd	0.01019257
124	0x3b6ee844	0.003645436
125	0x3b86e988	0.0041171946
126	0xb8172ccd	-3.604293e-05
127	0xbc3213c8	-0.010868974

2.conv1.lin_l.weight f4 [16, 4]
0	0x3d83a794	0.06428447
1	0x3d486964	0.048928633
2	0x3dae2a4e	0.08504163
3	0x3e191648	0.14949906
4	0x3d2f089d	0.042732824
5	0x3d7393bf	0.059467074
6	0x3dc5b9f6	0.0965461
7	0x3de62003	0.112365745
8	0x3c96cf1c	0.018409304
9	0x3d1f71e2	0.038926966
10	0x3dca0d4f	0.0986582
11	0x3dd7679c	0.10517809
12	0x3d25d885	0.040489692
13	0x3d3c3700	0.04595089
14	0x3dd82ea5	0.10555772
15	0x3df70345	0.120611705
16	0x3d2a40ec	0.04156582
17	0x3d468220	0.04846394
18	0x3d48fbec	0.049068376
19	0x3e02eb41	0.12785055
20	0x3d41f808	0.04735568
21	0x3d0c9af8	0.034327477
22	0x3df03b08	0.11730009
23	0x3e0910ed	0.13385363
24	0x3caf71ff	0.021416662
25	0x3d303143	0.04301573
26	0x3d35a5bb	0.044347506
27	0x3dd6fdb7	0.10497611
28	0x3d52e440	0.051487207
29	0x3d8a0c1e	0.067405924
30	0x3dad8244	0.08472112
31	0x3de500c4	0.11181787
32	0x3d483a8d	0.048883963
33	0x3d99aefb	0.07504078
34	0x3d95b0ac	0.07309088
35	0x3e015aea	0.12632337
36	0x3d0d37e6	0.034477137
37	0x3d76e217	0.06027421
38	0x3de8a57c	0.11359689
39	0x3e03b93a	0.12863627
40	0x3d274801	0.040840153
41	0x3b1bda8e	0.0023781392
42	0x3d181a1d	0.03713428
43	0x3deff683	0.1171694
44	0x3cf58005	0.029968271
45	0x3d185ac6	0.037195943
46	0x3da6cd89	0.081446715
47	0x3dd9d2f8	0.10635942
48	0x3cdf12ce	0.027230646
49	0x3d651b29	0.055934105
50	0x3d6bca14	0.057565764
51	0x3dc6c9dc	0.0970647
52	0x3cc9e793	0.024646556
53	0x3d3616da	0.044455387
54	0x3db8ba05	0.090198554
55	0x3dc7b0c6	0.09750514
56	0x3d2007a0	0.03906977
57	0x3d778fc0	0.060439825
58	0x3db85548	0.09000641
59	0x3de0721c	0.10959265
60	0x3cf46e2e	0.029837694
61	0x3d5b68fd	0.05356692
62	0x3da1d905	0.07902721
63	0x3ddbd408	0.10733801

2.conv1.lin_l.bias f4 [16]
0	0x3dccbeba	0.09997316
1	0x3ddcb361	0.10776401
2	0x3dcbdd85	0.09954361
3	0x3e0cd612	0.13753536
4	0x3dba1b49	0.090872355
5	0x3dbdee8c	0.09274015
6	0x3dff2a3b	0.12459227
7	0x3dc502ef	0.096197
8	0x3e00c374	0.1257456
9	0x3e0f97a1	0.14022686
10	0x3dc4f6b3	0.09617367
11	0x3deaa5c3	0.11457398
12	0x3dba3316	0.09091775
13	0x3ddc661b	0.107616626
14	0x3e03f824	0.12887627
15	0x3df177b4	0.1179041

2.conv1.lin_r.weight f4 [16, 4]
0	0x3d788ddf	0.060682174
1	0x3de29193	0.11062922
2	0x3dcc2ad3	0.099691056
3	0x3ded6963	0.115923665
4	0x3d7658ef	0.060143407
5	0x3dc84dbf	0.09780454
6	0x3dc96f7b	0.09835716
7	0x3de9026a	0.113774136
8	0x3d3e1fbb	0.04641698
9	0x3dc5d768	0.09660226
10	0x3dce5ab2	0.100758925
11	0x3e0bd03c	0.13653654
12	0x3d631f1a	0.055449583
13	0x3d9e3268	0.07724458
14	0x3dc741c4	0.09729341
15	0x3dfb999d	0.12285159
16	0x3d52f45b	0.051502567
17	0x3d8ca2cc	0.068669885
18	0x3df70a9c	0.120625705
19	0x3df34445	0.11878256
20	0x3d16b978	0.03679797
21	0x3d655aec	0.055994913
22	0x3ded235c	0.1157901
23	0x3de73e9c	0.11291239
24	0x3cfbdb77	0.030744297
25	0x3d8c4826	0.06849699
26	0x3dbe390f	0.09288227
27	0x3df69b08	0.120412886
28	0x3d8b6efc	0.06808278
29	0x3da1f377	0.07907765
30	0x3de4981a	0.111618236
31	0x3e02b388	0.12763798
32	0x3d5a255d	0.05325829
33	0x3da8cd12	0.08242239
34	0x3dcb35af	0.09922349
35	0x3df7b3b6	0.12094824
36	0x3d31d30e	0.043414168
37	0x3d7055ef	0.058675703
38	0x3db53ffd	0.088500954
39	0x3df7a361	0.12091709
40	0x3d27878a	0.040900744
41	0x3da8624e	0.08221875
42	0x3d8fbbe1	0.07018257
43	0x3dcd2b5c	0.10018036
44	0x3d67e017	0.056610193
45	0x3db5e49b	0.08881494
46	0x3dd01cf3	0.101617716
47	0x3e049d64	0.12950665
48	0x3d138a00	0.03602028
49	0x3da972a4	0.08273819
50	0x3de25eba	0.11053224
51	0x3e09e2d8	0.1346544
52	0x3d61c191	0.05511624
53	0x3d95b5a1	0.073100336
54	0x3df71bd7	0.12065857
55	0x3dd9a4b6	0.10627119
56	0x3d4aad3f	0.049481627
57	0x3d8cae8a	0.06869228
58	0x3df53ed4	0.11974874
59	0x3e19e8a1	0.15030147
60	0x3d73914d	0.05946474
61	0x3d86d1bf	0.06582975
62	0x3dcaced1	0.09902728
63	0x3de18ec3	0.11013558

2.conv2.lin_l.weight f4 [8, 16]
0	0x3b78c224	0.0037957514
1	0x3a1dbe5f	0.0006017442
2	0x3c3a530f	0.011372342
3	0x3cba45f1	0.022738429
4	0x3c1ddf54	0.009635765
5	0x3c5ace92	0.013354914
6	0xbb72a7b4	-0.0037026228
7	0x3c858cfb	0.016302576
8	0x3be1ef38	0.006894972
9	0xbc2c9c21	-0.010535271
10	0x3b94ef4c	0.004545128
11	0x3c8cea5a	0.017201591
12	0x3c92227b	0.017838707
13	0x3bfff514	0.007811198
14	0x3caa4608	0.020785347
15	0x3c7fba3d	0.0156083675
16	0xbd09cf8a	-0.03364519
17	0xbce03e9c	-0.027373604
18	0xbcbc0c9a	-0.022955228
19	0xbbc8db8a	-0.0061296867
20	0xbcd9e00d	-0.026596094
21	0x3c43407d	0.011917231
22	0xbc7c889c	-0.01541343
23	0xbcd1bf18	-0.025603816
24	0xbbab0d88	-0.005220119
25	0xbb8c3953	-0.0042792945
26	0xba038597	-0.000501716
27	0xbc973104	-0.01845599
28	0xbc9f62d5	-0.019456306
29	0xbc1a628e	-0.009422911
30	0xbc7eec72	-0.015559303
31	0xbcdc5d8a	-0.026900072
32	0xbcf04a29	-0.029332237
33	0x397d01fd	0.00024128701
34	0xbc71a12a	-0.014747897
35	0xbb9f1f6d	-0.004856041
36	0x3b930139	0.0044862297
37	0xbcb3ac1f	-0.02193266
38	0x3cbffd45	0.023436198
39	0x3c3c1c00	0.011481285
40	0xbbdde314	-0.0067714546
41	0x3cc2a951	0.023762377
42	0xbbdcc3f6	-0.0067372276
43	0xbb98a371	-0.0046581556
44	0xbc3e842a	-0.01162819
45	0x3c58951c	0.013219144
46	0x3ba73264	0.0051024426
47	0x3c69a57d	0.014260647
48	0x3bf28bf3	0.007401937
49	0x3c3a177a	0.011358136
50	0xbc21906a	-0.009861091
51	0xbab3f68e	-0.0013730095
52	0xbc176053	-0.009239274
53	0xbb236b17	-0.0024935657
54	0xbbb4d43a	-0.0055184634
55	0x3b47a0ed	0.003046091
56	0xbc9f5a03	-0.0194521
57	0xbc895331	-0.016763302
58	0x3c814ecc	0.015784644
59	0xbc26cae6	-0.010180211
60	0xbadaa976	-0.0016682583
61	0xbcb52f51	-0.022117289
62	0xb9f92548	-0.00047520758
63	0xbbde696a	-0.0067874687
64	0xbc5fa141	-0.013649286
65	0xbcf3233c	-0.029679887
66	0xbc01cec8	-0.007922836
67	0xbcff9834	-0.031200506
68	0xba923c64	-0.0011156914
69	0xbbdae065	-0.006679582
70	0xbcb6c851	-0.022312315
71	0xbc8c8e76	-0.017157774
72	0xbcceb8a1	-0.025234522
73	0xbcc78b86	-0.024358522
74	0xbc60fec6	-0.013732618
75	0xbc0b69fc	-0.008509155
76	0x3c4533e4	0.0120362975
77	0x3c0fd8dd	0.008779732
78	0xbc9b6ec0	-0.018973708
79	0xbbb863d6	-0.0056271357
80	0xbc812f26	-0.015769552
81	0x3ac3149c	0.0014883461
82	0xbc545cf1	-0.012961612
83	0x381c1666	3.721416e-05
84	0x3b61c580	0.0034449995
85	0x3b30a99d	0.0026956566
86	0x3c760049	0.015014716
87	0x3c0f2024	0.00873569
88	0x3cc29289	0.023751514
89	0xbba1afed	-0.004934302
90	0xbb736dc8	-0.0037144292
91	0xbaf7a8dc	-0.0018894929
92	0xbbcdaf9a	-0.006277037
93	0x3b16b38c	0.0022995202
94	0x3c75228c	0.01496185
95	0xbbbbe18f	-0.005733676
96	0xbc6a0734	-0.014283944
97	0x3c9143a9	0.017732458
98	0xbc56f21b	-0.013119246
99	0xbc712aee	-0.014719708
100	0xba833014	-0.0010008835
101	0x3c25b0a3	0.010112914
102	0x3c9c6bb3	0.019094324
103	0xbac028da	-0.0014660612
104	0x3bfa1be5	0.00763272
105	0x3b16d5fa	0.0023015724
106	0xbc12c1e4	-0.00895736
107	0xbc007a38	-0.007841639
108	0xbbc40743	-0.005982311
109	0xbc6eed4c	-0.014582943
110	0xbb8da571	-0.0043227007
111	0x3b7fdf8a	0.0039043152
112	0xbc8e65e4	-0.01738257
113	0x3c6be01c	0.014396694
114	0xbc7f300e	-0.015575422
115	0xbc081b0f	-0.0083072325
116	0x3ac33b4a	0.0014894989
117	0x3b7f1ec3	0.0038928248
118	0x3c1624cd	0.009164047
119	0xbb4d4669	-0.0031322485
120	0x3b6cf085	0.0036154103
121	0xba843f93	-0.0010089747
122	0xbc1c435c	-0.009537544
123	0x3b03b8ef	0.0020099243
124	0x3cc7544a	0.024332184
125	0xbc79aa7f	-0.015238403
126	0xbcbb3aa0	-0.022855103
127	0x39f0ce9c	0.00045930303

2.conv2.lin_l.bias f4 [8]
0	0x3bd7ed7f	0.006589591
1	0xbcd7c641	-0.026339652
2	0x3c5dc6d2	0.013536172
3	0xbc998c8a	-0.018743772
4	0xbc9aea7c	-0.018910639
5	0xbafd0d8a	-0.0019306403
6	0x3b56d4ba	0.0032780604
7	0x3b8a258f	0.004215903

2.conv2.lin_r.weight f4 [8, 16]
0	0x3c6b17fb	0.014348979
1	0x3c9ef4df	0.019403873
2	0x3c872c57	0.016500635
3	0x3c23aab4	0.009989429
4	0x3ca29650	0.019847065
5	0x3b8acdf1	0.004235976
6	0x3b94ff65	0.004547047
7	0x3bc9ae32	0.006154799
8	0xba9e8e88	-0.0012096921
9	0xbc94ec68	-0.018179134
10	0x3c1b088a	0.009462485
11	0x3be662fb	0.0070308424
12	0x3c0b128a	0.008488307
13	0xbadea58c	-0.0016986593
14	0x3c4bc41b	0.012436892
15	0x3c5901b6	0.013245037
16	0xbc967d66	-0.018370342
17	0xbcb2ba60	-0.021817386
18	0xbc4654f1	-0.012105213
19	0xbbd7f189	-0.0065900725
20	0xbcfc037d	-0.030763382
21	0xbc24e10c	-0.010063421
22	0xbbe1ea8f	-0.0068944166
23	0xbc6d47da	-0.014482463
24	0xba031c24	-0.00050014467
25	0xbc58d7fd	-0.013235089
26	0xbc88de1c	-0.016707473
27	0xbccd6f91	-0.025077613
28	0xbcad7a6e	-0.021176543
29	0xbc7b0ea9	-0.0153233195
30	0xbb9f5f1a	-0.004863632
31	0xbcda1fa8	-0.026626423
32	0xbc9e3fce	-0.019317534
33	0xba88b618	-0.0010430245
34	0xbc4587cd	-0.012056303
35	0x39d0ca3d	0.0003982353
36	0xbc569c66	-0.013098812
37	0x3bb40f26	0.00549497
38	0x3b8967a1	0.0041932617
39	0x3be56e1a	0.0070016505
40	0x3c7d34c8	0.015454479
41	0x3c7c0e7c	0.015384313
42	0x394a19ec	0.00019273878
43	0xbbe9f99a	-0.0071403505
44	0xbaae82c3	-0.0013314117
45	0xbc0dd544	-0.0086568035
46	0x3bb713f3	0.005587095
47	0x3bbcd829	0.005763073
48	0xbc26d8e4	-0.010183547
49	0xbbba2e20	-0.005681768
50	0xbcc95756	-0.024577778
51	0xbc077bec	-0.008269291
52	0xbc489b21	-0.012244017
53	0xbbce7a54	-0.0063012037
54	0xbc743f36	-0.014907649
55	0xbbde8605	-0.0067908787
56	0xbbe1966e	-0.0068843877
57	0xbc0d7216	-0.008633157
58	0x3c120c9a	0.008914137
59	0xbbaf8bda	-0.005357248
60	0xb98b430a	-0.00026562094
61	0x3abfbb76	0.0014628011
62	0x3c273578	0.010205619
63	0x3bb9076e	0.0056466376
64	0xb92c6433	-0.00016440525
65	0xbc4d9f9c	-0.012550261
66	0xbc75b5d3	-0.014996964
67	0xbc9579f6	-0.018246632
68	0xbc3ed036	-0.011646321
69	0xbc179762	-0.009252401
70	0xbc31215d	-0.010811177
71	0xbbcd2f1f	-0.006261721
72	0xbcdcb9ac	-0.026944004
73	0xbd0ca558	-0.03433737
74	0xbc23ff48	-0.010009594
75	0xbc2e908e	-0.010654582
76	0xbcc6b6e6	-0.024257135
77	0x3b24295f	0.0025049073
78	0xbc0f019f	-0.008728414
79	0xbc1c8f6c	-0.009555679
80	0x3b8f5ed0	0.004375316
81	0xba386ec3	-0.0007035548
82	0xbb5262ee	-0.0032102424
83	0xbaa36cae	-0.0012468302
84	0xbc141c78	-0.009039991
85	0xb9853c00	-0.0002541244
86	0x3c0ecd7d	0.008715984
87	0x3bec63b1	0.0072140326
88	0x3a7bb914	0.0009602469
89	0x3c270b66	0.010195589
90	0x3be0f633	0.0068652867
91	0xbbb27ec4	-0.0054472405
92	0xbc0be12c	-0.008537572
93	0x3bf5bc98	0.007499289
94	0xb8f66f71	-0.00011750952
95	0xbb945961	-0.0045272564
96	0xbc0bb2e3	-0.008526537
97	0x3c4779da	0.012175048
98	0xbbadb73d	-0.0053013847
99	0x3c1c92ba	0.009556467
100	0xbabb2dc8	-0.0014280612
101	0xbc58ace9	-0.013224819
102	0xbc7e7494	-0.015530724
103	0xbc5aaa2a	-0.013346234
104	0xbb6190d1	-0.0034418593
105	0xbc22a2c1	-0.009926499
106	0xbb89db78	-0.004207071
107	0xbb023079	-0.0019865318
108	0x3b963222	0.004583613
109	0xbc94147c	-0.018076174
110	0x3c18ab1d	0.00931814
111	0x3c7da34e	0.015480829
112	0xbc4f115f	-0.012638419
113	0x3b1278f3	0.0022349923
114	0xbbe740c0	-0.0070572793
115	0xbc58db36	-0.013235858
116	0x3c122a81	0.0089212665
117	0x3b40a45f	0.0029394848
118	0xbc345e78	-0.011008851
119	0x3b18413f	0.002323225
120	0xbc0a93db	-0.008458103
121	0xbbcee752	-0.0063141966
122	0xbbe64831	-0.007027649
123	0x3b58e271	0.0033093954
124	0x3cbb5fca	0.022872824
125	0x3c038e5d	0.0080295475
126	0xbcddf8c4	-0.02709616
127	0xbba735f7	-0.0051028687

3.conv1.lin_l.weight f4 [16, 4]
0	0x3c660ea8	0.01404158
1	0x3dbb8960	0.091570616
2	0x3e06907a	0.13141051
3	0x3e17e05d	0.14831682
4	0x3b0dc22f	0.0021630635
5	0x3da39583	0.079875015
6	0x3e04736c	0.12934655
7	0x3de1cf53	0.11025872
8	0x3bbcc64c	0.0057609435
9	0x3de6b4ae	0.11264931
10	0x3e258616	0.16164431
11	0x3e12b868	0.14328158
12	0x3bddefd6	0.0067729754
13	0x3dfd5f03	0.12371638
14	0x3e078642	0.13234809
15	0x3e0d7afb	0.13816445
16	0x3c286f4d	0.010280442
17	0x3dae8e38	0.0852322
18	0x3e29ca2e	0.16581032
19	0x3e03e664	0.12880856
20	0x3b48795d	0.0030589916
21	0x3d9762e2	0.07391907
22	0x3e12e440	0.14344883
23	0x3dd25377	0.10269826
24	0x3a41b973	0.000739
25	0x3dc8814d	0.09790287
26	0x3e19b1d9	0.1500925
27	0x3dbe6a2e	0.09297596
28	0x3c044d3e	0.008075057
29	0x3dd3e20a	0.10345848
30	0x3e1cf57a	0.15328017
31	0x3e029fd7	0.12756287
32	0x3bde801a	0.0067901732
33	0x3dba1786	0.09086518
34	0x3e3309b7	0.17484175
35	0x3e4311cc	0.19049758
36	0x3b0ddd05	0.002164663
37	0x3de1586f	0.110031955
38	0x3e2ce225	0.16883142
39	0x3e381396	0.17976221
40	0xbb0d6cac	-0.0021579666
41	0x3d8ccdad	0.06875167
42	0x3e31ac5b	0.17350905
43	0x3e0d773a	0.13815013
44	0x3bbce3bf	0.005764454
45	0x3dc9dcef	0.09856593
46	0x3e05c218	0.13062322
47	0x3e160c59	0.14653148
48	0x3bce684f	0.0062990556
49	0x3dcfe1bd	0.10150478
50	0x3e1c2536	0.1524857
51	0x3e1ace00	0.15117645
52	0x3bdf3e3d	0.0068128393
53	0x3de0bf9b	0.10974046
54	0x3e19c99f	0.15018319
55	0x3e2e3b4f	0.17014812
56	0x3c1ab1fc	0.009441849
57	0x3de6a820	0.11262536
58	0x3e356cd8	0.17717302
59	0x3e0d7b79	0.13816632
60	0xbb2324b1	-0.0024893696
61	0x3de72486	0.11286263
62	0x3e218099	0.15771712
63	0x3e0fa75a	0.14028683

3.conv1.lin_l.bias f4 [16]
0	0x3e1cf5d8	0.15328157
1	0x3e331138	0.17487037
2	0x3e39d488	0.1814748
3	0x3e07e832	0.13272169
4	0x3e27e0aa	0.16394296
5	0x3e254546	0.16139707
6	0x3e280543	0.16408257
7	0x3e309b1a	0.17246667
8	0x3e6afc29	0.22947754
9	0x3e4469ca	0.1918098
10	0x3e25f932	0.16208342
11	0x3e1391a9	0.14411034
12	0x3e39d90d	0.18149205
13	0x3e15f298	0.14643323
14	0x3e58a99c	0.21158451
15	0x3e26c252	0.16285065

3.conv1.lin_r.weight f4 [16, 4]
0	0x3c79e43c	0.015252169
1	0x3dfe012d	0.12402568
2	0x3e2b785b	0.1674513
3	0x3e04c4f8	0.12965763
4	0x3c227198	0.009914778
5	0x3dfa8b81	0.122336395
6	0x3e1ae1c8	0.15125191
7	0x3e21e728	0.15810835
8	0x3c2ef36c	0.0106781535
9	0x3e2436d2	0.16036537
10	0x3e376e1b	0.17913096
11	0x3e137d36	0.14403233
12	0x3c85fc73	0.016355729
13	0x3e049f63	0.12951426
14	0x3e136bca	0.14396587
15	0x3e42d831	0.19027783
16	0x3be192a8	0.006883938
17	0x3de84b9a	0.11342545
18	0x3e3602d4	0.17774516
19	0x3e2472dd	0.16059442
20	0x3bbcc3c9	0.005760644
21	0x3e042cff	0.1290779
22	0x3e1974f8	0.14986026
23	0x3df9f943	0.12205746
24	0x3c719ff8	0.014747612
25	0x3dfe37a8	0.12412959
26	0x3e22b107	0.15887843
27	0x3e12e3ef	0.14344762
28	0x3c1597a6	0.009130394
29	0x3e067a14	0.13132507
30	0x3e3a125c	0.18171066
31	0x3e0d797f	0.13815878
32	0x3bc8ab4d	0.0061239363
33	0x3dfcb3b3	0.123389624
34	0x3e4d0dc3	0.20024781
35	0x3e34459a	0.17604676
36	0x3c1cbfda	0.009567225
37	0x3e02dc6e	0.127794
38	0x3e4162f2	0.18885401
39	0x3e136d74	0.14397222
40	0x3c33def2	0.010978447
41	0x3defeeae	0.117154464
42	0x3e039cf2	0.12852839
43	0x3e332684	0.17495161
44	0x3c9ed85a	0.019390274
45	0x3e03b2c8	0.12861168
46	0x3e2d1118	0.16901052
47	0x3e269814	0.1626895
48	0x3ca28016	0.019836467
49	0x3de218bf	0.11039876
50	0x3e1fca59	0.15604533
51	0x3e161fad	0.14660521
52	0x3c3e22a6	0.0116049405
53	0x3e02776d	0.1274087
54	0x3e2e3bdd	0.17015024
55	0x3e11ea14	0.1424945
56	0x3c675b65	0.014120911
57	0x3de77c5b	0.11303016
58	0x3e133a1f	0.1437764
59	0x3e43efc5	0.19134434
60	0x3c878a5a	0.016545463
61	0x3e144d3b	0.14482586
62	0x3e2976fa	0.16549292
63	0x3e1cb41c	0.15303081

3.conv2.lin_l.weight f4 [8, 16]
0	0x3b18f58f	0.0023339724
1	0xbc02f0b4	-0.007991958
2	0x3caaedc5	0.02086533
3	0xbcc29260	-0.023751438
4	0x3c3bca56	0.011461815
5	0x38d6999a	0.00010232926
6	0x3b0f156e	0.0021832841
7	0x3c879664	0.016551204
8	0xbc7958e6	-0.015218949
9	0x3ced584d	0.02897277
10	0x3cd4d25a	0.02597921
11	0x3c797714	0.015226144
12	0x3be93cc8	0.0071178414
13	0x3bffcfda	0.0078067603
14	0x3c8f4827	0.01749046
15	0x3c0e2171	0.008674965
16	0xbcce2e7d	-0.025168652
17	0x3abdfe78	0.0014495393
18	0x3b75695a	0.0037446828
19	0xbbfc2e51	-0.007695951
20	0xbc1bb3fc	-0.009503361
21	0xbc8043e3	-0.01565737
22	0x3b81c8cf	0.003960706
23	0x3c446f00	0.011989355
24	0xbbfaf03f	-0.007658034
25	0xba03e6bd	-0.0005031636
26	0xbbae4172	-0.0053178603
27	0xbc8f0bc8	-0.017461672
28	0xbca7a8c8	-0.020466223
29	0x3baa2c1a	0.0051932456
30	0xbc824cb1	-0.01590571
31	0xbc2dae61	-0.010600657
32	0xbc28ee5b	-0.010310735
33	0xbbfc9938	-0.007708695
34	0xbcb61697	-0.022227569
35	0x3b94832f	0.00453224
36	0xbc4aaaa6	-0.012369787
37	0xbcca3700	-0.02468443
38	0xbc8f3851	-0.017482908
39	0xbb8b4894	-0.0042505953
40	0xbd1f9737	-0.03896257
41	0xbc96e042	-0.018417481
42	0xbb8706fb	-0.004120705
43	0xbb8c384b	-0.0042791716
44	0xbc7bca36	-0.015368035
45	0xbc595fe4	-0.013267491
46	0xbccc9f7f	-0.024978397
47	0xba8ed6c4	-0.0010897745
48	0x3d05a4fc	0.032628044
49	0xbc0ec0b3	-0.008712935
50	0x3b4c275b	0.0031151387
51	0xbac625b8	-0.0015117442
52	0x3bfba166	0.0076791523
53	0xbc2b9c36	-0.010474255
54	0x3c71b688	0.0147529915
55	0xba2f8c5f	-0.0006696637
56	0x3b8cf3b4	0.0043015126
57	0x3b272e46	0.002550976
58	0x3c997600	0.018733025
59	0x3cd3bb84	0.02584625
60	0x3b1066b0	0.0022033863
61	0x3c9a23dc	0.018815927
62	0x3cd091c5	0.025460133
63	0xbab338db	-0.001367356
64	0x3a5bbc0d	0.0008382209
65	0x3c5883e1	0.013215036
66	0x3c52c9b7	0.012865475
67	0x3c2e7191	0.0106471935
68	0xbc4da148	-0.0125506595
69	0x3c218c61	0.009860129
70	0x3b12aec7	0.0022382007
71	0x3ba262cb	0.0049556247
72	0x3ca176a4	0.019709893
73	0x3cc88d60	0.024481475
74	0x3cad8fe5	0.021186778
75	0x3adf316c	0.0017028279
76	0x3c9bd355	0.01902167
77	0x3c7c390a	0.015394459
78	0x3c04ffa0	0.008117586
79	0xbb81991b	-0.003955019
80	0xbc5a7f46	-0.013336008
81	0x3bf007c1	0.007325143
82	0xbab75994	-0.0013988488
83	0xbc89778b	-0.016780635
84	0x3bcdbf43	0.0062789037
85	0x3b80be6d	0.0039289505
86	0x3c1adbf6	0.009451857
87	0xbb86d71d	-0.004114999
88	0xbca97860	-0.020687282
89	0xbb472ce5	-0.003039175
90	0x3b2de0e8	0.002653176
91	0xbb734c49	-0.0037124327
92	0x3c38b011	0.011272446
93	0x3b84f968	0.004058052
94	0xbbc34809	-0.005959515
95	0xbc8d25f4	-0.017230012
96	0x3c977974	0.01849053
97	0xbb0e7e7c	-0.002174287
98	0x3cd6873a	0.026187528
99	0x3c88ddf3	0.016707396
100	0x3becbcd3	0.007224658
101	0x3c4aa976	0.012369504
102	0x3aea1bdf	0.001786109
103	0x3c9aeb58	0.018911049
104	0x3cf4b0a9	0.029869394
105	0x3cfc1a74	0.030774333
106	0x3c85d7e5	0.016338298
107	0x3d030768	0.031989485
108	0x3c56457b	0.013078089
109	0x3d1c7f13	0.038207125
110	0x3bd441c6	0.0064775674
111	0x3c3b0923	0.011415753
112	0x3c7ba26c	0.015358549
113	0x3c6c8fdf	0.014438598
114	0x3c574c9f	0.0131408265
115	0xbaca200d	-0.0015420929
116	0xba4eacd7	-0.00078840315
117	0x3bed74ee	0.007246605
118	0x3ad4e9e4	0.0016244021
119	0x3c4a8b4d	0.012362313
120	0x3af19521	0.0018431285
121	0x3b0edb1a	0.0021798075
122	0x3c23f173	0.010006296
123	0x3b25f245	0.0025321406
124	0xbbb112ee	-0.005403868
125	0x3c18574f	0.00929816
126	0x3c948eb3	0.01813445
127	0xba6f1317	-0.0009119971

3.conv2.lin_l.bias f4 [8]
0	0x38c7f8a4	9.5353724e-05
1	0x3b81274c	0.003941452
2	0xbc7c72a8	-0.015408196
3	0x3cb231e4	0.021752305
4	0x3cc70fbd	0.024299497
5	0xbc89bd5a	-0.016813923
6	0x3ca1ca53	0.019749796
7	0xbc033a4f	-0.008009507

3.conv2.lin_r.weight f4 [8, 16]
0	0x3c4fb960	0.012678474
1	0x3ad9cdb1	0.0016617087
2	0x3cb904f4	0.02258537
3	0xbc87dcdf	-0.016584812
4	0xbc30434c	-0.010758232
5	0x3bdc7c1f	0.0067286636
6	0xbc209ab5	-0.00980251
7	0x3cc070e6	0.023491334
8	0x3bac9254	0.005266467
9	0x3c6c0fac	0.014408033
10	0x3c1893d1	0.009312586
11	0x3c129b68	0.008948185
12	0x3c548f7b	0.012973662
13	0xbc348ba8	-0.011019625
14	0xbc573a89	-0.013136514
15	0xbc30b2c4	-0.010784809
16	0xbc076eaa	-0.00826613
17	0x393a8b52	0.00017790243
18	0xbb7fe297	-0.003904497
19	0xbbd50f1a	-0.0065020444
20	0xba5c2b08	-0.0008398746
21	0xbcc58c8d	-0.024114871
22	0xbc38c03d	-0.011276302
23	0xba12db3f	-0.0005602128
24	0x3923699f	0.00015584238
25	0xbc903d38	-0.017607316
26	0x3c5344ca	0.012894819
27	0xbbe4d463	-0.0069833263
28	0xbc87b9b8	-0.01656805
29	0x3c196f0f	0.009364857
30	0x3b0ea6c8	0.002176689
31	0xbc8637cc	-0.016384028
32	0xbbd42b4d	-0.0064748884
33	0xbc256d8d	-0.01009692
34	0xbc16b52f	-0.009198471
35	0xbb83ce22	-0.0040223757
36	0xbc5aae7f	-0.013347267
37	0xbc514aae	-0.012774153
38	0xbbe7970a	-0.007067566
39	0xbbd369fc	-0.0064518433
40	0xbd0bd292	-0.034136362
41	0xbd12c959	-0.03583655
42	0xbb1f05ee	-0.002426501
43	0xbc1a5846	-0.00942046
44	0xbc002d42	-0.00782329
45	0xbbceca94	-0.0063107703
46	0xbc775e52	-0.015098171
47	0x3bd117b1	0.006380998
48	0x3cda3a68	0.026639178
49	0x3c4ef673	0.012632
50	0x3bd0ff9a	0.0063781263
51	0x3bcc68ba	0.0062380703
52	0x3c1a82a3	0.00943056
53	0x3b14f031	0.0022726173
54	0x3c5866e8	0.0132081285
55	0xbbf08c2e	-0.0073409295
56	0x3c28ed46	0.010310477
57	0x398b57e1	0.0002657762
58	0x3c8e8253	0.017396128
59	0x3c46ba14	0.012129325
60	0x3cebc06c	0.028778277
61	0x3c2597fa	0.010107035
62	0x3c25fdc9	0.010131308
63	0xbb8f7ccb	-0.00437889
64	0xba1418d4	-0.00056494516
65	0x3ac177c6	0.0014760427
66	0x3ccd5e7f	0.025069473
67	0x3c5058da	0.012716496
68	0x3c51645a	0.012780273
69	0x3ca3fd24	0.020018168
70	0xbc1dfd01	-0.00964284
71	0x3c60394a	0.013685534
72	0x3b1c1421	0.0023815709
73	0x3caa31fb	0.020775786
74	0x3bcfc2c0	0.0063403547
75	0x3bcaac72	0.006185108
76	0x3c1b8450	0.009491995
77	0x3ccdc8e4	0.025120206
78	0x3cc4b8a4	0.024013825
79	0x3b79a1ec	0.0038090898
80	0xbc7eb9a6	-0.015547192
81	0xbb577045	-0.0032873314
82	0x3b9803dc	0.004639132
83	0xbcaecc1f	-0.021337567
84	0xbc946c94	-0.01811818
85	0xbb06970a	-0.0020536804
86	0xbc86f77f	-0.016475437
87	0x3c2f076a	0.01068292
88	0xbba0d268	-0.004907895
89	0xbc5f514e	-0.013630224
90	0x3c5fa985	0.013651256
91	0xbb8d8a63	-0.0043194755
92	0x3bbc95df	0.0057551707
93	0x3a34c7e9	0.0006896244
94	0xbcd497d2	-0.0259513
95	0xbcec6ece	-0.02886143
96	0x3c9516cc	0.018199347
97	0xbb8009a8	-0.003907401
98	0x3c9b6e0f	0.018973378
99	0x3b67c524	0.0035365308
100	0x3b982048	0.00464252
101	0x3c847792	0.016170297
102	0xba5987c3	-0.0008298123
103	0xbc49c82d	-0.012315792
104	0x3ccad4cf	0.024759678
105	0x3d03c414	0.032169417
106	0x3ca0529d	0.019570643
107	0x3bd24278	0.006416615
108	0x3c1ddc5a	0.009635055
109	0x3cc6d4b3	0.024271345
110	0x3bc74dce	0.006082273
111	0x3bb14e0c	0.0054109152
112	0x3c829aae	0.015942898
113	0x3bfa4414	0.00763751
114	0x3b903023	0.0044002696
115	0x3c25b731	0.010114477
116	0x3c79007c	0.015197869
117	0x3b414f09	0.0029496572
118	0x3c903eb8	0.017608032
119	0x3c815718	0.0157886
120	0x3c3f46c5	0.011674588
121	0xbbcb5c1a	-0.0062060477
122	0x3c4a6874	0.012354005
123	0xba827cc3	-0.0009955395
124	0xbbfebd8a	-0.0077740597
125	0xbb93383a	-0.0044927867
126	0x3c1baa43	0.009501043
127	0xbc2c555d	-0.010518399

4.conv1.lin_l.weight f4 [16, 4]
0	0x3dc3e931	0.09565962
1	0x3cb84ea8	0.022498444
2	0x3d005c1a	0.031337835
3	0x3e0ac274	0.1355074
4	0x3dd1a82c	0.10237154
5	0x3c77653c	0.01509982
6	0x3d092a80	0.033487797
7	0x3db19ed4	0.08672872
8	0x3db7aad8	0.08968133
9	0x3d199921	0.03749955
10	0x3b92e185	0.0044824504
11	0x3dde79fd	0.10863111
12	0x3dabeb81	0.08394528
13	0x3ce1e70a	0.027575988
14	0x3d71241a	0.05887232
15	0x3ddc47cd	0.107558824
16	0x3d9c0498	0.07618064
17	0x3cb8eb1f	0.022573052
18	0x3d84d42f	0.06485783
19	0x3d9a93a3	0.07547691
20	0x3d92e33c	0.07172248
21	0x3d0c95f5	0.034322698
22	0x3d5f4536	0.054509364
23	0x3da1a62a	0.078930214
24	0x3da4f234	0.08054009
25	0x3c89fa93	0.016843116
26	0x3d3460c9	0.044037614
27	0x3d867308	0.06564909
28	0x3dcb4c12	0.09926619
29	0x3d24ddf4	0.040250733
30	0x3d4fede3	0.050763976
31	0x3dbcf21b	0.092258655
32	0x3daf00c5	0.08545069
33	0x3d56e720	0.05246651
34	0x3cc25db1	0.023726316
35	0x3da91aea	0.082570866
36	0x3d99b193	0.07504573
37	0x3c74e957	0.014948211
38	0x3ceb016d	0.028687203
39	0x3d9ac1d1	0.07556499
40	0x3debb4c8	0.11509091
41	0x3d58b50e	0.052907042
42	0x3d41bb83	0.047297966
43	0x3da7c9f7	0.081928186
44	0x3db8992a	0.09013589
45	0x3ca9caf6	0.020726662
46	0xbcb35c18	-0.0218945
47	0x3dcf45b6	0.10120718
48	0x3db6a753	0.08918633
49	0xbb70e748	-0.0036758948
50	0x3d15191b	0.036400896
51	0x3db48993	0.08815303
52	0x3da811e1	0.08206535
53	0x3c38a81c	0.011270549
54	0x3d965ba6	0.07341699
55	0x3dac7fa3	0.08422782
56	0x3db98326	0.09058218
57	0x3b98f766	0.004668164
58	0x3d28e6f1	0.041235868
59	0x3de10a5f	0.10988306
60	0x3d97806d	0.07397542
61	0x3cf31bb4	0.029676296
62	0x3ccbfcb8	0.02490078
63	0x3da5d591	0.08097375

4.conv1.lin_l.bias f4 [16]
0	0x3dadd43a	0.08487745
1	0x3d9a189f	0.07524227
2	0x3d856860	0.065140486
3	0x3d9ac7c3	0.07557633
4	0x3d804dce	0.0626484
5	0x3d5d5dfd	0.054044712
6	0x3d745f4e	0.059661202
7	0x3da07438	0.07834667
8	0x3d8989ca	0.06715734
9	0x3d91d24f	0.07120191
10	0x3d80baac	0.06285605
11	0x3d4f47d8	0.050605625
12	0x3dbd977c	0.09257409
13	0x3d9fb6db	0.07798549
14	0x3d93cb84	0.07216552
15	0x3d959681	0.07304097

4.conv1.lin_r.weight f4 [16, 4]
0	0x3dcb491f	0.09926056
1	0x3d54a892	0.051918574
2	0x3dc892b6	0.09793608
3	0x3dc76a91	0.09737123
4	0x3df08c8e	0.11745559
5	0x3d4981bb	0.049195986
6	0x3d68a0e8	0.056794077
7	0x3dcacff2	0.09902944
8	0x3de630ba	0.112397626
9	0x3cd2ee48	0.025748387
10	0x3ca73c4a	0.02041449
11	0x3d8b4bcd	0.06801567
12	0x3e12ee8c	0.14348811
13	0x3cf4b451	0.029871138
14	0x3d3d9174	0.046281293
15	0x3da83052	0.08212341
16	0x3df2100a	0.118194655
17	0x3d8e58c9	0.06950528
18	0x3d46e1fb	0.048555356
19	0x3dd87431	0.10569037
20	0x3dee6343	0.116400264
21	0x3da586b1	0.08082331
22	0x3d1a1d94	0.037625864
23	0x3dabd193	0.083895825
24	0x3dc9e928	0.09858924
25	0x3d401356	0.04689344
26	0x3d58f4a8	0.052967697
27	0x3dbe82d4	0.09302297
28	0x3dfce881	0.12349034
29	0x3cccc72d	0.024997318
30	0x3d862f9c	0.065520495
31	0x3deb8acc	0.11501083
32	0x3dc4906d	0.095978595
33	0x3c539128	0.012913026
34	0x3d8e7024	0.06954983
35	0x3dce128c	0.10062131
36	0x3dfd38cf	0.12364351
37	0x3d746bb7	0.059673037
38	0x3d94cdbe	0.07265805
39	0x3da7b831	0.081894286
40	0x3dfd1b3c	0.1235871
41	0x3cc5faa0	0.024167359
42	0x3da2c99e	0.07948612
43	0x3d9c3105	0.07626537
44	0x3e05bdff	0.13060759
45	0x3d4137dd	0.047172416
46	0x3d6ebb11	0.05828387
47	0x3da980ee	0.082765445
48	0x3dd61d93	0.104548596
49	0x3d1e265d	0.038610805
50	0x3d477546	0.048695825
51	0x3d757436	0.05992528
52	0x3df76f52	0.120817795
53	0x3cfe38a5	0.03103287
54	0x3d50a214	0.05093582
55	0x3de33076	0.110932276
56	0x3dd0aa94	0.10188785
57	0x3c4ab7e4	0.0123729445
58	0x3ce2f933	0.027706718
59	0x3dcc5546	0.09977202
60	0x3df2a031	0.1184696
61	0x3d42efbf	0.04759192
62	0x3c4440c0	0.011978328
63	0x3d8daa97	0.06917303

4.conv2.lin_l.weight f4 [8, 16]
0	0xbacc6465	-0.0015593885
1	0xb9b7b5fb	-0.00035040066
2	0xbacbde7d	-0.0015553978
3	0xbbedad57	-0.0072533297
4	0x3bf90eb1	0.0076006283
5	0xbacf97b3	-0.0015838057
6	0x3b6a33b7	0.003573639
7	0x3c9ecc15	0.019384423
8	0xbbfd9e26	-0.0077398
9	0x3cb1177d	0.021617645
10	0x3cc99569	0.024607377
11	0xbc14f611	-0.00909187
12	0x3bc0dfad	0.005886039
13	0xb894b1ec	-7.0903305e-05
14	0xbbd5fb3d	-0.006530194
15	0x3cd596ce	0.026072886
16	0x3c8571bb	0.016289582
17	0x3c2ea936	0.01066046
18	0xbc3071ef	-0.010769351
19	0xbcd26e1b	-0.025687268
20	0xbc1cbb21	-0.009566099
21	0x3ca2d845	0.019878516
22	0xbbcc93a4	-0.006243186
23	0xbc372ecf	-0.011180594
24	0xbc4f55e4	-0.012654755
25	0x3c6e3bbd	0.01454061
26	0xbc16977b	-0.009191389
27	0x3cad4283	0.02114988
28	0x3aa7d1c5	0.0012803605
29	0xba7498a5	-0.0009330607
30	0xbc0686ad	-0.00821082
31	0x3b9c49b9	0.0047695306
32	0xbcb88e74	-0.022528864
33	0xbc8b04db	-0.016970089
34	0xbc834892	-0.016025815
35	0x3c123715	0.008924265
36	0xbb27d2c0	-0.0025607795
37	0x3c1132bd	0.008862195
38	0xbc58575c	-0.013204422
39	0xbc1f1607	-0.009709842
40	0xbc318113	-0.010833996
41	0xbc537eff	-0.012908696
42	0xbb05e73d	-0.0020432018
43	0xbc3e8188	-0.011627562
44	0xbc12864c	-0.008943152
45	0xbc829e3d	-0.015944595
46	0xbb62fe71	-0.0034636522
47	0x36f5f385	7.3299184e-06
48	0x3c9c39f7	0.019070609
49	0x3c39695a	0.011316622
50	0x3c43be7b	0.01194727
51	0x3bc0fd0d	0.005889541
52	0x3b0a15c1	0.0021070095
53	0x3ae2fd4d	0.0017317921
54	0x3c1bed8d	0.009517086
55	0xbbbbe62c	-0.0057342257
56	0x3c53adfb	0.012919898
57	0xba81250f	-0.0009852963
58	0x3c4cc52c	0.012498181
59	0x3ca4e283	0.02012754
60	0xbc89a08d	-0.01680019
61	0xbc8d635c	-0.017259292
62	0xbb3365c4	-0.002737389
63	0x3b63ce01	0.003476024
64	0x3b2d4c03	0.0026443012
65	0xbc6d0266	-0.014465904
66	0x3c6af1a1	0.014339835
67	0x3cbe0646	0.02319635
68	0x3af5b760	0.0018746667
69	0x3c44397f	0.011976599
70	0x3b8e6a57	0.004346173
71	0xbb4b185f	-0.0030989868
72	0x3cd9bb36	0.026578527
73	0xbc0329dc	-0.0080055855
74	0xbca3ee9a	-0.020011235
75	0x3c4516ea	0.012029389
76	0xbb86bdcc	-0.004111981
77	0x3c0dc04e	0.008651806
78	0x3ae901ec	0.0017777062
79	0x3c2051ec	0.009785157
80	0xbcacaeea	-0.0210795
81	0xbc2ae831	-0.010431335
82	0xbc849b6d	-0.016187394
83	0xbb968e74	-0.0045946185
84	0xbb8e9297	-0.004350971
85	0xba0d1780	-0.0005382225
86	0xbc1ac610	-0.009446636
87	0xbc63b537	-0.013898185
88	0x3ac0ffdb	0.0014724688
89	0xbc7f2f9a	-0.015575314
90	0x3c95dd4c	0.018294
91	0xbb876613	-0.0041320412
92	0xbc13663d	-0.0089965435
93	0xbc3d22ae	-0.011543913
94	0xbbf92488	-0.007603232
95	0x3c2bbdf4	0.0104823
96	0xbc9226bf	-0.017840741
97	0xbcb9c186	-0.022675287
98	0xb9f588d7	-0.00046831995
99	0x3c686d49	0.014186212
100	0xbb12056e	-0.0022281068
101	0x3c8426bf	0.016131757
102	0xbb6b19b6	-0.003587348
103	0xbb96018a	-0.00457782
104	0xba7285c8	-0.00092515023
105	0x3c383f8d	0.01124562
106	0xbc16b14e	-0.009197546
107	0x3bdb4fdd	0.00669287
108	0x3c82595c	0.01591175
109	0xbca76f8a	-0.020438928
110	0x3b3c937f	0.0028774438
111	0x3c10c35c	0.00883564
112	0xba7fc524	-0.0009756854
113	0xba162d63	-0.0005728809
114	0xbca1620a	-0.019700069
115	0xbbf0fd3a	-0.0073544057
116	0xbba7889d	-0.005112721
117	0x3bde67b1	0.0067872633
118	0x3b353d68	0.002765501
119	0xbce5eacd	-0.028066063
120	0x3c5b9965	0.013403271
121	0xbb0a92f9	-0.0021144731
122	0xbb964566	-0.0045859097
123	0xbcc05a1a	-0.023480464
124	0xbc186e3d	-0.009303627
125	0xbcdb96d8	-0.026805326
126	0xbc44c05a	-0.012008751
127	0xbc271792	-0.010198491
